combined_tests/MediaPipe_ImageClassifier_1_5K.onnx (onnx, 101291 bytes, 20 tensors)

fc1.weight f4 [200, 11]
0.20016004 0.01564744 0.058122803 -0.9622981 -1.8018495 0.7151145 -0.3235591 -0.0026874428
0.29400977 -0.23320645 -1.1537668 0.029552164 0.39541453 -0.13730071 -0.33712825 -0.6644371
-0.425032 -0.2222584 0.025142211 0.016031526 -0.44585964 2.894751 -0.14811344 0.7418118
-0.37775305 0.77846044 -0.14322466 0.111189514 0.13952975 -0.12018584 0.062715076 0.2741228
-1.6396521 -0.6457051 0.21943378 0.49934703 1.0383621 1.8762052 -0.6376639 0.17631426
0.24758236 0.13629803 -0.010893793 -0.38851237 0.66449803 -0.6781187 0.3648723 -0.9906203
1.2450849 0.26177773 -0.46351045 0.010962146 -0.20566824 0.46755794 -0.2590094 0.07197637
-0.7176204 0.25754595 0.9706536 0.004988842 -0.16738945 0.4553133 0.3825977 -0.085318014
0.0008380935 1.5288874 0.5200192 0.04770767 0.101918064 -0.70113045 -1.0217003 0.36855465
0.4492878 -0.70675105 0.06438749 -0.08629502 1.3179903 -0.24087517 0.71797204 -0.37478876
-1.4658237 -0.3840247 0.5110869 0.10044024 -0.0073497333 0.06702238 0.19159676 -0.99923456
-0.76122355 0.058071375 0.16813286 -0.29207882 0.24478608 0.88914084 0.5097949 0.60163194
-0.28837422 0.12410174 0.58328027 -0.11037897 -0.10151571 0.23590678 -1.6897886 -0.022635445
0.061688274 -0.68816435 -0.36168015 0.14604624 -0.12789634 -1.1354166 -1.1668172 0.38088194
0.031101307 -0.03858768 0.8324975 0.068099886 -0.09997206 0.44445235 -0.25893646 0.17734262
0.72778106 0.58628637 0.13675474 -0.29172775 -0.5344544 -0.5907203 0.831229 -0.59091425
0.5347764 -0.20338374 0.550639 -0.1639512 0.19042605 -0.6969861 0.42134452 0.2149983
1.4140297 0.21322055 0.28426987 -0.021374242 -0.41504583 0.39576074 0.6657543 -0.3271944
0.009938558 0.29448676 -0.55797416 -0.62933815 1.7504498 0.1872664 0.45177263 -0.27159932
-0.15617718 0.817298 4.489495e-05 -0.15376192 0.01901238 -0.6158071 0.12242457 -0.029586036
-0.9566793 0.043813035 -0.37444094 0.6777783 1.042615 0.40233228 -0.6028128 -0.1895062
-0.77749676 -0.39665157 -0.30402765 -0.15489754 -0.20697056 0.5578078 0.34244126 -1.1391317
0.8165428 -1.0922675 0.083828785 0.047858622 0.77871037 0.20466843 -0.13173026 -0.24726205
0.12894543 -0.1106101 -0.40590975 0.5114946 0.1936808 -0.25796482 -0.4069186 1.415283
-0.102693126 0.5909578 0.31539527 -0.5227865 -0.31496662 0.58823293 0.2690401 0.52833664
-0.17518201 -0.0508858 -1.5660564 -0.41233027 0.060206078 0.08149235 0.38276514 -0.8160666
0.53136605 -0.010211704 0.24133146 -0.19979204 0.6209316 -0.9280908 -0.39043042 0.0013628764
-0.35470966 0.10608804 -1.9354662 0.9187312 -0.049756926 0.08453895 -0.06221449 0.1866848
0.54189235 -0.75335103 0.26429284 0.7229549 -0.64902246 0.17251186 0.6843748 0.49357995
-0.38071206 0.023509772 0.86095613 3.1354177 -0.2475388 0.16482411 0.14710666 -0.04125682
-0.05737929 0.6852809 0.17095026 -1.310177 0.08842697 -0.89572525 -1.6126009 0.22300488
-0.22797471 0.25852838 -0.1768101 0.02373606 0.63362765 1.2863142 -0.07470545 0.19162251
00000000: c1f6 4c3e 0f2f 803c 2d12 6e3d 2b59 76bf
00000010: 01a3 e6bf be11 373f 8aa9 a5be cf1f 30bb
00000020: 7388 963e accd 6ebe a1ae 93bf 6117 f23c
00000030: c673 ca3e 8f98 0cbe 139c acbe 8d18 2abf
00000040: cb9d d9be b597 63be 0af7 cd3c 8c54 833c
00000050: b747 e4be 9a43 3940 0dab 17be 61e7 3d3f
00000060: d968 c1be 2f49 473f 7ca9 12be 54b7 e33d
00000070: e3e0 0e3e fe23 f6bd c370 803d d359 8c3e
00000080: 1fe0 d1bf ee4c 25bf 40b3 603e 6aaa ff3e
00000090: 0de9 843f 7e27 f03f f13d 23bf ba8b 343e
000000a0: 3b86 7d3e b691 0b3e e17b 32bc 18eb c6be
000000b0: 8b1c 2a3f 3099 2dbf 8bd0 ba3e 4b99 7dbf
000000c0: f15e 9f3f bb07 863e 3e51 edbe 939a 333c
000000d0: b29a 52be c163 ef3e e19c 84be 5968 933d
000000e0: f8b5 37bf 10dd 833e c17c 783f 7179 a33b
000000f0: 2468 2bbe d31e e93e d9e3 c33e 36bb aebd
00000100: 81b3 5b3a 95b2 c33f fa1f 053f 1e69 433d
00000110: 6bba d03d 497d 33bf 13c7 82bf 32b3 bc3e
00000120: 0d09 e63e a3ed 34bf 97dd 833d 72bb b0bd
00000130: e8b3 a83f fba7 76be 04cd 373f 50e4 bfbe
00000140: 1ca0 bbbf e39e c4be 97d6 023f 9db3 cd3d
00000150: 08d6 f0bb 0843 893d f131 443e d6cd 7fbf
00000160: 8cdf 42bf 40dc 6d3d 052b 2c3e 5b8b 95be
00000170: 34a9 7a3e bc9e 633f eb81 023f 8d04 1a3f
00000180: c9a5 93be 0e29 fe3d db51 153f 5f0e e2bd
00000190: 78e7 cfbd 8c91 713e fe4a d8bf f86d b9bc
000001a0: d8ac 7c3d 8a2b 30bf 242e b9be 258d 153e
000001b0: 42f7 02be 5555 91bf 445a 95bf f502 c33e
000001c0: 2bc8 fe3c 1d0e 1ebd 8e1e 553f f477 8b3d
000001d0: 27be ccbd 428f e33e 5293 84be 4e99 353e
000001e0: dc4f 3a3f dd16 163f 6f09 0c3e 575d 95be
000001f0: 01d2 08bf 7239 17bf 6ccb 543f 2846 17bf
00000200: 1be7 083f d443 50be adf6 0c3f d3e2 27be
00000210: 0cff 423e ae6d 32bf 78ba d73e 8428 5c3e
00000220: edfe b43f 7d56 5a3e d28b 913e 0919 afbc
00000230: e380 d4be 27a1 ca3e e06e 2a3f 0686 a7be
00000240: 55d5 223c f8c6 963e 65d7 0ebf 4e1c 21bf
00000250: bd0e e03f c3c2 3f3e be4e e73e 110f 8bbe
00000260: e9ec 1fbe 713a 513f 964d 3c38 c473 1dbe
00000270: dabf 9b3c 89a5 1dbf bcb9 fa3d 6a5e f2bc
00000280: efe8 74bf 4c75 333d b9b6 bfbe e182 2d3f
00000290: 6974 853f 7ffe cd3e f151 1abf ea0d 42be
000002a0: 070a 47bf ea15 cbbe 83a9 9bbe 769d 1ebe
000002b0: 17f0 53be 7ecc 0e3f 7654 af3e 11cf 91bf
000002c0: f308 513f 6ccf 8bbf 6dae ab3d 6707 443d
000002d0: 9059 473f 9a94 513e 4ce4 06be 4332 7dbe
000002e0: 450a 043e 8c87 e2bd 67d3 cfbe 4ff1 023f
000002f0: 4254 463e f713 84be a257 d0be fe27 b53f
00000300: c650 d2bd 0349 173f 7d7b a13e 56d5 05bf
00000310: 4e43 a1be 6f96 163f a0bf 893e 1241 073f
00000320: ea62 33be a16d 50bd 8974 c8bf f41c d3be
00000330: a69a 763d 76e5 a63d cbf9 c33e bee9 50bf
00000340: 9b07 083f fe4e 27bc 981f 773e 4996 4cbe
00000350: 60f5 1e3f 5c97 6dbf 7fe6 c7be 8ba2 b23a
00000360: 819c b5be b044 d93d 5bbd f7bf f831 6b3f
00000370: ebcd 4bbd c222 ad3d 9fd4 7ebd 4d2a 3f3e
00000380: 75b9 0a3f 9ddb 40bf 6451 873e 9313 393f
00000390: 5626 26bf f3a6 303e 3033 2f3f 83b6 fc3e
000003a0: b1ec c2be 9197 c03c 9f67 5c3f afaa 4840
000003b0: d07a 7dbe a7c7 283e 21a3 163e e9fc 28bd
000003c0: 8c06 6bbd 926e 2f3f 960d 2f3e e1b3 a7bf
000003d0: 3319 b53d 404e 65bf b569 cebf 645b 643e
000003e0: 3472 69be d55d 843e b50d 35be 2072 c23c
000003f0: 6c35 223f f2a5 a43f 2cff 98bd b138 443e

fc1.bias f4 [200]
0.17436618 0.0025483726 0.22703867 0.013016946 -0.17796874 0.07379167 -0.18699557 -0.25376183
-0.22268896 -0.034681685 -0.12905185 0.20563567 -0.07106554 -0.1395577 0.06901023 -0.10354283
-0.20850013 0.16936658 -0.19508278 0.23985669 0.024984747 0.30614564 -0.091823734 -0.016057538
-0.30064037 0.13129275 -0.17011583 -0.30383095 -0.029195039 0.167392 0.008392375 -0.0012988644
-0.14933236 0.1861698 -0.26940438 0.12519217 -0.17569692 3.8051352e-05 -0.13801667 -0.052605845
-0.24698134 0.11179855 0.06262841 -0.08733517 0.23143747 -0.13924 0.22552706 -0.009175682
-0.0051043057 0.22876316 -0.11847803 -0.060350604 -0.23709406 -0.17439948 -0.17283079 0.12277541
-0.1529519 -0.29632762 0.030278845 0.21257026 0.32043874 -0.077658765 0.15593116 0.1262206
0.09772779 0.09660911 0.06334107 -0.17689814 -0.2714398 -0.07151571 0.09537344 -0.23763983
-0.3019024 -0.26945752 -0.045890283 -0.16223429 -0.12820648 0.015710479 0.0949744 -0.2301113
0.1287278 0.09668976 -0.31253135 0.15349199 0.32342297 0.2041427 -0.32604885 0.13710132
0.07113062 -0.22799003 0.06291994 0.28321907 0.20900947 -0.013273384 -0.08019056 -0.19603525
0.3020727 0.035003643 -0.21469004 0.11754667 -0.27609855 -0.20071337 0.105275825 -0.0019875274
-0.054810394 -0.26435378 -0.2996866 -0.0426746 -0.24377468 -0.26321754 -0.23837882 -0.16407244
0.2186812 -0.115710385 0.10322508 0.029236197 0.28578568 -0.19527854 0.042285006 0.120534
0.079875685 -0.17909566 0.30848274 0.13763839 -0.05444034 0.020944618 -0.12077019 -0.27650025
-0.16915786 0.15834765 -0.34669143 -0.044365406 0.24276584 0.25171968 -0.04552086 -0.118395425
0.2677207 0.18732129 -0.110423945 0.20048676 0.08797436 -0.17740862 0.17639999 -0.24590509
0.054746136 -0.16975921 0.20976105 -0.19506375 -0.13436134 -0.10361548 -0.23621245 -0.044635136
-0.07373364 -0.15269922 -0.27649054 -0.26830614 0.019681998 0.12197239 -0.17018175 -0.28040105
0.26956624 0.23442113 -0.072795235 -0.07151668 -0.040610295 -0.0067216703 0.21180648 -0.121639684
-0.20223208 0.14593403 0.12467544 0.11017173 0.074942484 -0.24164186 0.05054402 -0.0040149773
-0.09030876 0.21901423 -0.08871032 -0.11938269 -0.23394775 -0.2226843 0.30746162 -0.13346364
0.21475464 -0.12159727 0.24613866 -0.030544963 -0.2800759 0.014908356 0.23024453 -0.170372
0.23950128 0.045916412 0.024646712 -0.06054537 0.1617474 -0.27245572 -0.023725573 -0.032714374
00000000: 0c8d 323e 9902 273b d37c 683e 0745 553c
00000010: 703d 36be 1620 973d c47b 3fbe 12ed 81be
00000020: 9308 64be 620e 0ebd 2b26 04be 2892 523e
00000030: cf8a 91bd 37e8 0ebe 3c55 8d3d 430e d4bd
00000040: 0f81 55be 6f6e 2d3e c8c3 47be fe9c 753e
00000050: d0ac cc3c 1fbf 9c3e 150e bcbd 198b 83bc
00000060: 89ed 99be 9b71 063e d832 2ebe bb8f 9bbe
00000070: 6f2a efbc cf68 2b3e 2c80 093c a83e aaba
00000080: 95ea 18be 4ca3 3e3e 5fef 89be 6032 003e
00000090: e5e9 33be 5499 1f38 3e54 0dbe 3a79 57bd
000000a0: ade8 7cbe a3f6 e43d 5343 803d c8dc b2bd
000000b0: f2fd 6c3e ee94 0ebe 91f0 663e 9a55 16bc
000000c0: 0542 a7bb e440 6a3e 9ca4 f2bd 3232 77bd
000000d0: c9c8 72be c795 32be 8efa 30be ad71 fb3d
000000e0: 6c9f 1cbe 41b8 97be 570b f83c 05ac 593e
000000f0: 8c10 a43e 8f0b 9fbd 6bac 1f3e f93f 013e
00000100: 8225 c83d ffda c53d f7b8 813d c924 35be
00000110: 28fa 8abe d476 92bd 2653 c33d db57 73be
00000120: f492 9abe 56f6 89be 73f7 3bbd bf20 26be
00000130: 8f48 03be 43b3 803c f081 c23d 4ca2 6bbe
00000140: 38d1 033e 4805 c63d 1c04 a0be 012d 1d3e
00000150: b297 a53e c90a 513e e0ef a6be 4a64 0c3e
00000160: eeac 913d 3876 69be 2bdc 803d 1702 913e
00000170: 9406 563e 9c78 59bc f33a a4bd 77bd 48be
00000180: 46a9 9a3e fb5f 0f3d b5d7 5bbe 4fbc f03d
00000190: ca5c 8dbe ce87 4dbe da9a d73d 2d41 02bb
000001a0: dd80 60bd 6159 87be 8670 99be 90cb 2ebd
000001b0: 12a0 79be 73c4 86be 9419 74be 9b02 28be
000001c0: f7ed 5f3e 91f9 ecbd ac67 d33d c080 ef3c
000001d0: 8052 923e 19f7 47be 0b33 2d3d 88da f63d
000001e0: dd95 a33d da64 37be 73f1 9d3e 14f1 0c3e
000001f0: d5fc 5ebd 0c94 ab3c 5d56 f7bd 7191 8dbe
00000200: b837 2dbe e325 223e 8a81 b1be 80b8 35bd
00000210: 9c97 783e 67e1 803e 1574 3abd 4d79 f2bd
00000220: b012 893e 27d1 3f3e f325 e2bd 674c 4d3e
00000230: e72b b43d 9baa 35be 33a2 343e 8bce 7bbe
00000240: 7c3d 603d 5cd5 2dbe 9acb 563e cbbe 47be
00000250: 0596 09be 5a34 d4bd ade1 71be 55d3 36bd
00000260: aa01 97bd 2f5d 1cbe 2b90 8dbe 6c5f 89be
00000270: 243c a13c a9cc f93d 2044 2ebe ba90 8fbe
00000280: 9604 8a3e 180c 703e ab15 95bd 5677 92bd
00000290: fb56 26bd 7541 dcbb cce3 583e 3a1e f9bd
000002a0: ed15 4fbe bb6f 153e d655 ff3d b7a1 e13d
000002b0: 727b 993d f770 77be 3f07 4f3d 1290 83bb
000002c0: cdf3 b8bd 4445 603e c2ad b5bd e97e f4bd
000002d0: 0090 6fbe 5a07 64be 9c6b 9d3e b1aa 08be
000002e0: a4e8 5b3e fd07 f9bd c60b 7c3e 6e39 fabc
000002f0: 1c66 8fbe 2d42 743c 39c5 6b3e ff75 2ebe
00000300: d33f 753e d912 3c3d e7e7 c93c 6cfe 77bd
00000310: 1ca1 253e 517f 8bbe 225c c2bc 82ff 05bd

bn1.weight f4 [200]
7.4341445 3.0442228 11.6580715 9.950294 7.874634 4.068641 9.604966 16.62473
6.9781947 12.448149 7.7345843 4.7890763 5.1096497 8.587187 9.787051 14.393479
4.7973404 5.1136937 6.9937706 3.3450592 11.038293 7.059527 19.101206 18.514809
8.929907 5.125857 4.2430425 4.0515227 7.7375627 9.003027 15.709588 14.691197
7.159415 17.753479 13.677088 4.890277 6.1527996 14.802529 11.34363 13.2077055
12.577842 10.193644 13.037766 8.269861 8.668449 4.687273 6.744404 4.194207
5.9101725 6.0858517 15.742556 3.8764825 6.625079 10.549321 6.9932194 7.016582
9.165292 6.0016594 10.501071 17.382582 4.335582 6.1375213 9.294772 4.341284
10.920729 9.692021 5.061223 6.157682 5.0320616 13.430977 8.6555 6.2312913
13.779047 9.135847 4.047572 5.3576145 5.7872915 5.364358 13.095337 9.646987
11.185866 15.062895 8.64755 12.767627 11.700829 2.1184611 12.002265 6.112191
5.2760444 9.038348 7.2661777 9.199794 7.2968426 8.109882 8.419008 5.75596
5.7943153 5.2836447 11.212788 4.9091964 4.641978 7.3371778 9.079902 7.4459076
11.340732 13.079486 11.017672 5.4881024 12.515515 5.430317 14.266386 12.777444
5.6852446 6.135404 11.777235 7.376936 18.886261 9.006543 11.496344 6.2821994
9.51941 10.67407 15.53551 1.869562 18.251696 6.8814588 14.062326 9.027179
13.6997595 10.395238 5.7625074 10.789713 5.515512 5.5618963 16.204119 10.9951515
12.091146 4.891986 9.346954 15.179812 6.1524053 4.9932375 6.977368 7.1977835
11.213383 10.159678 8.968803 7.068126 8.225155 6.437819 10.813587 4.783774
4.5476494 2.4302144 9.262061 6.1051793 3.789977 7.554942 5.6681757 9.204665
19.17339 6.899995 6.7537055 13.67353 8.171162 7.090688 7.528203 12.139754
4.048121 9.150782 6.4553266 16.237556 10.398321 2.3174257 5.8423305 8.414877
10.482457 7.0679913 7.666546 1.4957656 10.831329 5.7182684 9.767514 6.0441318
8.3689165 6.9949856 2.64794 8.722154 3.313706 4.975161 10.8618 9.208461
6.812911 6.3787136 6.8349156 13.829293 5.0394683 7.6619124 4.7730703 11.230627
00000000: 83e4 ed40 8cd4 4240 7687 3a41 6734 1f41
00000010: 00fd fb40 4f32 8240 f1ad 1941 72ff 8441
00000020: 5f4d df40 9e2b 4741 b781 f740 1d40 9940
00000030: 4082 a340 1e65 0941 c397 1c41 b14b 6641
00000040: d083 9940 61a3 a340 f8cc df40 7315 5640
00000050: d99c 3041 a5e7 e140 45cf 9841 541e 9441
00000060: e6e0 0e41 0507 a440 01c7 8740 13a6 8140
00000070: 1d9a f740 660c 1041 795a 7b41 250f 6b41
00000080: ed19 e540 2007 8e41 5ad5 5a41 267d 9c40
00000090: bce3 c440 29d7 6c41 827f 3541 c352 5341
000000a0: d73e 4941 2a19 2341 b19a 5041 5a51 0441
000000b0: f8b1 0a41 24fe 9540 28d2 d740 f236 8640
000000c0: 2220 bd40 4cbf c240 82e1 7b41 4a18 7840
000000d0: a600 d440 05ca 2841 74c8 df40 d787 e040
000000e0: 09a5 1241 980d c040 6304 2841 870f 8b41
000000f0: 16bd 8a40 9366 c440 63b7 1441 cceb 8a40
00000100: 4ebb 2e41 8512 1b41 8af5 a140 bb0b c540
00000110: a606 a140 48e5 5641 ee7c 0a41 bd66 c740
00000120: fa76 5c41 6e2c 1241 b685 8140 9471 ab40
00000130: 7e31 b940 d2a8 ab40 8086 5141 0f5a 1a41
00000140: 4ff9 3241 9e01 7141 5d5c 0a41 3348 4c41
00000150: 9836 3b41 de94 0740 4709 4041 1297 c340
00000160: 5bd5 a840 139d 1041 8784 e840 5b32 1341
00000170: bc7f e940 14c2 0141 42b4 0641 d330 b840
00000180: 086b b940 9e13 a940 9467 3341 2318 9d40
00000190: 158b 9440 29ca ea40 4747 1141 e044 ee40
000001a0: a373 3541 9345 5141 6248 3041 899e af40
000001b0: 8d3f 4841 28c5 ad40 1e43 6441 6970 4c41
000001c0: 86ed b540 3b55 c440 8e6f 3c41 dc0f ec40
000001d0: 1017 9741 cd1a 1041 06f1 3741 c707 c940
000001e0: 814f 1841 fec8 2a41 7391 7841 cf4d ef3f
000001f0: 7903 9241 e934 dc40 4aff 6041 536f 1041
00000200: 3732 5b41 e552 2641 7666 b840 aaa2 2c41
00000210: 137f b040 0efb b140 09a2 8141 24ec 2f41
00000220: 5675 4141 268b 9c40 208d 1541 83e0 7241
00000230: 81e0 c440 9ac8 9f40 9946 df40 3e54 e640
00000240: 046a 3341 0b8e 2241 3880 0f41 172e e240
00000250: 3c9a 0341 9d02 ce40 7404 2d41 ad14 9940
00000260: 5886 9140 a288 1b40 6731 1441 a15d c340
00000270: fc8e 7240 16c2 f140 b261 b540 4f46 1341
00000280: 1a63 9941 c2cc dc40 5b1e d840 c7c6 5a41
00000290: 14bd 0241 ebe6 e240 0ae7 f040 6f3c 4241
000002a0: 358a 8140 9a69 1241 0992 ce40 84e6 8141
000002b0: 865f 2641 b450 1440 5ff4 ba40 56a3 0641
000002c0: 25b8 2741 fc2c e240 5854 f540 3f75 bf3f
000002d0: 204d 2d41 0efc b640 bd47 1c41 8769 c140
000002e0: 15e7 0541 ecd6 df40 d977 2940 f18d 0b41
000002f0: c213 5440 8534 9f40 efc9 2d41 db55 1341
00000300: 5e03 da40 6c1e cc40 a1b7 da40 c944 5d41
00000310: 5343 a140 632e f540 febc 9840 a6b0 3341

bn1.bias f4 [200]
1.6803447 1.3538263 0.686305 -2.065179 -1.5020303 -2.863236 -1.228617 0.08942344
-1.1459963 -0.07207778 1.8177891 -3.3056285 -2.7485669 -2.0910034 -0.009641933 -1.5569803
-2.5954547 2.6088579 -1.6734111 -2.568929 1.7940052 1.8501395 0.10448192 -0.21930078
1.9182905 -2.4538686 2.7489266 -2.7940269 -1.6286488 -0.5897404 -0.030133927 -1.1075132
-1.9613068 0.11687953 0.19090118 -1.508736 3.1474085 0.5142238 2.540417 1.0389204
0.27251002 -1.0501896 -0.20858805 0.48177174 0.6018739 -1.4499322 1.8134576 3.2158186
-2.5942976 -2.126809 0.9708331 3.0200496 -1.9911598 -0.68796796 -2.6304464 -0.9734186
-1.0043614 -1.5140067 1.7739916 0.061096516 -3.1769764 -1.9461702 1.0270023 -2.7203789
-1.2133871 -0.62388617 -2.7043717 -2.7092175 2.3955798 -0.068452746 -1.894559 -2.9183204
0.9082138 0.6147598 -2.7748926 2.812904 3.2293072 2.8905263 -0.8601709 -1.2954913
1.9407189 -0.4616337 2.0643692 0.42748278 1.01782 -1.4146328 1.136074 -2.5588913
2.2423272 1.8270422 -2.4765258 -2.0375059 -2.2403665 -2.0220895 -1.0936015 2.4096527
-3.2394326 2.7862978 -0.9191492 2.398242 -3.2687414 2.8198562 -1.3094516 1.7225437
1.3319443 -0.9710109 1.3883561 2.9381576 1.7590009 -2.4934728 0.5308665 -0.70972264
-2.2953951 2.621323 -1.0153029 -2.0284977 -0.48534203 -0.9257673 -1.9406309 2.16058
-1.397912 1.0752109 -0.32502505 1.2664764 -0.33193594 2.057991 0.0074832477 -1.5325302
-1.0151048 1.375762 -1.9841133 2.358899 3.3097887 2.310546 -0.42946032 -1.095266
-1.6063983 3.4555542 -0.8505262 0.83193 -2.2341292 -3.2237666 -0.49987683 -2.2816546
0.051366437 -1.0112612 -1.1641165 -2.1504743 0.978177 -2.33626 -1.1825747 -2.5493674
2.6868763 1.7710904 1.8776406 -2.911451 3.562065 -1.8898342 2.494469 1.3714502
-0.12901142 1.8841108 3.0571232 1.0465502 -2.1536427 1.8669572 1.8811421 -0.7706683
3.745383 -1.0566962 -2.487775 0.13931368 1.2523009 1.5430089 -2.4881554 -1.8750845
0.4926648 -2.592144 -1.8977079 -0.37887275 -1.3673638 -1.8674804 -0.72233796 2.5314565
1.8831822 1.7500495 -2.513696 1.883737 1.7184082 -3.2394063 -0.6925501 1.5069861
2.4978585 2.8243222 1.3157935 1.2163149 2.2561648 2.4761465 -2.5439527 -0.35910982
00000000: 8915 d73f 2e4a ad3f afb1 2f3f e52b 04c0
00000010: 8742 c0bf 423f 37c0 5243 9dbf a323 b73d
00000020: 02b0 92bf 849d 93bd 50ad e83f 6b8f 53c0
00000030: 85e8 2fc0 00d3 05c0 33f9 1dbc 214b c7bf
00000040: ee1b 26c0 87f7 2640 5632 d6bf 5569 24c0
00000050: f6a1 e53f 5fd1 ec3f 9efa d53d 6290 60be
00000060: 8b8a f53f 2f0c 1dc0 6aee 2f40 56d1 32c0
00000070: 9077 d0bf 3af9 16bf 6ddb f6bc fec2 8dbf
00000080: 1a0c fbbf 895e ef3d 997b 433e 431e c1bf
00000090: 246f 4940 2ca4 033f 3196 2240 58fb 843f
000000a0: 6f86 8b3e 9d6c 86bf 1b98 55be c9aa f63e
000000b0: 6814 1a3f 6197 b9bf 611f e83f f9cf 4d40
000000c0: f908 26c0 a31d 08c0 8588 783f 7e48 4140
000000d0: 53de febf ab1e 30bf 3c59 28c0 f631 79bf
000000e0: ea8e 80bf f9ca c1bf 2812 e33f 5740 7a3d
000000f0: 9553 4bc0 1b1c f9bf d074 833f b01a 2ec0
00000100: 4550 9bbf 01b7 1fbf 6d14 2dc0 d263 2dc0
00000110: 2e51 1940 f430 8cbd e980 f2bf c3c5 3ac0
00000120: b380 683f e660 1d3f d797 31c0 9e06 3440
00000130: f8ac 4e40 62fe 3840 2934 5cbf a9d2 a5bf
00000140: 7a69 f83f 415b ecbe a01e 0440 06df da3e
00000150: ed47 823f b012 b5bf df6a 913f e0c4 23c0
00000160: 4a82 0f40 85dc e93f 667f 1ec0 7f66 02c0
00000170: 2a62 0fc0 ea69 01c0 22fb 8bbf c037 1a40
00000180: dd52 4fc0 b452 3240 5d4d 6bbf cc7c 1940
00000190: 0f33 51c0 8678 3440 1c9c a7bf 507c dc3f
000001a0: 277d aa3f 2c94 78bf a7b5 b13f c60a 3c40
000001b0: f126 e13f 0f95 1fc0 dee6 073f 62b0 35bf
000001c0: c1e7 12c0 c2c3 2740 72f5 81bf e8d2 01c0
000001d0: c07e f8be 16ff 6cbf 9866 f8bf f146 0a40
000001e0: c8ee b2bf 83a0 893f af69 a6be e61b a23f
000001f0: 82f3 a9be 20b6 0340 0836 f53b f329 c4bf
00000200: f4ee 81bf f818 b03f 6df7 fdbf 34f8 1640
00000210: 94d3 5340 fcdf 1340 39e2 dbbe ad31 8cbf
00000220: 769e cdbf cd27 5d40 16bc 59bf 5df9 543f
00000230: f9fb 0ec0 3152 4ec0 dbef ffbe a106 12c0
00000240: 9d65 523d 0271 81bf c501 95bf 5fa1 09c0
00000250: cf69 7a3f 4985 15c0 9c5e 97bf d628 23c0
00000260: c8f5 2b40 17b3 e23f 8756 f03f 3755 3ac0
00000270: dff8 6340 16e6 f1bf 61a5 1f40 ae8b af3f
00000280: 921b 04be 8b2a f13f e8a7 4340 5bf5 853f
00000290: 48d5 09c0 74f8 ee3f 44c9 f03f 854a 45bf
000002a0: 5bb4 6f40 d241 87bf b537 1fc0 3fa8 0e3e
000002b0: 654b a03f 5181 c53f f03d 1fc0 c502 f0bf
000002c0: 903e fc3e b0e5 25c0 18e8 f2bf 9cfb c1be
000002d0: c705 afbf 9909 efbf 24eb 38bf 6203 2240
000002e0: 1d0c f13f 9f01 e03f 65e0 20c0 4b1e f13f
000002f0: cdf4 db3f 6f52 4fc0 f74a 31bf ece4 c03f
00000300: eadc 1f40 b2c1 3440 ec6b a83f 35b0 9b3f
00000310: 0165 1040 2f79 1e40 1fd0 22c0 3edd b7be

bn1.running_mean f4 [200]
0.29575685 -0.91866004 2.8590221 5.8596225 -3.019698 2.1393564 -0.19234459 -1.1909276
2.5313601 -4.5881176 0.059210747 -0.3427253 -0.45882908 3.441403 -5.412998 -3.0381746
-2.4962368 -0.88749015 2.1062415 -0.78938043 -1.8673031 2.7273812 -7.2099595 3.2153664
-4.855993 -1.1809735 0.7641477 1.3009977 -4.2142057 3.7557979 -2.8560138 1.3127468
-2.657774 1.101591 -5.108133 -1.1960995 -4.200431 -3.1852639 -4.7293615 2.561538
0.20987338 -3.68016 3.410006 0.35337168 2.5649884 0.9324607 -2.8351104 3.0510557
-2.6073124 1.854446 -2.9456854 5.362922 -0.23905277 -3.8426785 1.7397238 0.58362794
2.1965759 4.86599 0.9278968 -4.636026 5.5890737 3.1556077 1.9812621 0.14456315
-0.8252653 0.7817424 -5.9475703 -1.2770355 2.3599048 -6.383934 -6.6933713 0.30214506
2.5146024 -0.5167379 -2.6730359 0.94787157 4.5041876 -4.629806 -4.176303 -2.2906268
4.473351 -2.2332911 -0.04035125 1.7810123 -1.3072863 -1.1179814 0.6491577 3.4472804
1.7317284 -0.56057394 4.452231 -3.7867396 0.07004143 -3.0910854 -4.70963 0.6681175
3.9793944 0.19559461 3.3015513 4.1909876 4.6972632 -0.28794947 -1.4984084 1.4587667
1.8239318 4.276781 -1.53682 -0.76650983 -2.0571964 -0.34703878 -1.9604871 0.006088149
2.3100543 -4.1486855 -1.8588667 1.5758536 -3.0869534 0.2171072 -2.616984 0.31878
2.2575288 1.2407615 -1.9830071 1.9468229 1.3544933 -5.146818 7.5957355 2.3206272
-1.6946843 -5.0937843 -0.50824225 1.7557429 1.6535978 -0.70824224 3.4380553 -0.39589396
2.4797275 3.4649105 -3.2790337 -1.4748417 6.8012967 -1.4453914 5.055155 2.4617362
0.7708329 -1.580095 -0.21236308 -3.1728125 0.7653891 3.0801628 -1.7262976 5.195418
5.724143 3.526981 -4.9455204 0.3507998 -0.3806832 1.4716026 0.43567982 -1.4319656
0.00676488 4.913497 2.7799273 -5.3892307 -1.5937188 -0.54188544 -1.5598114 -1.2508843
3.9501405 -2.6388297 -1.5438522 -0.51202506 -6.2405953 -2.0495071 1.9269397 5.795642
-1.5358028 -2.6271782 2.9401371 4.584529 6.9721775 1.6892159 1.0708894 5.3605785
-0.036537964 -4.592193 -1.4453193 1.9700615 -2.8420017 -5.8309846 -2.9439628 -3.4924643
-3.2486458 2.1018462 -3.6237423 -2.9308732 0.1171015 -0.78793585 -5.189634 -4.674227
00000000: 716d 973e 4e2d 6bbf 38fa 3640 0782 bb40
00000010: bb42 41c0 37eb 0840 fbf5 44be 5170 98bf
00000020: ce01 2240 dcd1 92c0 f886 723d b179 afbe
00000030: a5eb eabe f23f 5c40 4837 adc0 7471 42c0
00000040: 58c2 1fc0 8e32 63bf a9cc 0640 d614 4abf
00000050: ca03 efbf 6a8d 2e40 fdb7 e6c0 90c8 4d40
00000060: 4b64 9bc0 242a 97bf 2f9f 433f 1887 a63f
00000070: c6da 86c0 fe5e 7040 eec8 36c0 1608 a83f
00000080: f818 2ac0 ef00 8d3f d375 a3c0 ca19 99bf
00000090: ee69 86c0 5ddb 4bc0 ee56 97c0 3df0 2340
000000a0: 0ce9 563e be87 6bc0 8a3d 5a40 22ed b43e
000000b0: c528 2440 bfb5 6e3f 7372 35c0 7f44 4340
000000c0: 35de 26c0 7d5e ed3f 1c86 3cc0 0f9d ab40
000000d0: 40ca 74be 72ee 75c0 45af de3f a468 153f
000000e0: b394 0c40 31b6 9b40 a58a 6d3f 535a 94c0
000000f0: b1d9 b240 7af5 4940 ff99 fd3f 5d08 143e
00000100: 9644 53bf 4520 483f 7f52 bec0 e675 a3bf
00000110: ae08 1740 3049 ccc0 1930 d6c0 c2b2 9a3e
00000120: 3fef 2040 ef48 04bf 0513 2bc0 b6a7 723f
00000130: 4e22 9040 5f27 94c0 46a4 85c0 a199 12c0
00000140: b125 8f40 3eee 0ec0 5a47 25bd 36f8 e33f
00000150: 2855 a7bf 041a 8fbf 332f 263f 3ea0 5c40
00000160: 47a9 dd3f c681 0fbf ad78 8e40 f159 72c0
00000170: e271 8f3d 58d4 45c0 4ab5 96c0 c009 2b3f
00000180: 66ae 7e40 f449 483e 9e4c 5340 921c 8640
00000190: fb4f 9640 1d6e 93be d9cb bfbf deb8 ba3f
000001a0: 9976 e93f 64db 8840 85b6 c4bf fd39 44bf
000001b0: 1ba9 03c0 11af b1be 3ef1 fabf 187f c73b
000001c0: eed7 1340 08c2 84c0 58ef edbf 92b5 c93f
000001d0: a590 45c0 5a51 5e3e aa7c 27c0 2237 a33e
000001e0: 5a7b 1040 46d1 9e3f 2dd3 fdbf 7e31 f93f
000001f0: 0960 ad3f bcb2 a4c0 4410 f340 2885 1440
00000200: 6aeb d8bf 4800 a3c0 2a1c 02bf 2fbc e03f
00000210: 18a9 d33f 5d4f 35bf 1909 5c40 9db2 cabe
00000220: dbb3 1e40 18c1 5d40 b0db 51c0 9dc7 bcbf
00000230: 39a4 d940 9602 b9bf d4c3 a140 168d 1d40
00000240: 4e55 453f 8e40 cabf b575 59be 5c0f 4bc0
00000250: 8af0 433f 6321 4540 52f7 dcbf dd40 a640
00000260: 2e2c b740 0fba 6140 b441 9ec0 089c b33e
00000270: e9e8 c2be 795d bc3f 6d11 df3e a64a b7bf
00000280: edab dd3b 5e3b 9d40 54ea 3140 9474 acc0
00000290: fafe cbbf 01b9 0abf e6a7 c7bf fa1c a0bf
000002a0: 1acf 7c40 96e2 28c0 f39c c5bf 1314 03bf
000002b0: f5b2 c7c0 202b 03c0 f6a5 f63f e675 b940
000002c0: 3095 c4bf b023 28c0 352b 3c40 76b4 9240
000002d0: 141c df40 3a38 d83f e712 893f dc89 ab40
000002e0: d5a8 15bd 3ff3 92c0 3900 b9bf fa2a fc3f
000002f0: 5be3 35c0 6d97 bac0 e369 3cc0 8984 5fc0
00000300: d0e9 4fc0 a684 0640 65eb 67c0 6d93 3bc0
00000310: e9d2 ef3d 2ab6 49bf 7b11 a6c0 4593 95c0

bn1.running_var f4 [200]
0.24004073 0.5383494 0.12348866 0.3112931 0.16539173 0.0680381 1.1122881 0.068490535
0.26760444 0.13343193 0.118987024 0.5248607 0.28914747 0.2879218 0.47666427 0.29198352
0.087516375 0.54435337 0.29183662 0.42429498 0.45740473 0.10327099 0.4189587 0.4938657
0.2179946 0.16002342 0.31813654 0.07760499 0.12911665 0.122055635 0.5149224 0.37851956
0.24758315 0.29050773 0.46813294 0.1637222 0.12233221 0.14921418 0.26894262 0.22101405
0.10763037 0.37782308 0.2617282 0.1833503 0.11082872 0.21990426 0.07444682 0.635157
0.17569144 0.28334183 0.17744029 0.3198272 0.06554258 0.09390813 0.2474234 0.06981332
0.13588879 0.16050428 0.23114902 0.24613538 0.1565864 0.10472319 0.077165894 0.12332681
0.17277174 0.054337718 0.22387609 0.20621829 0.108457275 0.18809794 0.76646477 0.34684175
0.40014124 0.18569946 0.18513806 0.18430525 0.11963658 0.16739847 0.201337 0.14722666
0.15836371 0.2778946 0.10788071 0.07163114 0.17475447 0.20614585 0.12381431 0.15370098
0.035642076 0.13991354 0.19872601 0.17737147 0.07733688 0.46815008 0.3008844 0.16461842
0.21410094 0.11569693 0.11200307 0.52311593 0.21862046 0.19398782 0.16257273 0.10363349
0.13136105 0.2969785 0.069888316 0.12720849 0.17257 0.32815874 0.09893122 0.16108088
0.095132776 0.22287461 0.14494078 0.10478861 0.6937457 0.08445998 0.3401493 0.33485377
0.21854742 0.09944062 0.20049298 0.2252493 0.26943204 0.24505636 0.59155005 0.10608384
1.3427466 0.11160155 0.09493898 0.41049117 0.0908098 0.45537177 0.22635616 0.120641075
0.21610905 0.091658466 0.04368454 0.49796835 0.75124294 0.25517595 0.6533912 0.17904955
0.13088629 0.2229879 0.18888086 0.11153899 0.1429769 0.30182463 0.15800749 0.31488073
0.4377753 0.69344205 0.18124053 0.34738994 0.09197838 0.27388003 0.542525 0.20997179
0.4656987 0.106377356 0.44626462 0.26945898 0.12435095 0.06280597 0.5722937 0.1304793
0.16980366 0.16140701 0.11662763 0.4464818 0.2051895 0.9153447 0.058414232 0.7791331
0.18506269 0.07169455 0.22587079 0.6274937 0.56828177 0.19540016 0.16999556 0.24698803
0.08717673 0.08651246 0.15341103 0.096281335 1.2658144 0.10338975 0.20971139 0.1131677
0.11553952 0.19829662 0.6866667 0.33580408 0.08350533 0.16814947 0.5058258 0.1333434
00000000: 3dcd 753e 44d1 093f 9fe7 fc3d cf61 9f3e
00000010: 735c 293e 8f57 8b3d 755f 8e3f c444 8c3d
00000020: 7303 893e 61a2 083e 78af f33d 455d 063f
00000030: 230b 943e 7c6a 933e 570d f43e dd7e 953e
00000040: c93b b33d be5a 0b3f 9c6b 953e 313d d93e
00000050: f430 ea3e be7f d33d c181 d63e f7db fc3e
00000060: fa39 5f3e 2edd 233e cbe2 a23e 5def 9e3d
00000070: 2837 043e 4ef8 f93d f4d1 033f 51cd c13e
00000080: 7086 7d3e 6ebd 943e 1faf ef3e cba6 273e
00000090: 4f89 fa3d 9acb 183e d9b2 893e 8251 623e
000000a0: 506d dc3d 0772 c13e 3d01 863e 2ec0 3b3e
000000b0: 2bfa e23d 952e 613e 9377 983d a699 223f
000000c0: 75e8 333e 2e12 913e e8b2 353e 64c0 a33e
000000d0: 303b 863d e852 c03d 8f5c 7d3e 49fa 8e3d
000000e0: 6e26 0b3e 3c5b 243e 54b2 6c3e ea0a 7c3e
000000f0: 2f58 203e 1d79 d63d 2709 9e3d c492 fc3d
00000100: 13eb 303e 3a91 5e3d c63f 653e e32a 533e
00000110: d91e de3d bf9c 403e 0937 443f 3e95 b13e
00000120: 50df cc3e 0028 3e3e d594 3d3e 84ba 3c3e
00000130: 0604 f53d 816a 2b3e 492b 4e3e 96c2 163e
00000140: 192a 223e 3348 8e3e 90f0 dc3d 59b3 923d
00000150: d6f2 323e e617 533e 5b92 fd3d ca63 1d3e
00000160: 6dfd 113d 7f45 0f3e d57e 4b3e dea0 353e
00000170: cc62 9e3d 5eb1 ef3e 850d 9a3e bb91 283e
00000180: 473d 5b3e 83f2 ec3d de61 e53d edea 053f
00000190: 0bde 5f3e bea4 463e 7779 263e cc3d d43d
000001a0: 8383 063e 910d 983e 9b21 8f3d f142 023e
000001b0: 31b6 303e 6c04 a83e 749c ca3d 63f2 243e
000001c0: f9d4 c23d 3e39 643e 5b6b 143e 699b d63d
000001d0: 5199 313f 5bf9 ac3d 0d28 ae3e f471 ab3e
000001e0: e5ca 5f3e 86a7 cb3d 084e 4d3e c1a7 663e
000001f0: fff2 893e 0ef0 7a3e d36f 173f 7c42 d93d
00000200: 1fdf ab3f 5a8f e43d 5e6f c23d e62b d23e
00000210: 7dfa b93d 7d26 e93e e9c9 673e ab12 f73d
00000220: b14b 5d3e 6fb7 bb3d 8fee 323d b5f5 fe3e
00000230: 7551 403f 6ca6 823e a544 273f c458 373e
00000240: 0e07 063e f156 643e fc69 413e 8e6e e43d
00000250: 8968 123e c288 9a3e b7cc 213e 0c38 a13e
00000260: 1624 e03e 6b85 313f 1e97 393e 18dd b13e
00000270: 295f bc3d 013a 8c3e ebe2 0a3f d802 573e
00000280: 0f70 ee3e 5fdc d93d cc7c e43e 87f6 893e
00000290: b6ab fe3d 6ba0 803d d781 123f 5e9c 053e
000002a0: 03e1 2d3e e147 253e 78da ee3d 4399 e43e
000002b0: 321d 523e 0854 6a3f c343 6f3d 4475 473f
000002c0: 1381 3d3e 98d4 923d ac4a 673e 6da3 203f
000002d0: ea7a 113f fb16 483e 5113 2e3e 6eea 7c3e
000002e0: b789 b23d 722d b13d c817 1d3e 262f c53d
000002f0: 3506 a23f 01be d33d 95be 563e 78c4 e73d
00000300: fc9f ec3d 450e 4b3e 64c9 2f3f 83ee ab3e
00000310: d804 ab3d 602f 2c3e cd7d 013f 2c8b 083e

fc2.weight f4 [100, 200]
0.18807879 0.41506487 0.3443426 0.114485 -0.40090993 -0.16489562 0.01792756 0.35436317
-0.31409982 -0.10676974 -0.08915403 0.74791914 0.33313474 0.50107896 -0.48162994 0.21918242
-0.5288317 0.12917268 0.08764444 -0.7876431 -0.02761771 -0.59299815 -0.3351978 1.0196464
-0.10227532 0.37747753 0.32901132 -0.65638506 -0.3154061 1.2651037 -0.35569975 0.42239228
-0.21720372 -0.22196062 0.23167513 0.2846667 0.24856623 -0.26780352 0.16226153 0.14467226
-0.32339337 0.0974185 -0.37589058 -0.5187111 -0.0046885977 0.18614551 0.4402773 -0.0681334
0.026218306 0.5251705 -0.2079567 0.5005599 0.4467979 -0.5580988 0.36807358 0.010915855
0.19438781 0.3750572 -0.079355605 1.1057439 -0.506596 0.47307327 -0.2576846 -0.45894027
-0.35107446 0.38207704 0.19352664 -0.334273 0.5435562 -0.15534681 0.4519146 -0.3514819
0.3225243 0.7964246 0.025991792 0.2792719 0.23606735 -0.012375104 -0.21683855 -0.7541828
0.20251381 -0.65785325 -0.47757027 -0.37217417 0.6348766 -0.35252383 0.063568965 -0.11625624
-0.13763617 -0.537565 -0.71629727 -0.4361898 0.21437992 -0.021629514 -0.82139945 0.5236408
0.03543655 0.43581244 -0.11629019 -0.33000544 0.5238581 -1.1674061 0.07635693 0.074965924
0.541674 0.013992497 -0.5601637 -0.49799785 -0.12544513 -0.17323194 0.035253927 -0.48117334
0.09201584 -0.47918215 -0.27694184 -0.3031409 0.064831585 0.7705047 -0.10826454 0.10086864
0.20617394 0.090936095 0.22965293 0.95536405 0.2748595 0.33850288 0.44331455 -0.2622337
-0.5488948 -0.28166074 -1.04936 0.46870467 0.2695468 -0.13443394 0.3302437 0.34607893
0.22825778 0.3684143 -0.6905448 -0.2543275 0.3012599 -0.12541334 -0.17538546 0.45266002
-0.93782765 -0.8507989 0.29400337 0.024238896 0.16306174 -0.44612882 1.0068438 0.040254448
0.104645655 0.9340062 -0.13816015 0.2278422 -0.46874407 0.1826114 -0.13124403 -0.14613838
-0.17544639 -0.579256 -0.2045031 -0.65783525 -0.27051836 -0.43410555 -0.39735585 0.5148189
-0.3042119 -0.6481288 0.06576262 0.7257412 -0.07813112 0.036376175 0.058782563 0.42703453
0.47790065 -0.40867898 0.18225496 0.29439223 0.66330284 -0.3840647 -0.056290984 0.13842148
-0.36854735 -0.61082023 -0.43770957 -0.4376921 -0.26344317 -0.36231244 0.081687726 -0.08433356
0.026922328 -0.026281858 -0.22261727 -0.15926912 -0.25898868 0.3779719 0.03067079 -0.12738036
-0.24149022 -0.07967911 0.23941717 0.26473144 0.09892313 -0.10102184 -0.46138725 -0.5653921
0.15308079 0.06315472 0.37773246 -0.0012846976 0.016017495 0.35735053 -0.049600057 0.31152976
0.513647 -0.1238951 0.21916951 0.13597883 0.29764944 0.5255809 0.20114316 0.4018955
0.41646567 -0.24617387 -0.09636258 0.010254548 -0.33316162 0.43473092 -0.16238339 -0.13141038
0.37847805 0.32525718 -0.4116936 0.2378119 0.58591914 0.43868288 -0.39487308 -0.2396799
-0.05564901 -0.355099 0.65690684 -0.09960344 0.10716732 0.31795135 -0.07153464 -0.23049311
-0.34157684 -0.41990378 0.39407024 -0.2931102 0.45331684 -0.062313497 -0.21082157 0.12102916
00000000: ba97 403e 6283 d43e ac4d b03e 1d77 ea3d
00000010: 1144 cdbe 66da 28be d1dc 923c 176f b53e
00000020: b1d1 a0be 18aa dabd 6396 b6bd a177 3f3f
00000030: a390 aa3e b646 003f 3398 f6be 5b71 603e
00000040: 8461 07bf d845 043e ee7e b33d faa2 49bf
00000050: 893e e2bc bace 17bf 0c9f abbe c683 823f
00000060: b975 d1bd bc44 c13e 2c74 a83e da08 28bf
00000070: e97c a1be ebee a13f 471e b6be cd43 d83e
00000080: a76a 5ebe a549 63be 3f3c 6d3e d5bf 913e
00000090: 2588 7e3e 8b1d 89be e327 263e f724 143e
000000a0: d193 a5be 5a83 c73d bb74 c0be 40ca 04bf
000000b0: cfa2 99bb ee9c 3e3e 076c e13e 8689 8bbd
000000c0: c6c7 d63c 9371 063f 9af2 54be b224 003f
000000d0: b2c2 e43e 90df 0ebf 2474 bc3e 6ad8 323c
000000e0: 990d 473e 7f07 c03e 3185 a2bd 0489 8d3f
000000f0: 47b0 01bf a936 f23e 3cef 83be 38fa eabe
00000100: 08c0 b3be 9a9f c33e d92b 463e d525 abbe
00000110: 8026 0b3f 3c13 1fbe 5a61 e73e 70f5 b3be
00000120: e821 a53e 7ce2 4b3f bdec d43c bafc 8e3e
00000130: a4bb 713e f3c0 4abc ed0a 5ebe 2012 41bf
00000140: c85f 4f3e 1269 28bf 1784 f4be 9d8d bebe
00000150: 4687 223f 017e b4be 7230 823d c017 eebd
00000160: 7ff0 0cbe dc9d 09bf 425f 37bf 4554 dfbe
00000170: 6986 5b3e 6130 b1bc 3c47 52bf 530d 063f
00000180: ea25 113d cf22 df3e 8d29 eebd 79f6 a8be
00000190: 901b 063f 906d 95bf 0661 9c3d bc87 993d
000001a0: 26ab 0a3f c940 653c e366 0fbf 93f9 febe
000001b0: b074 00be b763 31be 6c66 103d 5a5c f6be
000001c0: cd72 bc3d 5d57 f5be 52cb 8dbe 4935 9bbe
000001d0: 6cc6 843d cc3f 453f cdb9 ddbd 3894 ce3d
000001e0: 431f 533e b43c ba3d 232a 6b3e bd92 743f
000001f0: 62ba 8c3e 4050 ad3e 20fa e23e 7f43 86be
00000200: 5f84 0cbf d635 90be 6e51 86bf 0ffa ef3e
00000210: 0a02 8a3e 0da9 09be b415 a93e 4231 b13e
00000220: 68bc 693e cda0 bc3e 8bc7 30bf 3737 82be
00000230: bd3e 9a3e 5b6c 00be 3f98 33be 0ec3 e73e
00000240: 7915 70bf f5cd 59bf 9c87 963e a690 c63c
00000250: a8f9 263e ff6a e4be 42e0 803f d9e1 243d
00000260: 7650 d63d 081b 6f3f db79 0dbe 774f 693e
00000270: 39ff efbe 7cfe 3a3e d664 06be 4da5 15be
00000280: 38a8 33be 1f4a 14bf 4369 51be e467 28bf
00000290: 6281 8abe 1543 debe 3a72 cbbe 2ccb 033f
000002a0: aac1 9bbe c5eb 25bf 8dae 863d 2dca 393f
000002b0: 3503 a0bd 2fff 143d fcc5 703d 45a4 da3e
000002c0: 65af f43e 5f3e d1be 0ba1 3a3e 94ba 963e
000002d0: 37ce 293f 21a4 c4be 6091 66bd 5cbe 0d3e
000002e0: 3db2 bcbe b75e 1cbf 781b e0be 2e19 e0be
000002f0: 06e2 86be 0481 b9be e54b a73d 13b7 acbd
00000300: 378c dc3c 0d4d d7bc c8f5 63be 7217 23be
00000310: 2a9a 84be 8885 c13e 4f41 fb3c ff6f 02be
00000320: 3649 77be cd2e a3bd c629 753e e18a 873e
00000330: 3698 ca3d 8ae4 cebd f33a ecbe 89bd 10bf
00000340: 36c1 1c3e 4357 813d 2666 c13e 4c63 a8ba
00000350: 1f37 833c a6f6 b63e 6e29 4bbd d480 9f3e
00000360: 5f7e 033f b7bc fdbd f96d 603e 093e 0b3e
00000370: 8265 983e 788c 063f 79f8 4d3e 3fc5 cd3e
00000380: fd3a d53e 0115 7cbe bf59 c5bd b102 283c
00000390: 2994 aabe 0d95 de3e d547 26be 7190 06be
000003a0: e0c7 c13e 1c88 a63e 81c9 d2be f684 733e
000003b0: ccfe 153f 0b9b e03e ce2c cabe a66e 75be
000003c0: 37f0 63bd 89cf b5be 0c2b 283f e3fc cbbd
000003d0: 8a7a db3d 85ca a23e c180 92bd 6306 6cbe
000003e0: 29e3 aebe a1fd d6be 93c3 c93e 8a12 96be
000003f0: 2519 e83e 703c 7fbd 9ce1 57be 23de f73d

fc2.bias f4 [100]
-0.015563072 0.05709817 -0.006880517 0.02682252 -0.010664693 -0.06298681 0.031195974 0.061132416
0.04276344 0.03990023 0.033649594 -0.017189264 0.034735784 0.026904987 -0.04365126 -0.047507197
0.013758629 0.051995568 -0.008674321 0.04016162 -0.059414655 0.066838756 0.02187254 -0.01215832
-0.041737843 -0.035337456 0.07074911 -0.012870187 0.071778856 -0.048719883 -0.011504919 -0.025815258
-0.035029735 0.043131456 0.033893757 0.008970112 -0.019749127 0.01907939 -0.034206495 -0.07060749
0.025106087 -0.014520526 -0.06625469 -0.06021381 0.01168016 -0.047104713 -0.030496933 -0.013053825
-0.014231933 0.05816047 -0.023077387 0.03761394 -0.05069112 -0.069683224 0.040449213 0.042746697
0.003941611 -0.021582844 0.014180278 -0.01642178 -0.015433928 -0.059425473 0.0018857117 -0.017723497
0.05699278 0.009905505 -0.034229737 0.062354296 -0.043111548 -0.00016985784 0.020061137 -0.0016652604
-0.018213708 -0.05692053 -0.054692343 0.02611543 0.06863607 0.02855931 0.0022942198 0.050338525
0.0041882205 0.017513996 0.01623943 0.014000618 0.038095396 0.06373311 -0.05952303 -0.023520445
-0.057644185 -0.044863943 0.063966945 -0.00082142313 -0.062665634 -0.009238445 -0.028389113 -0.0022435964
0.059644695 0.02787249 0.056767162 0.00560209
00000000: 41fc 7ebc c5df 693d f675 e1bb e7ba db3c
00000010: f7ba 2ebc 3bff 80bd b38e ff3c fc65 7a3d
00000020: b828 2f3d 6c6e 233d 28d4 093d 80d0 8cbc
00000030: 1c47 0e3d d967 dc3c aacb 32bd e896 42bd
00000040: df6b 613c 4ef9 543d bd1e 0ebc 8380 243d
00000050: c85c 73bd c2e2 883d 0a2e b33c b133 47bc
00000060: 4df5 2abd 02be 10bd e9e4 903d 7add 52bc
00000070: cb00 933d 808e 47bd 217f 3cbc 857a d3bc
00000080: 577b 0fbd 9caa 303d 2ed4 0a3d 60f7 123c
00000090: ecc8 a1bc 624c 9c3c 1c1c 0cbd a99a 90bd
000000a0: 48ab cd3c 80e7 6dbc 8ab0 87bd c2a2 76bd
000000b0: 245e 3f3c dff0 40bd b4d4 f9bc b6df 55bc
000000c0: 0e2d 69bc ac39 6e3d ca0c bdbc 1311 1a3d
000000d0: 7ea1 4fbd 14b6 8ebd 13ae 253d 2917 2f3d
000000e0: a128 813b 81ce b0bc 6654 683c f886 86bc
000000f0: 96de 7cbc 2068 73bd fc29 f73a de30 91bc
00000100: 4371 693d b34a 223c 7b34 0cbd 3867 7f3d
00000110: bc95 30bd de1b 32b9 4157 a43c de44 daba
00000120: ea34 95bc 8025 69bd 1405 60bd 07f0 d53c
00000130: 1191 8c3d 37f5 e93c 9f5a 163b c52f 4e3d
00000140: 573d 893b 8379 8f3c 8e08 853c d962 653c
00000150: eb09 1c3d 8186 823d 6cce 73bd f3ad c0bc
00000160: 4f1c 6cbd 41c3 37bd 1a01 833d c654 57ba
00000170: d756 80bd d95c 17bc 4990 e8bc 4d09 13bb
00000180: ff4d 743d d954 e43c af84 683d bd91 b73b

bn2.weight f4 [100]
5.5902386 5.1241407 4.125351 6.897779 6.4565835 4.733638 6.3149743 7.9990716
7.642728 3.629396 6.0441184 7.7601457 6.2188864 5.8549786 4.6650205 5.8318787
4.3032517 5.20673 5.4276695 7.139782 6.574459 5.996307 4.733484 7.402556
3.637934 5.322929 5.0189075 4.638841 5.6964645 5.044646 4.902473 5.1335225
6.2198234 5.983538 5.005152 5.4621186 5.9949703 4.8565574 5.2668233 5.7236857
7.4791 6.928554 4.3952956 5.48487 7.1696405 6.1728835 6.851806 4.924627
5.1423965 5.474696 4.4597697 4.225174 7.1435375 7.0543323 5.317048 6.040207
5.5840955 5.470986 5.586678 6.3089113 4.4002523 4.984866 4.176596 6.1937175
5.4212365 5.372715 6.723847 4.9906707 6.5808883 5.9290223 5.7474403 5.107562
4.452726 4.830028 3.5935152 4.933898 7.337051 4.653165 5.859223 7.97199
4.5212092 5.277235 4.7171955 4.913658 6.0749803 4.7427363 5.525086 5.3723288
6.381246 4.3120213 7.274769 5.7152376 4.828722 4.7570367 5.917573 4.367867
4.8859506 7.202646 3.3989973 5.365479
00000000: 3ce3 b240 f6f8 a340 e002 8440 9bba dc40
00000010: 559c ce40 f679 9740 4514 ca40 65f8 ff40
00000020: 3a91 f440 0648 6840 6b69 c140 1d53 f840
00000030: 1e01 c740 fc5b bb40 d947 9540 c09e ba40
00000040: 3db4 8940 889d a640 78af ad40 1879 e440
00000050: f861 d240 bfe1 bf40 b378 9740 bde1 ec40
00000060: e9d3 6840 6f55 aa40 e49a a040 6371 9440
00000070: 7049 b640 bd6d a140 0fe1 9c40 d145 a440
00000080: cb08 c740 2579 bf40 352a a040 adc9 ae40
00000090: ccd6 bf40 eb68 9b40 d189 a840 6f28 b740
000000a0: ca54 ef40 b7b6 dd40 43a6 8c40 0e84 af40
000000b0: b26d e540 4388 c540 ff41 db40 8b96 9d40
000000c0: 838e a440 b630 af40 6fb6 8e40 a034 8740
000000d0: dc97 e440 17bd e140 4225 aa40 6049 c140
000000e0: e9b0 b240 5112 af40 11c6 b240 9ae2 c940
000000f0: dece 8c40 0684 9f40 ada6 8540 ef32 c640
00000100: c57a ad40 48ed ab40 c129 d740 93b3 9f40
00000110: a396 d240 8dba bd40 08eb b740 2671 a340
00000120: bb7c 8e40 978f 9a40 27fc 6540 7ee2 9d40
00000130: 1fc9 ea40 bae6 9440 c17e bb40 8b1a ff40
00000140: bfad 9040 1cdf a840 44f3 9640 b03c 9d40
00000150: 3d66 c240 7fc4 9740 81cd b040 1eea ab40
00000160: 2b33 cc40 14fc 8940 e8ca e840 3ae3 b640
00000170: e484 9a40 a539 9840 c25c bd40 91c5 8b40
00000180: b559 9c40 137c e640 2c89 5940 01b2 ab40

bn2.bias f4 [100]
0.009145803 -1.0427269 -1.2007833 0.8312857 -0.7840682 -1.7354906 -0.60301524 0.3548719
0.4599335 -2.0800595 0.09456925 0.83492655 -0.43198362 2.0668137 -0.3492732 -0.623095
-2.1116154 0.5907081 -1.058952 0.34477103 -0.46141696 2.094874 -0.11773988 -0.1656484
-2.3192253 0.56358856 -0.6262549 -2.485938 1.2802608 -0.096646585 -0.7364875 -0.8897447
0.8365928 -1.0361667 -0.9734872 -1.5886071 -0.87084496 -1.5244782 -1.7685452 1.2040354
-0.79044354 -0.11582749 0.069615744 -1.4166847 0.47750053 -1.3397806 -0.56405133 1.1341733
-1.2558662 0.015764134 -2.345582 -1.9253315 0.7733758 -0.17647173 -1.5367005 -0.44878274
1.1094658 -0.6531544 0.8764115 -0.067130685 1.8109518 0.31720808 1.4210755 0.35700703
0.66674095 -1.0818446 -0.15552491 -1.7459052 -0.53894997 0.27037534 -0.95045197 -1.2618657
0.7123624 -1.6188405 -1.2522655 -0.81722575 1.1995019 -1.0561149 1.7162237 -0.2982605
2.216108 0.65914017 -1.9164915 1.3720602 0.7497466 1.6027087 0.8071473 2.021084
-0.70537275 0.43113655 0.09316213 -0.5160722 -0.27666113 0.9131165 -0.7162743 -0.42407805
-0.35289553 -1.2175204 2.5436504 -0.095511466
00000000: 47d8 153c 1378 85bf 44b3 99bf 24cf 543f
00000010: b2b8 48bf 8e24 debf 355f 1abf c5b1 b53e
00000020: 677c eb3e b21f 05c0 86ad c13d bfbd 553f
00000030: f52c ddbe ad46 0440 f0d3 b2be 2783 1fbf
00000040: b524 07c0 a538 173f bd8b 87bf d485 b03e
00000050: d83e ecbe 6a12 0640 9b21 f1bd bc9f 29be
00000060: 306e 14c0 5747 103f 3e52 20bf 9c19 1fc0
00000070: 96df a33f a5ee c5bd 728a 3cbf 4fc6 63bf
00000080: f22a 563f 1ca1 84bf 7536 79bf 7a57 cbbf
00000090: b2ef 5ebf 1a22 c3bf b05f e2bf d51d 9a3f
000000a0: 825a 4abf f736 edbd b392 8e3d ed55 b5bf
000000b0: f37a f43e ee7d abbf ab65 10bf 972c 913f
000000c0: 39c0 a0bf c923 813c 041e 16c0 4371 f6bf
000000d0: f5fb 453f 01b5 34be 9ab2 c4bf dac6 e5be
000000e0: fa02 8e3f 2035 27bf 815c 603f d07b 89bd
000000f0: 45cd e73f 1969 a23e cde5 b53f a0c9 b63e
00000100: 89af 2a3f e279 8abf ec41 1fbe d279 dfbf
00000110: a0f8 09bf a36e 8a3e d250 73bf d184 a1bf
00000120: 625d 363f 2a36 cfbf 3c4a a0bf b535 51bf
00000130: 4789 993f c62e 87bf 38ad db3f 9ab5 98be
00000140: b7d4 0d40 69bd 283f 984f f5bf ab9f af3f
00000150: 65ef 3f3f 8f25 cd3f 35a1 4e3f 7159 0140
00000160: 4f93 34bf eebd dc3e c9cb be3d 4f1d 04bf
00000170: 87a6 8dbe 01c2 693f c15d 37bf c220 d9be
00000180: b9ae b4be b5d7 9bbf 2bcb 2240 849b c3bd

bn2.running_mean f4 [100]
2.5892928 -0.3117025 -0.39479646 0.9200591 -2.0476656 -8.993185 -2.3332248 -8.258012
2.882111 -7.647093 3.0685573 -3.042684 -2.0524964 -2.103617 -8.963912 -2.0751987
-5.4088078 3.0187962 -3.0898795 -0.785353 -3.2788966 6.5685678 6.917964 -2.7641296
-2.7678974 -6.6743307 3.8369472 -8.731875 0.7181053 2.9352403 -10.975582 5.7150407
-1.5567142 -0.3349343 -0.52242553 -8.884655 0.55974865 -1.3645416 -1.1370496 -0.55644315
-2.800386 4.5055413 4.965117 -0.8240079 1.1492882 -1.1462361 -8.608205 6.3500433
2.7500403 -0.8672924 4.0362434 -8.72881 -6.911621 -8.871129 -0.8047098 -0.71064866
7.50804 -1.2330016 -8.706026 -7.170399 4.843235 -1.7298925 4.36488 3.345658
-4.1911225 -1.7345673 -4.197469 -1.6678611 2.4040136 -0.28081673 -3.0895066 -0.22809622
2.5335057 -2.602282 -6.4913387 -2.6382723 -4.4842486 -6.329981 2.801156 -1.3950145
8.253871 3.1731055 -4.8986673 -4.7692857 -3.5253716 4.235166 2.6766984 6.5468316
-0.9688283 -0.63086826 6.010349 -0.3350355 4.0428567 3.6203823 -5.0200024 -5.8104196
-7.3036766 -4.0729723 5.8619995 1.6830622
00000000: f9b6 2540 7897 9fbe c322 cabe fe88 6b3f
00000010: f40c 03c0 16e4 0fc1 8e53 15c0 d120 04c1
00000020: 8274 3840 fcb4 f4c0 3e63 4440 56bb 42c0
00000030: 1a5c 03c0 a9a1 06c0 2f6c 0fc1 0ed0 04c0
00000040: f414 adc0 f533 4140 96c0 45c0 e50c 49bf
00000050: 71d9 51c0 b531 d240 f65f dd40 80e7 30c0
00000060: 3b25 31c0 1e94 d5c0 8b90 7540 c3b5 0bc1
00000070: c0d5 373f fada 3b40 fc9b 2fc1 9de1 b640
00000080: 6942 c7bf 827c abbe aebd 05bf 8c27 0ec1
00000090: b04b 0f3f 4da9 aebf d78a 91bf 0f73 0ebf
000000a0: 8639 33c0 652d 9040 3de2 9e40 2ff2 52bf
000000b0: e01b 933f ddb7 92bf 35bb 09c1 8e33 cb40
000000c0: a900 3040 e006 5ebf e828 8140 35a9 0bc1
000000d0: 002c ddc0 25f0 0dc1 7601 4ebf 12ed 35bf
000000e0: dd41 f040 ffd2 9dbf e24b 0bc1 e973 e5c0
000000f0: c8fb 9a40 1e6d ddbf 19ad 8b40 431f 5640
00000100: ad1d 86c0 4d06 debf ab51 86c0 797c d5bf
00000110: 5cdb 1940 36c7 8fbe 7aba 45c0 0e92 69be
00000120: f524 2240 ca8b 26c0 0cb9 cfc0 74d9 28c0
00000130: f77e 8fc0 348f cac0 2446 3340 d68f b2bf
00000140: db0f 0441 2914 4b40 e2c1 9cc0 fd9d 98c0
00000150: b09f 61c0 7b86 8740 074f 2b40 a57f d140
00000160: 2205 78bf 9580 21bf c754 c040 c689 abbe
00000170: 155f 8140 58b4 6740 dca3 a0c0 f5ee b9c0
00000180: b8b7 e9c0 ca55 82c0 8095 bb40 956e d73f

bn2.running_var f4 [100]
99.52232 118.840866 80.214806 117.18385 130.59467 76.173836 119.769226 142.18912
177.44286 57.537487 128.47098 148.33243 110.91284 113.60966 93.89859 108.95898
76.40063 77.74947 91.858025 128.33452 128.59923 152.03853 79.69202 164.16855
62.583736 97.68918 98.78612 84.538635 125.072495 77.344284 84.517395 81.51404
118.771515 124.78058 104.49991 113.99506 136.80739 89.80501 120.32943 95.10022
127.951645 128.51384 84.45865 99.87782 128.25938 119.83366 149.37297 85.70812
86.23209 89.78056 103.88712 72.0112 127.13004 178.39209 107.39333 104.69652
85.84944 118.01904 148.90865 103.244865 82.54231 103.92967 77.72123 110.39433
86.05619 105.44307 99.727104 95.40934 111.71126 136.36209 127.37505 135.7413
75.05464 113.40839 53.458355 81.76343 161.83946 82.280846 131.25992 177.03131
80.1742 92.96722 74.41211 107.141205 115.83813 88.81645 95.90041 100.648605
132.46031 71.74363 123.486885 90.859116 92.87043 109.332565 178.36833 72.34716
97.27058 131.955 49.428825 85.79906
00000000: 6e0b c742 86ae ed42 fb6d a042 225e ea42
00000010: 3c98 0243 0159 9842 d889 ef42 6a30 0e43
00000020: 5f71 3143 6326 6642 9278 0043 1a55 1443
00000030: 60d3 dd42 2538 e342 14cc bb42 ffea d942
00000040: 1fcd 9842 bb7f 9b42 4fb7 b742 a355 0043
00000050: 6799 0043 dd09 1843 5062 9f42 262b 2443
00000060: bf55 7a42 dc60 c342 7e92 c542 c813 a942
00000070: 1e25 fa42 46b0 9a42 e808 a942 3007 a342
00000080: 048b ed42 a88f f942 f4ff d042 79fd e342
00000090: b1ce 0843 2a9c b342 aba8 f042 5033 be42
000000a0: 3ee7 ff42 8b83 0043 d4ea a842 72c1 c742
000000b0: 6742 0043 d5aa ef42 7b5f 1543 8f6a ab42
000000c0: d576 ac42 a68f b342 35c6 cf42 bc05 9042
000000d0: 9542 fe42 6064 3243 63c9 d642 9e64 d142
000000e0: eab2 ab42 c009 ec42 9de8 1443 5f7d ce42
000000f0: aa15 a542 fedb cf42 4571 9b42 e6c9 dc42
00000100: c51c ac42 dae2 d242 4774 c742 95d1 be42
00000110: 2a6c df42 b25c 0843 07c0 fe42 c6bd 0743
00000120: fa1b 9642 18d1 e242 5bd5 5542 e086 a342
00000130: e7d6 2143 cb8f a442 8a42 0343 0408 3143
00000140: 3159 a042 37ef b942 00d3 9442 4c48 d642
00000150: 1fad e742 06a2 b142 03cd bf42 164c c942
00000160: d775 0443 bd7c 8f42 49f9 f642 deb7 b542
00000170: a9bd b942 46aa da42 4b5e 3243 bfb1 9042
00000180: 898a c242 7bf4 0343 1eb7 4542 1e99 ab42
