unity_audio_model/audio_model.pth (torch, 105840 bytes, 8 tensors)

fc1.weight f4 [100, 33]
0.012936774 0.13076395 -0.1359654 -0.20201725 -0.21154088 -0.1735251 -0.02874496 0.34507295
0.48356274 0.21942027 -0.29292136 -0.57396346 -0.09122867 0.06251307 0.20040357 -0.3436256
-0.25949565 -0.42257094 -0.0932166 0.11763167 0.5957579 -0.18865454 -0.19841115 0.48806906
0.29665038 -0.4404411 0.41818964 -0.4942593 0.44019985 -0.23952308 0.15618265 -0.046165735
0.43023902 -0.017404435 -0.19731958 0.17107806 -0.2982485 -0.42488798 0.12067824 0.13508742
0.20636347 0.1306651 0.48312727 0.39867038 -0.0069562187 -0.02599649 -0.0092130415 0.45951235
-0.887408 0.09291404 0.17526156 0.31418228 0.17714374 -0.02780096 -0.12763476 0.550968
0.04877732 -0.65734285 0.14018053 -0.20095389 -0.011707986 -0.3286847 0.30963862 -0.054094695
-0.48334697 -0.17691673 0.035179496 0.092774965 -0.1961272 -0.028921759 -0.17188558 0.31387535
0.099722795 -0.013570444 -0.68577504 -0.07700803 0.28927073 0.39245185 -0.8091784 0.3570297
-0.60421264 1.0192131 -0.2600828 0.012877995 -0.32897124 0.8374884 -0.46297294 0.08542267
-0.23049147 0.25267658 0.43639222 0.18392687 -0.26771036 -0.12821367 0.084026776 -0.24502301
0.09660636 -0.014108473 -0.004056962 -0.09472642 0.14130627 -0.08885618 0.40579057 -0.4738644
0.007304108 0.28407347 -0.08532635 -0.20612001 -0.267718 0.02013982 0.3167217 -0.25003198
-0.10089837 0.34072208 0.23282745 0.5274205 0.36314502 0.8302253 0.17912742 0.16313313
0.23927464 0.31049296 -0.5950146 0.052018043 -0.45006126 -0.85614353 -0.11016385 -0.19808897
-0.04117964 -0.012398615 -0.18563215 -0.47716188 -0.05817218 -0.086027466 0.046660654 -0.12588719
0.065081336 0.28361538 0.27257654 0.37344673 0.12099397 0.035407513 -0.21960028 -0.09395849
0.6919078 0.33563635 0.21166241 -0.39300647 0.61091083 -0.14150918 0.22615814 -0.2198571
0.876249 -0.3423736 -0.05184837 0.0011845685 0.3208062 -0.36305475 -0.2942972 0.25390747
-0.1457505 -0.216297 -0.17888872 -1.0040071 -0.83379334 -0.009024326 -0.11692554 0.060770206
0.23403482 -0.162317 -0.07967687 -0.19289578 0.09820115 -0.24781364 -0.1195109 -0.31421456
0.30128694 0.33709887 0.44832474 -0.6900551 0.06804093 -0.09694646 0.46455064 -0.7031417
0.61816096 0.37303007 0.2537778 -0.12039368 -0.68790776 0.11089044 -0.2904029 -0.19341788
0.026758084 -0.3499006 0.017461665 0.473611 0.61607414 -0.09216257 0.05297093 -0.04071064
-0.14166501 0.12738492 0.16184771 -0.24202581 0.08363947 -0.073028736 -0.12045338 -0.4070933
0.06729854 0.06689521 0.18867928 -0.44669327 0.25971943 0.101063356 0.1442834 -0.48010543
0.26571715 0.3356904 -0.031332325 0.29394904 0.14230339 -0.31782392 -0.3086544 0.68010765
0.47509065 -0.10829815 0.04531804 -0.28636855 -0.37544647 -0.73055553 0.5458618 -0.23802255
0.1580892 -0.1993608 0.14520693 0.88536763 0.2527965 0.40677804 0.3590345 -0.8303985
-0.12959108 -0.1525944 -0.2504345 -0.67990154 0.20811135 -0.2570445 -0.16391078 0.22547269
-0.044734348 -0.1344514 -0.030648386 0.016045813 0.18307 0.117238 0.15179586 -0.16281678
00000000: c3f4 533c fce6 053e 843a 0bbe 9cdd 4ebe
00000010: 2c9e 58be 90b0 31be 8d7a ebbc 67ad b03e
00000020: 8995 f73e b5af 603e caf9 95be 45ef 12bf
00000030: 19d6 babd da06 803d 9836 4d3e b2ef afbe
00000040: 9ddc 84be 385b d8be 58e8 bebd dfe8 f03d
00000050: 9783 183f a82e 41be 4b2c 4bbe 30e4 f93e
00000060: 8fe2 973e 7f81 e1be f41c d63e 8e0f fdbe
00000070: e061 e13e 8a45 75be 58ee 1f3e 4818 3dbd
00000080: 4a48 dc3e bf93 8ebc 250e 4abe 162f 2f3e
00000090: 07b4 98be eb8a d9be 2726 f73d 5b54 0a3e
000000a0: f250 533e 12cd 053e 755c f73e 861e cc3e
000000b0: fef0 e3bb 97f6 d4bc 4cf2 16bc 3445 eb3e
000000c0: 2c2d 63bf b749 be3d c477 333e 80dc a03e
000000d0: 2b65 353e d7be e3bc b0b2 02be 3d0c 0d3f
000000e0: baca 473d 9f47 28bf 7c8b 0f3e dbc6 4dbe
000000f0: dad2 3fbc 5c49 a8be f488 9e3e 6692 5dbd
00000100: 4179 f7be a929 35be 6018 103d cd00 be3d
00000110: 92d5 48be 53ed ecbc c602 30be 45b4 a03e
00000120: 773b cc3d 9156 5ebc f48e 2fbf 63b6 9dbd
00000130: 4b1b 943e 73ef c83e 5126 4fbf 99cc b63e
00000140: aead 1abf 9375 823f 9329 85be 3afe 523c
00000150: eb6e a8be a465 563f ca0a edbe 15f2 ae3d
00000160: f505 6cbe d35e 813e cd6e df3e 5357 3c3e
00000170: 5511 89be 724a 03be 3b16 ac3d 50e7 7abe
00000180: 8ed9 c53d 3a27 67bc 44f0 84bb edff c1bd
00000190: 97b2 103e 3bfa b5bd c8c3 cf3e 5b9e f2be
000001a0: 4c57 ef3b 1472 913e 95bf aebd 2011 53be
000001b0: 5512 89be 44fc a43c 5929 a23e 3104 80be
000001c0: cea3 cebd 2073 ae3e 526a 6e3e 0805 073f
000001d0: 25ee b93e a589 543f 2e6d 373e 5f0c 273e
000001e0: 6904 753e eff8 9e3e e052 18bf df10 553d
000001f0: 6e6e e6be 392c 5bbf 969d e1bd d6d7 4abe
00000200: fbab 28bd 8f23 4bbc 5b16 3ebe 904e f4be
00000210: f445 6ebd 2b2f b0bd 3e1f 3f3d 92e8 00be
00000220: 5d49 853d 0936 913e 278f 8b3e 6934 bf3e
00000230: b0cb f73d 7807 113d e5de 60be 4f6d c0bd
00000240: df20 313f 87d8 ab3e 08be 583e 2538 c9be
00000250: a764 1c3f c8e7 10be 0096 673e 3822 61be
00000260: db51 603f 984b afbe f55e 54bd 8643 9b3a
00000270: b640 a43e 50e2 b9be 1fae 96be 2900 823e
00000280: 9e3f 15be f67c 5dbe 9b2e 37be 4e83 80bf
00000290: 7b73 55bf c4da 13bc a876 efbd 2eea 783d
000002a0: d3a6 6f3e 6d36 26be a02d a3bd 7986 45be
000002b0: af1d c93d dcc2 7dbe 21c2 f4bd bbe0 a0be
000002c0: 4842 9a3e 3998 ac3e d28a e53e 73a7 30bf
000002d0: 0b59 8b3d de8b c6bd 95d9 ed3e 1801 34bf
000002e0: cc3f 1e3f ccfd be3e 2aef 813e f690 f6bd
000002f0: b91a 30bf 871a e33d b0af 94be 560f 46be
00000300: c533 db3c 2c26 b3be c40b 8f3c 247d f23e
00000310: 09b7 1d3f bbbf bcbd 0cf8 583d 33c0 26bd
00000320: a210 11be 3171 023e 68bb 253e 9dd5 77be
00000330: 2c4b ab3d 1790 95bd 43b0 f6bd 886e d0be
00000340: d1d3 893d 5b00 893d 2435 413e fbb4 e4be
00000350: f2f9 843e 4efa ce3d 07bf 133e 61d0 f5be
00000360: 140c 883e 9ddf ab3e 5356 00bd 7d80 963e
00000370: fbb7 113e d1b9 a2be f307 9ebe 891b 2e3f
00000380: 153f f33e 6ccb ddbd 699f 393d e69e 92be
00000390: 853a c0be b005 3bbf 99bd 0b3f 2fbc 73be
000003a0: 23e2 213e 3d25 4cbe 20b1 143e 74a7 623f
000003b0: 8b6e 813e 3645 d03e 5fd3 b73e ff94 54bf
000003c0: 86b3 04be b541 1cbe f338 80be 070e 2ebf
000003d0: 241b 553e 569b 83be 3ad8 27be 50e2 663e
000003e0: 5d3b 37bd a1ad 09be 5312 fbbc 8272 833c
000003f0: b476 3b3e 7a1a f03d 6070 1b3e 71b9 26be

fc1.bias f4 [100]
0.2758871 0.41460758 -0.36348778 0.23458861 -0.6010667 -0.32222757 -1.0983561 -0.08917371
-0.27116722 -0.28072622 0.2008106 -0.22225161 -0.08673644 0.1083577 0.046194036 -0.05401877
-0.46979976 0.13663553 -0.08662528 0.009504892 -1.0339689 -0.85893077 -0.5768891 0.51877517
-1.0111398 -0.7717183 0.043338656 -0.30594754 -0.08855461 -0.13118283 -0.33609203 -0.022059532
-0.13372217 0.086771876 0.040474936 -0.48810625 0.18298191 -0.19781479 0.0985831 -0.014811682
-0.37320372 -2.3086088 -0.3130095 0.21808384 0.30198973 -0.063395955 -1.3925948 0.4336084
-0.20701678 -0.20966391 0.729128 -0.16216907 0.09209882 -0.8145364 0.688277 -0.12933062
-0.30433452 0.47167802 0.26130995 0.35444602 -0.4486041 -0.20111541 0.021601774 -1.0932177
-0.058721974 0.2113453 -0.034231625 0.008992076 -0.19291954 -0.33017096 2.5402193 -0.055572607
0.14088325 -0.31898788 -0.52260494 -0.23483706 -0.32116318 0.29897907 -0.25173166 -0.35458517
1.6900158e-05 0.006140114 0.34117898 0.70142406 0.4665638 0.63918656 -0.43575808 -0.09825342
-0.09980644 0.06649281 0.50223327 0.5386074 0.3567016 -0.069042 -0.11120586 -0.3110528
0.1322361 -0.35381508 0.87692 -0.017965822
00000000: 1341 8d3e 7247 d43e 121b babe ff37 703e
00000010: 82df 19bf 03fb a4be ef96 8cbf b5a0 b6bd
00000020: 6ed6 8abe 59bb 8fbe 4ba1 4d3e ed95 63be
00000030: e0a2 b1bd a4ea dd3d f535 3d3d c942 5dbd
00000040: 9889 f0be 2fea 0b3e 9868 b1bd 68ba 1b3c
00000050: 1859 84bf e3e2 5bbf 01af 13bf 73ce 043f
00000060: 076d 81bf 558f 45bf e083 313d 28a5 9cbe
00000070: 1f5c b5bd cb54 06be 4114 acbe 31b6 b4bc
00000080: 77ee 08be 74b5 b13d 0cc9 253d 10e9 f9be
00000090: 9c5f 3b3e f68f 4abe f0e5 c93d b2ac 72bc
000000a0: 8f14 bfbe 3fc0 13c0 c842 a0be 5f51 5f3e
000000b0: 669e 9a3e bdd5 81bd 8c40 b2bf ec01 de3e
000000c0: 35fc 53be 23b2 56be 22a8 3a3f a60f 26be
000000d0: 4e9e bc3d 7585 50bf ec32 303f 3f6f 04be
000000e0: bcd1 9bbe c87f f13e 6bca 853e f379 b53e
000000f0: 70af e5be 33f1 4dbe 34f6 b03c 8fee 8bbf
00000100: 7486 70bd e76a 583e 7636 0cbd 8053 133c
00000110: b38c 45be 2b0c a9be f492 2240 1aa0 63bd
00000120: b343 103e 6152 a3be 70c9 05bf 2079 70be
00000130: 806f a4be c913 993e f9e2 80be 308c b5be
00000140: d0c4 8d37 0233 c93b 03af ae3e 8790 333f
00000150: 73e1 ee3e bba1 233f af1b dfbe 1739 c9bd
00000160: 5267 ccbd 622d 883d 5c92 003f 2de2 093f
00000170: 98a1 b63e e465 8dbd e6bf e3bd 5042 9fbe
00000180: e668 073e 4027 b5be d47d 603f 0f2d 93bc

fc2.weight f4 [200, 100]
-0.03943977 -0.10947856 -0.25608724 -0.05184401 0.18893957 -0.06766106 -0.013901376 0.00416205
-0.37472504 0.09331748 -0.22443335 -0.02996603 -0.22094983 -0.11451916 0.020222673 -0.058844153
-0.18190463 0.04275224 0.031099662 -0.032373905 0.07262044 -0.051800795 0.044663332 -0.023563037
-0.07255595 0.038263876 -0.07595119 -0.33506894 -0.12627964 -0.039461415 -0.16683145 0.0033841357
0.15111543 -0.13557951 -0.09830156 -0.02079469 -0.049657956 -0.13396376 -0.17477468 0.042192467
0.08941602 -0.2970238 0.024558555 -0.077719614 -0.09225502 -0.0076541165 -0.040849667 0.10870374
-0.32038432 0.16185427 -0.047188547 -0.20647098 0.0548618 -0.38402557 0.17669831 -0.03881632
-0.23692663 -0.46721202 0.055859324 -0.22976889 -0.11242504 -0.29354084 0.04875726 0.11742933
-0.065523885 -0.020659411 0.23102802 0.021649348 0.10063697 -0.1941922 0.12003768 0.18648331
0.15805878 0.18532059 -0.13974024 -0.14530304 0.14240079 -0.24975435 0.10757014 0.07268358
7.737344e-06 0.052324485 0.14358406 -0.19115528 0.13007449 0.17160419 -0.16773577 -0.205639
-0.10835348 0.19413465 -0.060019653 -0.1530859 -0.2340679 -0.037901625 0.003481398 -0.2554344
0.32328454 0.03360876 -0.16942799 -0.0953124 -0.1696057 0.009972606 -0.16415906 -0.49966374
0.23921092 -0.014581047 -0.104495 -0.004918173 -0.23612903 -0.22057875 -0.09355302 -0.10724392
-0.09042176 -0.08628543 -0.25361282 -0.06132964 0.028444558 -0.03844329 -0.08716794 -0.0755932
0.020352203 -0.082395576 0.08045332 -0.21687269 -0.35933566 -0.10619663 0.00019650286 -0.077711694
-0.060112327 0.2664167 0.1847652 6.1915273e-09 -0.1077254 -0.14637089 -0.330643 -0.17310098
-0.18660863 0.10814795 -0.013356336 -0.06010663 0.14795755 -0.018568387 -0.24558231 0.014493746
-0.37245855 0.06874106 -0.07799892 0.11007004 -0.033702575 -0.04401264 0.30652922 -0.034057155
-0.20380354 0.2065519 -0.27994242 -0.4585872 -0.27223596 -0.008328902 0.07479804 0.13770357
-0.2650186 0.28455368 -0.17083812 0.0875381 -0.033100363 0.013046989 -0.24859533 0.20172113
-0.04686325 0.055881374 0.11669618 -0.10064559 0.18936078 0.06202564 -0.13688348 -0.08152365
-0.33221334 -0.039732188 -0.14648338 -0.16119921 -3.9022292e-16 -0.13723493 0.115899645 -0.1340564
0.07344783 0.066533245 -0.1768663 -0.028273694 0.06301146 -0.023640305 -0.110556066 -0.059853688
0.05969936 0.024124384 0.25734758 0.20432301 -0.0730063 -0.022617316 0.065124035 0.07893873
0.018655268 -0.03128988 -0.06470894 -0.17439729 -0.17792867 0.0017665467 0.14601414 -0.21412383
-0.058216628 -0.046168294 -0.3342954 -0.046922714 0.2642782 -0.013310219 0.07344543 -0.16062678
0.010118539 0.04683371 -0.1254926 0.072578065 0.003919184 0.062256917 0.043085046 -0.07544455
0.04906907 -0.017890595 -0.15246539 -0.18786004 -0.118686296 0.13090983 -0.23344968 0.014945406
0.18803927 0.17160453 -0.07580735 0.10558477 -0.009107803 -0.14158097 -0.20303643 -0.5138583
0.012777664 -0.15466188 -0.19988473 0.16111541 -0.19627838 -0.07205031 -0.07807049 0.27047426
-0.12731396 -0.05063163 -0.2525885 -0.12939084 0.24562769 0.22503881 0.05114689 0.0806858
00000000: 998b 21bd 4c36 e0bd de1d 83be 625a 54bd
00000010: 6079 413e e291 8abd 99c2 63bc ce61 883b
00000020: f6db bfbe 3c1d bf3d dbd1 65be 527b f5bc
00000030: ac40 62be 0589 eabd 05aa a53c 9106 71bd
00000040: 3545 3abe f91c 2f3d b8c4 fe3c 809a 04bd
00000050: 06ba 943d 122d 54bd e6f0 363d 4507 c1bc
00000060: 3798 94bd 95ba 1c3d 4c8c 9bbd 288e abbe
00000070: 734f 01be 4ba2 21bd ddd5 2abe 60c8 5d3b
00000080: 01be 1a3e 5bd5 0abe 5452 c9bd a059 aabc
00000090: 2466 4bbd cc2d 09be 22f8 32be 02d2 2c3d
000000a0: bf1f b73d 8113 98be 062f c93c 762b 9fbd
000000b0: 33f0 bcbd 62cf fabb fb51 27bd 11a0 de3d
000000c0: 6a09 a4be 20bd 253e c748 41bd 216d 53be
000000d0: c4b6 603d 009f c4be 67f0 343e ddfd 1ebd
000000e0: e59c 72be 6a36 efbe bfcc 643d 8948 6bbe
000000f0: 193f e6bd fc4a 96be b1b5 473d ca7e f03d
00000100: 6331 86bd ed3d a9bc 9c92 6c3e f959 b13c
00000110: c11a ce3d 52da 46be 51d6 f53d 7bf5 3e3e
00000120: 29da 213e aec4 3d3e 1118 0fbe 52ca 14be
00000130: 83d1 113e 9bbf 7fbe bc4d dc3d 21db 943d
00000140: a4cf 0137 3352 563d b307 133e 36be 43be
00000150: 3f32 053e 02b9 2f3e edc2 2bbe 0893 52be
00000160: 6ee8 ddbd 3ccb 463e 2bd7 75bd 8dc2 1cbe
00000170: 7faf 6fbe bc3e 1bbd 2b28 643b 4cc8 82be
00000180: 8d85 a53e 57a9 093d 887e 2dbe 2633 c3bd
00000190: 1ead 2dbe 2464 233c 5019 28be edd3 ffbe
000001a0: b5f3 743e 58e5 6ebc 7901 d6bd a028 a1bb
000001b0: cfcb 71be 65df 61be ba98 bfbd b3a2 dbbd
000001c0: 0b2f b9bd 6ab6 b0bd 8ad9 81be ca34 7bbd
000001d0: 9004 e93c b676 1dbd 1b85 b2bd 9cd0 9abd
000001e0: aab9 a63c 03bf a8bd b6c4 a43d e013 5ebe
000001f0: d8fa b7be 9e7d d9bd 560c 4e39 4f27 9fbd
00000200: 5838 76bd c567 883e 1733 3d3e 40bd d431
00000210: 229f dcbd 40e2 15be 0a4a a9be 6241 31be
00000220: 5516 3fbe ac7c dd3d 89d4 5abc 5f32 76bd
00000230: 2f82 173e bb1c 98bc ee79 7bbe 2d77 6d3c
00000240: e3b2 bebe 1dc8 8c3d e6bd 9fbd 676c e13d
00000250: b60b 0abd 9946 34bd 66f1 9c3e 847f 0bbd
00000260: e0b1 50be 5782 533e 9d54 8fbe f1cb eabe
00000270: 8362 8bbe f275 08bc b72f 993d 2a02 0d3e
00000280: 85b0 87be 05b1 913e 30f0 2ebe 2d47 b33d
00000290: 3f94 07bd 0ac3 553c c68f 7ebe fc8f 4e3e
000002a0: aef3 3fbd dee3 643d 68fe ee3d 461f cebd
000002b0: cbe7 413e 990e 7e3d 2f2b 0cbe dff5 a6bd
000002c0: de17 aabe 38be 22bd bdff 15be 6811 25be
000002d0: bdf2 e0a5 5087 0cbe cb5c ed3d 1546 09be
000002e0: d16b 963d 9542 883d 701c 35be 3c9e e7bc
000002f0: 270c 813d 50a9 c1bc 386b e2bd 2429 75bd
00000300: 5187 743d 80a0 c53c 10c3 833e 0d3a 513e
00000310: 5484 95bd f347 b9bc c05f 853d a1aa a13d
00000320: efd2 983c d129 00bd 1f86 84bd 3495 32be
00000330: ef32 36be 798b e73a bb84 153e 4743 5bbe
00000340: 8f74 6ebd f71a 3dbd c428 abbe 0832 40bd
00000350: 794f 873e 1b13 5abc 8f6a 963d 597b 24be
00000360: 3bc8 253c b4d4 3f3d 2281 00be cfa3 943d
00000370: 806c 803b 1c01 7f3d f279 303d ac82 9abd
00000380: a6fc 483d 4c8f 92bc e31f 1cbe 625e 40be
00000390: cd11 f3bd 3a0d 063e 6f0d 6fbe 93dd 743c
000003a0: 5e8d 403e 19b9 2f3e e240 9bbd d43c d83d
000003b0: e538 15bc 9afa 10be c8e8 4fbe 388c 03bf
000003c0: 6859 513c af5f 1ebe 95ae 4cbe 70fb 243e
000003d0: 33fd 48be 1d8f 93bd 6ce3 9fbd 9a7b 8a3e
000003e0: 975e 02be 1d63 4fbd 4853 81be 087f 04be
000003f0: d385 7b3e 9370 663e 677f 513d 993e a53d

fc2.bias f4 [200]
0.38534883 0.05415868 0.35297018 -0.033293813 -0.14821392 0.20745131 -0.27905667 0.079474345
0.080031335 -0.95617366 0.33711007 0.41655865 -7.595255e-07 -0.26827404 0.099094905 -0.5491524
0.38157386 -0.214008 -0.40937707 -0.36943245 0.23938182 -0.08490206 -0.29534504 -0.25924507
-2.7602434e-07 0.2959864 0.2188983 0.2016567 0.46350908 0.20473342 -0.19912502 0.07926289
0.13237669 -0.07402873 0.04054506 -0.073514774 0.39824134 0.14635079 0.1333227 0.051819984
0.21930766 -0.55322033 -0.29064646 -0.000380082 -3.2763823e-05 0.13748656 -0.028979294 -0.73792166
-0.1943266 0.0128428135 0.22224323 0.011016836 0.2784256 -0.07285041 -0.057660066 -0.117643826
-2.7853546e-05 -0.03677264 0.18376254 0.4786306 0.6336895 0.18433896 0.3281912 0.37285203
-0.19408597 -0.6598305 -0.08644818 0.13971396 -0.33437192 -0.25615963 0.042640146 0.30923134
0.32918867 0.32879573 0.1315155 0.07918864 0.12940803 -0.32265174 -0.54069364 -0.28902295
0.026820859 0.20317473 0.4020674 -0.066457115 0.09298177 0.2898974 0.06670369 -0.31132242
0.10520965 -4.220845e-05 0.25798652 0.23034261 -0.04342482 -0.5073503 0.24627163 0.15006763
-0.68858856 0.25463727 0.17511274 -0.03572732 0.24424604 -0.3118026 -0.23381422 0.2680008
0.2637472 -0.3676343 0.5425018 -0.0029505116 0.08737903 -0.08044397 -0.33820897 -0.0178976
0.07278873 -0.6608679 -0.01768249 -0.040345605 -0.632913 0.14541772 0.5261564 -0.35397887
-0.0011333233 -0.20115903 0.24839993 0.18995856 -0.17028129 0.021624567 -0.0064808945 0.3269712
0.6890214 -0.023427054 -0.19361965 0.6607486 -0.12757745 -0.21997394 0.110662945 0.038284987
-0.40345755 -0.051828504 0.0027034956 0.2710602 -0.12048246 -0.19151902 0.066883706 -0.011181044
0.5464927 -0.30302164 0.1689014 0.35982007 -0.650728 0.69841105 -0.39670005 -0.07491958
0.6410006 0.07837966 0.12997228 0.057489242 0.46285534 0.27560997 -0.20952721 0.09196058
0.109891035 0.1305707 0.101933196 -0.32844287 -0.3715453 0.24433891 0.59923697 0.027058357
0.17982343 -0.5735349 -0.10800359 0.28613675 -0.048347935 -0.023527283 0.4318034 0.44026145
-0.54106903 0.07358426 -0.1318563 0.16906317 -0.0040821256 -0.23189996 -0.014160355 -0.14063402
0.21049649 0.21500437 -0.34574693 -0.9660844 -0.043688912 0.17975107 -0.11194436 0.19472419
-0.09800245 -0.5886968 -0.38432702 0.009744828 0.21802218 0.16948083 0.10608029 -0.64548266
00000000: 714c c53e 7ed5 5d3d 82b8 b43e 185f 08bd
00000010: 64c5 17be 1e6e 543e 84e0 8ebe 72c3 a23d
00000020: 78e7 a33d ccc7 74bf b199 ac3e 2d47 d53e
00000030: 32e2 4bb5 375b 89be 45f2 ca3d 4095 0cbf
00000040: a65d c33e ea24 5bbe df99 d1be 4026 bdbe
00000050: 8220 753e 22e1 adbd 7737 97be c5bb 84be
00000060: 7f30 94b4 888b 973e e026 603e 187f 4e3e
00000070: 1051 ed3e a3a5 513e 6ee7 4bbe 9554 a23d
00000080: c18d 073e 609c 97bd 9412 263d ea8e 96bd
00000090: 4ae6 cb3e fbdc 153e bf85 083e 3141 543d
000000a0: 3092 603e d99f 0dbf 9dcf 94be be45 c7b9
000000b0: e36b 09b8 47c9 0c3e fc65 edbc 6fe8 3cbf
000000c0: 8dfd 46be aa6a 523c bb93 633e f67f 343c
000000d0: cd8d 8e3e 9932 95bd f62c 6cbd 3fef f0bd
000000e0: 09a7 e9b7 e89e 16bd 3f2c 3c3e 120f f53e
000000f0: 7a39 223f 5ac3 3c3e ad08 a83e 76e6 be3e
00000100: 79be 46be a7ea 28bf be0b b1bd 2d11 0f3e
00000110: cc32 abbe 5b27 83be 6fa7 2e3d 9253 9e3e
00000120: 6b8b a83e ea57 a83e 00ac 063e a72d a23d
00000130: 8a83 043e 9c32 a5be e66a 0abf d1fa 93be
00000140: 6bb7 db3c 090d 503e c7db cd3e ab1a 88bd
00000150: 3a6d be3d 6f6d 943e f29b 883d a765 9fbe
00000160: 2878 d73d fa08 31b8 cf16 843e efde 6b3e
00000170: 39de 31bd b6e1 01bf a12e 7c3e 54ab 193e
00000180: 5747 30bf d15f 823e c150 333e cf56 12bd
00000190: a21b 7a3e 97a4 9fbe ff6c 6fbe 6737 893e
000001a0: df09 873e 903a bcbe 66e1 0a3f 5f5d 41bb
000001b0: c7f3 b23d cfbf a4bd ba29 adbe fd9d 92bc
000001c0: 4212 953d a42e 29bf dfda 90bc 6f41 25bd
000001d0: 9606 22bf 62e8 143e 30b2 063f b83c b5be
000001e0: 058c 94ba a2fc 4dbe 8d5c 7e3e 7f84 423e
000001f0: 385e 2ebe 0126 b13c af5d d4bb c568 a73e
00000200: b563 303f 18ea bfbc 3b44 46be d226 293f
00000210: aaa3 02be d940 61be 41a3 e23d b8d0 1c3d
00000220: fd91 cebe 204a 54bd 212d 313b 67c8 8a3e
00000230: 82bf f6bd 901d 44be 53fa 883d b330 37bc
00000240: f2e6 0b3f a725 9bbe 7df4 2c3e 563a b83e
00000250: 1c96 26bf 11cb 323f 451c cbbe 706f 99bd
00000260: 9e18 243f 8485 a03d 7417 053e d779 6b3d
00000270: 60fb ec3e c01c 8d3e 4d8e 56be d455 bc3d
00000280: 8d0e e13d 53b4 053e 5ac2 d03d aa29 a8be
00000290: 303b bebe fb33 7a3e 9867 193f 7da9 dd3c
000002a0: a223 383e 2fd3 12bf fc30 ddbd 8480 923e
000002b0: 7c08 46bd 4abc c0bc 5615 dd3e f369 e13e
000002c0: 8083 0abf 58b3 963d 5705 07be e51e 2d3e
000002d0: 5ac3 85bb 2f77 6dbe d500 68bc 5d02 10be
000002e0: 648c 573e 1b2a 5c3e be05 b1be 4f51 77bf
000002f0: 25f3 32bd aa10 383e 1643 e5bd c765 473e
00000300: 82b5 c8bd d5b4 16bf 83c6 c4be c5a8 1f3c
00000310: 3541 5f3e 628c 2d3e a040 d93d 5a3e 25bf

fc3.weight f4 [10, 200]
-0.2643345 0.01366113 -0.13834636 0.2630537 -0.16792253 -0.11204821 0.504102 0.3128464
0.6314589 0.48431104 0.27068132 0.16152225 0.0036576833 -0.077828944 -0.27180287 0.07597512
0.16681577 -0.022935038 0.62463915 -0.76873296 -0.4920929 0.14174843 0.65432143 0.23536777
-0.0010277738 -0.048653014 -0.4556833 0.7218588 0.51614547 -0.05698656 0.3364224 0.20111173
0.028849876 -0.6635402 0.5606116 0.28638053 0.0020506354 0.019802498 0.09445666 0.46848878
0.08983434 0.35399857 0.22892375 -0.015427435 8.634453e-05 -0.12894617 0.31881744 -0.0062990407
-0.056077957 0.069622256 0.03486848 0.06435884 0.5519055 0.32183158 -0.048179854 0.20903976
-0.0017660181 0.6442789 -0.34484616 -0.18241943 -0.1764239 0.68457663 -0.14256884 -0.30884984
0.00204567 0.453086 0.25625226 -0.00086665514 -0.15334201 0.25534424 -0.0054907915 -0.19582863
0.39844528 0.3897619 -0.1261174 0.77043504 0.0758323 -0.13034546 -0.11535918 0.41479072
-0.15037616 0.1351186 -0.48675576 0.35840932 0.26211703 -0.03081004 0.5984031 0.35868677
0.24270988 -0.002355368 0.6718702 0.09584593 -0.3015553 0.0744889 -0.055416107 0.3253626
0.22755669 -0.2976912 0.06709367 0.15940891 -0.5292858 0.59720314 0.40387934 0.5445988
0.46251595 0.19533283 0.1975461 -0.0058124666 -0.13125998 -0.0007626529 0.51064306 -0.5727918
0.22299422 -0.049891822 -0.34626684 -0.024974149 0.2676209 0.08464929 -0.036267035 0.21534641
-0.001101889 0.1576787 -0.18132661 -0.4148586 0.43278727 -0.42215765 0.2132659 -0.14997986
0.08370701 0.17122833 -0.4625965 -0.40941578 -0.028200684 -0.1675985 -0.1288062 0.37818974
-0.42018995 0.15394695 0.45283258 0.018623326 0.69025564 0.3336343 0.42276525 0.016108653
-0.5636154 0.18561934 -0.11292608 -0.34373662 -0.033658646 0.16744876 0.019965177 0.22505896
0.68588483 0.03555959 -0.57251453 0.15559615 0.4224969 -0.21905693 0.59424603 0.036880415
0.0015109009 -0.39894027 -0.22838053 -0.16739172 -0.17805497 -0.48928463 0.14862856 0.6890339
0.65828365 0.56613666 -0.048456665 -0.32468078 0.19365247 -0.34235963 0.5496901 -0.25615638
-0.077928394 -0.33633488 -0.6608622 0.032893874 0.4562686 0.79148865 0.009858191 -0.12640892
0.35575697 0.20853022 0.17538778 0.19251885 0.33539882 0.3147732 -0.59252113 -0.12880513
0.35315153 0.3027268 -0.047584716 -0.67049664 -0.24294113 -0.40200564 -0.31729183 0.1863159
0.46761516 -0.21573105 0.15285274 -0.2724596 0.43438807 0.039374445 -0.30054915 -0.2151215
0.04014583 0.40817866 -0.37740937 -0.26084653 0.0009283169 0.66922295 -0.005389259 -0.40179875
0.52403444 0.36334658 -0.1670646 0.4092177 -0.116785474 0.19231805 -0.3720692 0.04370906
0.0004149809 0.045400724 0.8420802 0.005780887 0.4608694 0.28694075 -0.43258035 -0.38057742
-0.40779424 0.08079842 -0.36220452 0.5986822 -0.39802393 -0.1180025 0.015111785 -0.07055939
0.11334661 0.31529593 0.75441515 0.0004574969 -0.00046366744 0.10235946 -0.0005650379 0.37483457
-0.60730726 -0.10333677 -0.022636171 0.67821044 -0.055339593 -0.11046469 -0.3117046 0.18055855
00000000: da56 87be efd2 5f3c abaa 0dbe f9ae 863e
00000010: e2f3 2bbe 8879 e5bd d40c 013f 672d a03e
00000020: 4aa7 213f 9ef7 f73e be96 8a3e 1766 253e
00000030: beb5 6f3b c864 9fbd bf29 8bbe d898 9b3d
00000040: c1d1 2a3e 43e2 bbbc 5ae8 1f3f afcb 44bf
00000050: 9af3 fbbe 8026 113e 9c81 273f 4004 713e
00000060: 5eb6 86ba 6248 47bd 524f e9be bdcb 383f
00000070: 1c22 043f bd6a 69bd 8f3f ac3e 3cf0 4d3e
00000080: 9356 ec3c c5dd 29bf 3e84 0f3f 78a0 923e
00000090: f463 063b d938 a23c 7e72 c13d c3dd ef3e
000000a0: 11fb b73d 4d3f b53e fd6a 6a3e 5ac3 7cbc
000000b0: de13 b538 770a 04be 0a3c a33e 2f68 cebb
000000c0: 00b2 65bd 1d96 8e3d 40d2 0e3d 91ce 833d
000000d0: ae49 0d3f 1cc7 a43e 3d58 45bd 850e 563e
000000e0: bc79 e7ba 76ef 243f ad8f b0be 29cc 3abe
000000f0: 78a8 34be 6a40 2f3f 91fd 11be 9121 9ebe
00000100: a610 063b e3fa e73e 7f33 833e 3e30 63ba
00000110: b005 1dbe 7bbc 823e 19ec b3bb 4d87 48be
00000120: 0501 cc3e df8e c73e eb24 01be 3b3b 453f
00000130: f74d 9b3d 4879 05be 6f41 ecbd 735f d43e
00000140: 35fc 19be 885c 0a3e 0d38 f9be 6d81 b73e
00000150: 3434 863e 5665 fcbc f230 193f cba5 b73e
00000160: f088 783e 855c 1abb afff 2b3f df4a c43d
00000170: 7565 9abe a38d 983d 00fc 62bd ed95 a63e
00000180: 9f04 693e fb6a 98be 6868 893d 173c 233e
00000190: 467f 07bf 4ee2 183f 46c9 ce3e d46a 0b3f
000001a0: e4ce ec3e 5405 483e 8649 4a3e 8176 bebb
000001b0: 0469 06be c5ec 47ba 81b9 023f 7ca2 12bf
000001c0: 9958 643e 5e5b 4cbd e349 b1be 9696 ccbc
000001d0: 9b05 893e 9b5c ad3d be8c 14bd c583 5c3e
000001e0: 426d 90ba 8676 213e afad 39be 5968 d4be
000001f0: 4b96 dd3e 0c25 d8be 6062 5a3e 5294 19be
00000200: 956e ab3d 7b56 2f3e 73d9 ecbe f29e d1be
00000210: 1f05 e7bc f19e 2bbe c6e5 03be 16a2 c13e
00000220: 2323 d7be 45a4 1d3e acd9 e73e f28f 983c
00000230: 98b4 303f 1dd2 aa3e b074 d83e 4bf6 833c
00000240: 1949 10bf ff12 3e3e ca45 e7bd 3ffe afbe
00000250: a6dd 09bd b077 2b3e 038e a33c db75 663e
00000260: 2696 2f3f efa6 113d 5090 12bf 9954 1f3e
00000270: 8451 d83e 7650 60be 8220 183f eb0f 173d
00000280: 6c09 c63a e641 ccbe 96dc 69be bc68 2bbe
00000290: 0b54 36be 8483 fabe 1632 183e 8764 303f
000002a0: 4785 283f 55ee 103f 7f7a 46bd 8f3c a6be
000002b0: d54c 463e c349 afbe 7eb8 0c3f ee26 83be
000002c0: ec98 9fbd 1634 acbe 442e 29bf babb 063d
000002d0: 0a9c e93e 009f 4a3f 4084 213c 5771 01be
000002e0: c725 b63e f288 553e db98 333e a923 453e
000002f0: 65b9 ab3e f429 a13e 77af 17bf 7ee5 03be
00000300: 47d0 b43e 02ff 9a3e 31e8 42bd aba5 2bbf
00000310: 8fc5 78be afd3 cdbe 1374 a2be 98c9 3e3e
00000320: 416b ef3e 9ae8 5cbe 6e85 1c3e d37f 8bbe
00000330: 1d68 de3e 1947 213d 94e1 99be cf48 5cbe
00000340: f46f 243d cbfc d03e cd3b c1be ad8d 85be
00000350: 4b5a 733a 3252 2b3f 6298 b0bb 91b8 cdbe
00000360: 1f27 063f 9008 ba3e fc12 2bbe fb84 d13e
00000370: 392d efbd 06ef 443e db7f bebe 4508 333d
00000380: cb91 d939 1cf6 393d 9192 573f 986d bd3b
00000390: 13f7 eb3e e6e9 923e 2c7b ddbe 0bdb c2be
000003a0: 68ca d0be a479 a53d df72 b9be 3d43 193f
000003b0: cbc9 cbbe 4bab f1bd 6c97 773c 7181 90bd
000003c0: 4422 e83d 786e a13e 5a21 413f 32dc ef39
000003d0: 6418 f3b9 d6a1 d13d 0d1f 14ba 51ea bf3e
000003e0: 7d78 1bbf 3aa2 d3bd 7e6f b9bc 339f 2d3f
000003f0: c5ab 62bd 503b e2bd bf97 9fbe 57e4 383e

fc3.bias f4 [10]
0.014994119 0.08450006 0.57650965 0.5648754 0.68258095 -0.000102217025 2.9370509e-05 0.183121
-0.011695667 1.138914
00000000: e5a9 753c 5e0e ad3d 2396 133f ad9b 103f
00000010: a0bd 2e3f 595d d6b8 b060 f637 1284 3b3e
00000020: 2f9f 3fbc efc7 913f

fc4.weight f4 [7, 10]
0.14440703 0.8617163 -1.0429761 2.4805183 0.4700653 -0.00079037953 -0.0005012128 -2.3342497
-0.004309277 -1.8606952 -2.4342544 2.6164367 -1.374787 -1.0675963 0.32634908 -0.0014204584
-8.038631e-05 0.9562336 -0.03272453 0.4997741 2.2029283 0.4937069 -0.5151551 0.012569721
-3.1539822 0.00028363336 0.0004010756 1.2396181 0.0057846624 -0.26996878 1.5080167 0.9217279
1.9797686 -2.4367442 1.0443686 0.00035862857 2.8267892e-05 -1.9542326 0.0055756243 0.34972277
0.96221405 -1.7656142 -0.6664622 -0.76861495 1.7170511 -1.2135809e-05 -0.00069785194 1.9820671
0.019842992 -1.6526325 -1.9244289 -1.0037028 3.0030777 1.5310999 -0.77640355 0.00030943082
1.5743004e-05 1.1015096 0.009659026 -0.2890075 -0.45445234 -2.078557 -1.3716397 0.22792798
0.4345861 0.00026449122 -0.00031624082 -0.9718312 0.003931431 3.2324016
00000000: 70df 133e 7099 5c3f 3e80 85bf d0c0 1e40
00000010: 66ac f03e 7931 4fba d263 03ba 5964 15c0
00000020: d634 8dbb 432b eebf d3ca 1bc0 b373 2740
00000030: 05f9 afbf ffa6 88bf 3a17 a73e ad2e baba
00000040: 1295 a8b8 bacb 743f 280a 06bd 64e2 ff3e
00000050: c7fc 0c40 27c7 fc3e 34e1 03bf 3bf1 4d3c
00000060: d8da 49c0 a0b4 9439 7547 d239 ceab 9e3f
00000070: 448d bd3b 5939 8abe b106 c13f 5cf6 6b3f
00000080: 0f69 fd3f 9ef3 1bc0 dfad 853f 5006 bc39
00000090: d620 ed37 4b24 fabf bab3 b63b dd0e b33e
000000a0: a953 763f a5ff e1bf 449d 2abf f3c3 44bf
000000b0: 55c8 db3f e79a 4bb7 0df0 36ba 60b4 fd3f
000000c0: c58d a23c 7689 d3bf b053 f6bf 5579 80bf
000000d0: 6d32 4040 15fb c33f 62c2 46bf 1a3b a239
000000e0: d80f 8437 44fe 8c3f e440 1e3c cbf8 93be
000000f0: faad e8be 1407 05c0 e491 afbf f465 693e
00000100: 1282 de3e 69ab 8a39 20cd a5b9 eec9 78bf
00000110: 3cd3 803b abdf 4e40

fc4.bias f4 [7]
-0.06807004 0.0036327487 -0.095434815 -0.036519893 -0.07008659 0.047112927 0.22348106
00000000: 4e68 8bbd 6913 6e3b 5473 c3bd e295 15bd
00000010: 8f89 8fbd 7cf9 403d 38d8 643e
