unity_audio_model/best_model.pth (torch, 105828 bytes, 8 tensors)

fc1.weight f4 [100, 33]
0	0x3c44d648	0.012013979
1	0x3e0b9685	0.13631637
2	0xbdfc2ff0	-0.12313831
3	0xbe70540a	-0.23469558
4	0xbe764df5	-0.24053176
5	0xbe2166e5	-0.15761907
6	0xbd1e3479	-0.03862426
7	0x3eae161f	0.34001252
8	0x3ef1a7b0	0.47198248
9	0x3e5c7712	0.21529797
10	0xbe8f8e96	-0.28038472
11	0xbf11edb9	-0.5700336
12	0xbda4efad	-0.08053527
13	0x3d5442a1	0.051821355
14	0x3e672c6f	0.22575544
15	0xbeb67872	-0.35638767
16	0xbe799d2e	-0.24376366
17	0xbedf1cf4	-0.43576777
18	0xbdb5dbe5	-0.08879832
19	0x3e22e26e	0.15906689
20	0x3f1571cb	0.5837676
21	0xbe20a434	-0.15687639
22	0xbe38446c	-0.17994851
23	0x3ef7aba5	0.48373142
24	0x3e9a46ef	0.30132243
25	0xbee19657	-0.44060013
26	0x3ebf6e98	0.37389064
27	0xbef70436	-0.482454
28	0x3eec3d91	0.4614072
29	0xbe8b4247	-0.27199003
30	0x3e1b484f	0.15164302
31	0xbd62d4bc	-0.05537866
32	0x3ed56e8a	0.41685897
33	0xbca36326	-0.019944739
34	0xbe44fd27	-0.19237195
35	0x3e2d0015	0.16894563
36	0xbe904146	-0.281748
37	0xbecd7d62	-0.40134722
38	0x3e0e8691	0.1391852
39	0x3e19db29	0.15025009
40	0x3e40fe28	0.18846953
41	0x3e29b332	0.16572264
42	0x3eef244d	0.46707383
43	0x3ece1532	0.40250546
44	0xbd052608	-0.032506973
45	0xbd192dd1	-0.03739721
46	0xbc76797d	-0.0150436135
47	0x3ef2ec35	0.47445837
48	0xbf682d6d	-0.90694314
49	0x3dcc40b0	0.09973276
50	0x3e216351	0.15760542
51	0x3e8591a0	0.26087666
52	0x3e25f40f	0.16206382
53	0xbc072f0e	-0.008250965
54	0xbde0111c	-0.10940763
55	0x3f10155b	0.56282586
56	0x3d8a45bb	0.06751581
57	0xbf265f11	-0.6498881
58	0x3dff5df4	0.12469092
59	0xbe42db2f	-0.19028924
60	0xba5cb56d	-0.00084193685
61	0xbea7b80e	-0.3275761
62	0x3e8fc11f	0.28077027
63	0xbd333842	-0.043754824
64	0xbefc9cae	-0.49338287
65	0xbe2d87e5	-0.16946371
66	0x3d0b16e7	0.03395739
67	0x3dcd79a4	0.10032967
68	0xbe515e0c	-0.20446032
69	0xbc981b4d	-0.018567706
70	0xbe293218	-0.16523015
71	0x3e9fe58f	0.31229827
72	0x3dbd847a	0.092537835
73	0xbd8e6629	-0.06953079
74	0xbf2ca1ce	-0.67434394
75	0xbd977103	-0.07394602
76	0x3e9e9153	0.3097025
77	0x3ec9909f	0.3936815
78	0xbf50ee5b	-0.816137
79	0x3eb1af78	0.34704185
80	0xbf18a7bb	-0.59630936
81	0x3f83baf2	1.0291426
82	0xbe60b8a5	-0.21945436
83	0x3d199ae8	0.037501246
84	0xbe8f48ab	-0.2798513
85	0x3f50adef	0.815154
86	0xbeee4805	-0.46539322
87	0x3dae6dec	0.0851706
88	0xbe654b92	-0.22392109
89	0x3e7e1f0d	0.24816532
90	0x3ee8f812	0.45501763
91	0x3e51218d	0.20422955
92	0xbe899e50	-0.26878595
93	0xbe19ae38	-0.15007865
94	0x3ce44c2e	0.027868357
95	0xbe88726d	-0.266498
96	0x3d93ebdd	0.07222722
97	0xbc1ae486	-0.009453898
98	0x3cb44a30	0.022008032
99	0xbdcaba37	-0.09898799
100	0x3e03311d	0.12811704
101	0xbda116a4	-0.078656465
102	0x3ed7fccb	0.42185053
103	0xbed3ef95	-0.41393724
104	0x3b6497f8	0.003488062
105	0x3e928c74	0.28622782
106	0xbde9dbb4	-0.11418858
107	0xbe67603a	-0.22595301
108	0xbe852a04	-0.26008618
109	0x3b6f47db	0.0036511335
110	0x3ea8b6fa	0.329521
111	0xbe561242	-0.20905402
112	0xbdf3f662	-0.11912228
113	0x3e9c616e	0.30543083
114	0x3e7cb4d9	0.24678363
115	0x3f111afc	0.566818
116	0x3eb103bf	0.3457317
117	0x3f58b908	0.84657335
118	0x3e2b95f0	0.16756415
119	0x3e1eca66	0.15506896
120	0x3e792c24	0.24333245
121	0x3e9bf710	0.3046193
122	0xbf126da6	-0.5719856
123	0x3d8f6b1b	0.070028506
124	0xbed67a47	-0.41890165
125	0xbf62dc53	-0.8861744
126	0xbdc1f5c0	-0.09470701
127	0xbe565761	-0.2093177
128	0xbcaf49b9	-0.021397458
129	0xbccb789d	-0.024837786
130	0xbe2c9588	-0.16853917
131	0xbf031456	-0.51202905
132	0xbd779342	-0.06044317
133	0xbdb3c4a7	-0.08777743
134	0x3d512f40	0.05107045
135	0xbe0a439e	-0.13502356
136	0x3da12e27	0.07870131
137	0x3e8cff21	0.27538398
138	0x3e8c6a37	0.27424785
139	0x3ebb60aa	0.36597186
140	0x3dd48a8f	0.103779905
141	0x3d46fb2e	0.048579387
142	0xbe6048e3	-0.21902804
143	0xbd9cb3d8	-0.0765149
144	0x3f3bb97b	0.73329896
145	0x3ea5b845	0.3236715
146	0x3e5569fe	0.20841214
147	0xbec99bbc	-0.39376628
148	0x3f183c63	0.5946714
149	0xbe1f0402	-0.15528873
150	0x3e7fd49e	0.24983451
151	0xbe6dbccc	-0.23216552
152	0x3f602118	0.875505
153	0xbec1d0fa	-0.3785475
154	0xbd9ec9f5	-0.07753364
155	0x3ce63267	0.028100206
156	0x3eafc56e	0.34330314
157	0xbeb8da87	-0.36104223
158	0xbe929d64	-0.28635705
159	0x3e5faf15	0.21844132
160	0xbe1ee71a	-0.15517846
161	0xbe4e6866	-0.20157012
162	0xbe3a703f	-0.18206881
163	0xbf75dbec	-0.960387
164	0xbf514fe2	-0.81762516
165	0xbbb7dd7a	-0.005611119
166	0xbde3b3d8	-0.11118287
167	0x3d6c8e77	0.057753053
168	0x3e634b8d	0.22196789
169	0xbe111265	-0.14167173
170	0xbdc19c9d	-0.094537
171	0xbe2e482e	-0.17019722
172	0x3dd4dfd9	0.10394258
173	0xbe7fd2f2	-0.24982813
174	0xbde80371	-0.113287814
175	0xbea1cdf9	-0.31602457
176	0x3e922c82	0.28549582
177	0x3eb05f2c	0.3444761
178	0x3ee6150c	0.44937932
179	0xbf2d3c8b	-0.67670506
180	0x3d7fcbc9	0.062450204
181	0xbdd4b7eb	-0.10386642
182	0x3eeb8757	0.46001694
183	0xbf3d1937	-0.738666
184	0x3f1da565	0.615805
185	0x3ec538ff	0.38520047
186	0x3e8892cb	0.26674494
187	0xbe049a66	-0.12949523
188	0xbf2a1c89	-0.6644979
189	0x3dd76166	0.10516624
190	0xbe93398a	-0.28754836
191	0xbe5e0fda	-0.21685734
192	0xbc9089de	-0.017643865
193	0xbebae7d5	-0.36505
194	0xbb3c93d2	-0.0028774631
195	0x3ef25c1c	0.473359
196	0x3f213848	0.62976503
197	0xbdbde0a2	-0.09271361
198	0x3d4f71af	0.050645526
199	0xbd6e8d22	-0.058240063
200	0xbe1a08f8	-0.15042484
201	0x3e1d67f8	0.15371692
202	0x3e2aabc9	0.16667093
203	0xbe77e6af	-0.24209093
204	0x3da3c671	0.07996834
205	0xbd8811b7	-0.06644004
206	0xbdd5a9a7	-0.10432749
207	0xbed7ef3d	-0.42174712
208	0x3d5670a2	0.05235351
209	0x3c57db3a	0.013174826
210	0x3e4b042a	0.19825807
211	0xbed93d33	-0.42429504
212	0x3e7b738b	0.24555795
213	0x3debc5c1	0.11512328
214	0x3e242df6	0.16033158
215	0xbef8d40b	-0.48599276
216	0x3e695a76	0.22788414
217	0x3ebfb955	0.37446085
218	0xbcd44f8f	-0.025916843
219	0x3e94a731	0.29033807
220	0x3e280647	0.16408645
221	0xbea74247	-0.32667753
222	0xbe9c0452	-0.30472046
223	0x3f2e91a6	0.6819099
224	0x3efd16ec	0.4943155
225	0xbde7098a	-0.11281116
226	0x3d26e275	0.04074331
227	0xbe5c79c2	-0.21530822
228	0xbebd98a2	-0.37030512
229	0xbf3c4466	-0.7354187
230	0x3f0bbd4a	0.5458571
231	0xbe70b4e9	-0.23506512
232	0x3e01a4ab	0.12660472
233	0xbe3b1869	-0.1827103
234	0x3e44eec2	0.19231704
235	0x3f64a61a	0.8931595
236	0x3e40da18	0.18833196
237	0x3ed4e259	0.4157894
238	0x3ec91369	0.3927262
239	0xbf58c982	-0.84682477
240	0xbe0dd167	-0.13849412
241	0xbe3d8ae8	-0.1851002
242	0xbe80f2b4	-0.25185168
243	0xbf2b3569	-0.6687837
244	0x3e3aca03	0.18241124
245	0xbe7611d4	-0.24030238
246	0xbe2fa0b3	-0.17151146
247	0x3e4354e8	0.19075358
248	0xbccc6e48	-0.02495493
249	0xbdf25b59	-0.118338294
250	0xbc62f550	-0.013852432
251	0x3cb3e5bf	0.021960137
252	0x3e3b53fd	0.18293758
253	0x3dc18bb1	0.09450472
254	0x3e4c7a02	0.19968417
255	0xbe4c85e7	-0.19972955

fc1.bias f4 [100]
0	0x3e8b0a1f	0.2715616
1	0x3ed1314a	0.40857917
2	0xbebee9a9	-0.37287644
3	0x3e6ca149	0.231084
4	0xbf186c04	-0.5953982
5	0xbeab84c8	-0.33499742
6	0xbf85669d	-1.042194
7	0xbdb0c9d4	-0.08632246
8	0xbe962333	-0.2932373
9	0xbe83e43d	-0.2576007
10	0x3e36cd06	0.17851648
11	0xbe64dd21	-0.22349979
12	0xbdec7863	-0.115463994
13	0x3dfa1177	0.122103624
14	0x3cfe0c12	0.031011615
15	0xbd690ba5	-0.05689587
16	0xbf02ef99	-0.51146847
17	0x3e0c617e	0.13709065
18	0xbd7064b7	-0.0586898
19	0xbc627a8b	-0.013823162
20	0xbf8a57fd	-1.0808102
21	0xbf5bdc5a	-0.85883105
22	0xbf145067	-0.57935184
23	0x3ef6a83d	0.4817523
24	0xbf85cef6	-1.0453784
25	0xbf4571dc	-0.7712686
26	0x3bda6d2d	0.006665847
27	0xbe95d281	-0.29262164
28	0xbdb75939	-0.08952565
29	0xbdead4af	-0.114663474
30	0xbeaa2d45	-0.33237663
31	0xbba29ade	-0.0049623093
32	0xbe192079	-0.14953794
33	0x3d97e238	0.07416195
34	0xbcc30dc7	-0.02381028
35	0xbf0154a6	-0.5051979
36	0x3e26edbc	0.16301626
37	0xbe4cbd5f	-0.19994114
38	0x3dd28ca4	0.10280731
39	0xbc5e58db	-0.0135709895
40	0xbebd875e	-0.3701734
41	0xc0136063	-2.302758
42	0xbe8cff11	-0.2753835
43	0x3e34de16	0.17662844
44	0x3eb22207	0.34791586
45	0xbdadb03c	-0.0848088
46	0xbfb01c45	-1.3758627
47	0x3ec5c609	0.3862765
48	0xbe8862b1	-0.26637796
49	0xbe65af1c	-0.2243008
50	0x3f385223	0.7200033
51	0xbe33dd85	-0.17564972
52	0x3d4effe7	0.050537016
53	0xbf4d935e	-0.8030299
54	0x3f36af79	0.713615
55	0xbe24886a	-0.16067663
56	0xbea6c4f8	-0.3257215
57	0x3eff2a9c	0.49837196
58	0x3e7d223f	0.24720095
59	0x3ea64cfc	0.3248061
60	0xbef4e1c1	-0.47828487
61	0xbe275787	-0.16341983
62	0x3d542754	0.05179532
63	0xbf8d5b0d	-1.1043411
64	0xbd85e6d0	-0.065381646
65	0x3e218ba0	0.15775919
66	0xbd41cd9b	-0.04731522
67	0xbcdaead8	-0.02672331
68	0xbe2a1b79	-0.16612042
69	0xbe8c4d1e	-0.27402586
70	0x40249d83	2.5721138
71	0xbd40fe87	-0.047117736
72	0x3e13219d	0.14368291
73	0xbebefbc7	-0.37301466
74	0xbf08ce27	-0.53439564
75	0xbe656e5b	-0.22405379
76	0xbeb336f8	-0.35002875
77	0x3e738cec	0.23784226
78	0xbe6c6cff	-0.23088454
79	0xbea2c087	-0.31787512
80	0x0db3bb53	1.1076823e-30
81	0xbd135dcc	-0.035978124
82	0x3ebb8b79	0.36629847
83	0x3f2fb52d	0.6863583
84	0x3ee5b86e	0.4486727
85	0x3f163934	0.58681035
86	0xbee29057	-0.44250748
87	0xbdd5607b	-0.10418793
88	0xbda16691	-0.07880891
89	0x3d8bcbbf	0.06825971
90	0x3ef33f3d	0.47509184
91	0x3f15eec6	0.58567464
92	0x3ea5a491	0.32352117
93	0xbc733ab1	-0.014845536
94	0xbe0059ce	-0.12534258
95	0xbe8c0068	-0.2734406
96	0x3e52edf4	0.20598584
97	0xbea214ee	-0.31656593
98	0x3f65746d	0.89630777
99	0xbd0550d3	-0.032547783

fc2.weight f4 [200, 100]
0	0xbce332d1	-0.027734192
1	0xbdcd2856	-0.10017459
2	0xbe56db03	-0.20981984
3	0xbdd72fdc	-0.10507175
4	0x3e43e3ce	0.1912987
5	0xbd46baab	-0.048517864
6	0xbc8868e8	-0.016651586
7	0x3c8d26ad	0.017230356
8	0xbec67b24	-0.38765824
9	0x3e015a6c	0.1263215
10	0xbe2abd37	-0.16673742
11	0xbca87ccd	-0.020567322
12	0xbe83da1c	-0.25752342
13	0xbe190221	-0.14942218
14	0xbc7bcc43	-0.015368524
15	0x3d1ec362	0.03876055
16	0xbe331d55	-0.17491658
17	0x3cdc8315	0.026917974
18	0x3d46aafd	0.04850291
19	0x39567790	0.00020453171
20	0x3d95ab1c	0.07308027
21	0xbc429e09	-0.011878499
22	0x3d8bc02c	0.06823763
23	0xbd884cd4	-0.06655279
24	0xbd5ed8d5	-0.054406006
25	0xbcdb2fa6	-0.026756119
26	0xbda3498f	-0.079730146
27	0xbe95ff14	-0.29296172
28	0xbdd4aa9a	-0.10384102
29	0xbcbfee16	-0.023428958
30	0xbdc61077	-0.09671109
31	0x2019d2ce	1.3029354e-19
32	0x3e328f4a	0.17437473
33	0xbe3c18e9	-0.18368877
34	0xbe10b58d	-0.14131756
35	0x3a1ac4a3	0.0005903935
36	0xbddfc0f4	-0.10925475
37	0xbde989f2	-0.11403264
38	0xbe1a3374	-0.1505869
39	0x3c4b4777	0.012407175
40	0x3e0c2b09	0.13688292
41	0xbe9c2c4d	-0.3050255
42	0x3d2e2a81	0.042521004
43	0xbdbe2395	-0.092841305
44	0xbd98db0d	-0.074636556
45	0xbd0298bd	-0.031883944
46	0xbcd577f8	-0.026058182
47	0x3da47e54	0.08031908
48	0xbe381565	-0.17976911
49	0x3e1a48e1	0.15066864
50	0xbd32f88c	-0.043694064
51	0xbe8900be	-0.2675838
52	0x3d82cc06	0.06386571
53	0xbe9b86be	-0.30376238
54	0x3e06dcd1	0.13170172
55	0xbce74935	-0.02823315
56	0xbe41617a	-0.1888484
57	0xbec705d0	-0.38871622
58	0x3db88609	0.0900994
59	0xbe51aa0a	-0.20475021
60	0xbdb0e9a0	-0.086383104
61	0xbea40188	-0.32032418
62	0x3d584db3	0.052808475
63	0x3dc528e1	0.09626938
64	0xbda3ec80	-0.08004093
65	0xbd25a085	-0.040436286
66	0x3e60dbeb	0.21958892
67	0x3c9d152f	0.01917514
68	0x3e02c488	0.12770283
69	0xbe669fe7	-0.22521935
70	0x3de5667b	0.11201187
71	0x3e28284e	0.16421625
72	0x3e20a02c	0.156861
73	0x3e5aece3	0.21379428
74	0xbd9f2a8f	-0.07771789
75	0xbe2251bb	-0.1585149
76	0x3e224e98	0.15850294
77	0xbe812830	-0.25225973
78	0x3dcf4138	0.10119861
79	0x3d47f46e	0.04881709
80	0x8c2723ef	-1.2876025e-31
81	0x3cc56b83	0.024099117
82	0x3e1addc6	0.15123662
83	0xbe53eeb5	-0.20696528
84	0x3e0b7f19	0.13622703
85	0x3e17eecf	0.14837192
86	0xbe0c0d85	-0.13677032
87	0xbe801f75	-0.25024
88	0xbd99108a	-0.07473858
89	0x3e5b2237	0.2139977
90	0xbd458f81	-0.04823256
91	0xbe3b9f63	-0.1832252
92	0xbe74f7bf	-0.23922633
93	0x3d547e44	0.05187823
94	0x3d8cea08	0.068805754
95	0xbe830c6e	-0.2559542
96	0x3e9c59f0	0.30537367
97	0xbacac059	-0.0015468701
98	0xbe21bcc2	-0.15794662
99	0xbd84f9d1	-0.06492961
100	0xbe0fa947	-0.14029418
101	0x3c0c1243	0.008549276
102	0xbe026cb6	-0.12736782
103	0xbf04b54a	-0.51839125
104	0x3e7113de	0.23542735
105	0xbc647ad3	-0.013945299
106	0xbd0b645b	-0.034031253
107	0xbce94a04	-0.028477676
108	0xbe693e8d	-0.22777767
109	0xbe76bdc0	-0.24095821
110	0xbe1a06e6	-0.15041694
111	0xbd9f8457	-0.07788914
112	0xbe001dda	-0.12511387
113	0xbd28944f	-0.041157063
114	0xbe9343ff	-0.28762814
115	0xbc16b42c	-0.00919823
116	0xbcae732c	-0.021295153
117	0xbd1caf3b	-0.03825305
118	0xbe069e85	-0.13146408
119	0xbc3f59ee	-0.011679156
120	0x3d815c66	0.06316452
121	0xbd92624a	-0.071476534
122	0x3d3eac1b	0.04655085
123	0xbe41d5f6	-0.18929276
124	0xbea87cd2	-0.3290773
125	0xbdc8ef97	-0.09811323
126	0xbd29b59a	-0.041432954
127	0xbde5ad23	-0.11214664
128	0xbd15c681	-0.03656626
129	0x3e88b068	0.26697087
130	0x3e58d295	0.2117408
131	0xb0f6095b	-1.7901515e-09
132	0xbe15fef4	-0.14648038
133	0xbe00b493	-0.12568884
134	0xbe74524f	-0.23859523
135	0xbe3e4465	-0.18580778
136	0xbe30c374	-0.1726206
137	0x3d4e1fbc	0.050323233
138	0xbcab9616	-0.02094559
139	0xbdd2270e	-0.10261355
140	0x3e29cab8	0.16581237
141	0xbd40e742	-0.047095545
142	0xbe7b058b	-0.24513833
143	0x3c54eadf	0.012995451
144	0xbeb9c65e	-0.36284155
145	0x3cb21c33	0.021741962
146	0xbd1c65c2	-0.03818298
147	0x3e2a5d24	0.16637093
148	0xbc471ef0	-0.012153372
149	0xbd5c95d5	-0.05385383
150	0x3e9f0164	0.31055748
151	0xbd25e380	-0.040500164
152	0xbe49b123	-0.19696479
153	0x3e2b37d7	0.1672052
154	0xbe648e33	-0.2231987
155	0xbef909e8	-0.4864037
156	0xbe8ed2e3	-0.2789527
157	0x3c1bddf8	0.009513371
158	0x3e0065e6	0.12538871
159	0x3e0d0ea9	0.13775124
160	0xbe921890	-0.28534365
161	0x3e99eeeb	0.30065092
162	0xbe1cfa9e	-0.15329978
163	0x3d55e5a7	0.052220967
164	0xbd38bf94	-0.04510458
165	0x3c8e63b3	0.017381525
166	0xbe89ff75	-0.2695271
167	0x3e4f53d8	0.20246828
168	0xbd210dc5	-0.039319772
169	0x3ca66d0f	0.020315675
170	0x3e28c494	0.16481239
171	0xbdca407c	-0.09875581
172	0x3e58562a	0.21126619
173	0x3db5a9f9	0.0887031
174	0xbdc64bfc	-0.096824616
175	0xbdb123f5	-0.086494364
176	0xbecca493	-0.3996931
177	0x3b773fb7	0.0037727186
178	0xbe644337	-0.22291265
179	0xbe54c8e5	-0.2077976
180	0x0e5d8dae	2.730857e-30
181	0xbd6f8701	-0.05847836
182	0x3d9d60f9	0.07684512
183	0xbe18c75b	-0.14919798
184	0x3de546b3	0.111951254
185	0x3d955440	0.0729146
186	0xbe1de289	-0.15418448
187	0xbcb03370	-0.021508902
188	0x3da915c9	0.08256108
189	0x3bb868ab	0.005627712
190	0xbd6d6ccd	-0.05796509
191	0xbd42f932	-0.047600932
192	0x3d21a89f	0.03946745
193	0x3d2b3931	0.04180259
194	0x3e6c71c9	0.2309028
195	0x3e3bcb31	0.1833923
196	0xbe153fed	-0.14575167
197	0xbdf504ec	-0.119638294
198	0x3d99a27b	0.07501694
199	0x3dc74c90	0.097314
200	0xbba10bec	-0.0049147513
201	0xbccd85bf	-0.02508819
202	0xbda640e4	-0.08117846
203	0xbdf93cda	-0.1216981
204	0xbe555473	-0.20832996
205	0xbd1f9ca5	-0.038967747
206	0x3dd0db4b	0.10198077
207	0xbe5bb5ca	-0.21456066
208	0xbd08bb29	-0.033381615
209	0xbd3360ee	-0.04379361
210	0xbea7a440	-0.327425
211	0x3c4ff3e5	0.012692426
212	0x3e912085	0.28345123
213	0x3bed3bd9	0.0072398004
214	0x3ddf4630	0.10902059
215	0xbe044d16	-0.12920031
216	0xbcd7209e	-0.02626067
217	0x3dce5782	0.100752845
218	0xbdf6306a	-0.12020953
219	0x3dae17d1	0.08500636
220	0x3bf8fbb6	0.0075983657
221	0x3cf5eb77	0.030019505
222	0x3db68fed	0.089141704
223	0xbd576a5e	-0.052591674
224	0x3d79e138	0.0610058
225	0xbcb125cf	-0.021624474
226	0xbd1e87d5	-0.03870376
227	0xbe2cd000	-0.1687622
228	0xbe32aa68	-0.17447817
229	0x3dcbd474	0.099526316
230	0xbe2bac9d	-0.16765065
231	0xb8edd7a3	-0.00011341206
232	0x3e2d2eb9	0.16912355
233	0x3e0b0947	0.13577758
234	0xbdfbd75c	-0.12296936
235	0x3dc2c2fa	0.09509845
236	0x3bdc1295	0.0067160823
237	0xbe2368c9	-0.15957941
238	0xbe47a70d	-0.19497319
239	0xbee0b08b	-0.43884692
240	0x3d49167d	0.049093712
241	0xbe00d607	-0.12581645
242	0xbe4fcb03	-0.20292287
243	0x3e1c5a0a	0.15268722
244	0xbe755b39	-0.2396058
245	0xbdd0c8c7	-0.10194545
246	0xbd7d887b	-0.061897736
247	0x3e7c74f1	0.24653985
248	0xbe0849c8	-0.13309395
249	0xbd9624c0	-0.07331228
250	0xbea932ee	-0.3304667
251	0xbdde6e6d	-0.10860906
252	0x3e85aa3a	0.26106435
253	0x3e6d2289	0.23157705
254	0x3d82af19	0.063810535
255	0x3da2059d	0.07911227

fc2.bias f4 [200]
0	0x3ed2b391	0.41152623
1	0x3d139fe7	0.036041167
2	0x3eaebd97	0.3412902
3	0xbd7f53e1	-0.062335853
4	0xbe2dee72	-0.16985491
5	0x3e271050	0.16314816
6	0xbe8d18d9	-0.2755802
7	0x3ded0e7e	0.1157503
8	0x3d4129fa	0.047159173
9	0xbf6a3446	-0.9148601
10	0x3ed37be1	0.4130545
11	0x3edcac0d	0.43100014
12	0xb8a8f2be	-8.0560785e-05
13	0xbe81810a	-0.25293761
14	0x3d9e4a58	0.07729024
15	0xbf11378e	-0.56725395
16	0x3ec8cc2e	0.39218277
17	0xbe370a70	-0.17875075
18	0xbec955bb	-0.3932322
19	0xbec51c12	-0.38497978
20	0x3e832cb8	0.25620055
21	0xbe109ad4	-0.14121562
22	0xbe939ce3	-0.28830633
23	0xbe88917f	-0.26673505
24	0xbcfd5425	-0.030923912
25	0x3e8b901f	0.27258393
26	0x3e6be72b	0.23037402
27	0x3e605f3d	0.2191133
28	0x3ef7535f	0.48305795
29	0x3e554243	0.20826058
30	0xbdf91e30	-0.12163961
31	0x3d70d34b	0.058795255
32	0x3e125638	0.14290702
33	0xbd7d67f0	-0.0618667
34	0x3cc7a266	0.02436943
35	0xbdc2579d	-0.09489367
36	0x3eb70969	0.35749367
37	0x3e038ccc	0.12846678
38	0x3e22548a	0.15852562
39	0x3d751435	0.059833724
40	0x3e771230	0.24128032
41	0xbf16ffcd	-0.5898407
42	0xbe9a4cf6	-0.30136842
43	0xbb4f3eec	-0.0031623198
44	0xbcfc5151	-0.030800493
45	0x3e29a99c	0.16568607
46	0xbcfbb272	-0.030724738
47	0xbf3eec48	-0.74579287
48	0xbe696431	-0.22792126
49	0x3c9bb39e	0.019006547
50	0x3e6f5edd	0.23376031
51	0xbc109a3f	-0.008825838
52	0x3e785aa0	0.2425332
53	0xbd4bf751	-0.049796406
54	0xbd82f0fc	-0.0639362
55	0xbda62ce4	-0.08114031
56	0xbcf92ac8	-0.030415908
57	0xbc4e078e	-0.012575043
58	0x3e4622b1	0.19349171
59	0x3f023c1f	0.5087299
60	0x3f225ba6	0.63421094
61	0x3e5150cb	0.20440976
62	0x3eb1b665	0.34709468
63	0x3ec56200	0.3855133
64	0xbe7af074	-0.24505788
65	0xbf22f0e9	-0.6364885
66	0xbdfb3b48	-0.122671664
67	0x3e35698d	0.17716046
68	0xbea65e25	-0.32493702
69	0xbe7a8995	-0.24466546
70	0x3d1d8c23	0.038463723
71	0x3e923d6f	0.28562495
72	0x3ebc3d2a	0.36765414
73	0x3e9f5e22	0.31126505
74	0x3e175b14	0.14780837
75	0x3d9ac265	0.07556609
76	0x3dc4847b	0.09595581
77	0xbe89dc74	-0.26926005
78	0xbf180bbf	-0.59392923
79	0xbe687822	-0.22702077
80	0xbced34c1	-0.02895582
81	0x3e3fecd0	0.1874268
82	0x3ed7e317	0.42165443
83	0xbd4b29dd	-0.04960047
84	0x3d9b2f5c	0.075773925
85	0x3e710cb9	0.2354001
86	0x3da3d9f4	0.08000556
87	0xbea1d517	-0.31607887
88	0x3e03772f	0.12838434
89	0xb9d41fe4	-0.0004045955
90	0x3e67ea7e	0.22648045
91	0x3e51fbd9	0.20506229
92	0xbd13758b	-0.03600077
93	0xbefe7503	-0.49698648
94	0x3e836bd7	0.25668213
95	0x3e2a02e0	0.16602659
96	0xbf3839c6	-0.71963155
97	0x3e6f8ad8	0.23392808
98	0x3de1373a	0.10996862
99	0x3c1baad6	0.00950118
100	0x3e96d66f	0.29460475
101	0xbe98400b	-0.2973636
102	0xbe807988	-0.2509272
103	0x3e7e6ffa	0.24847403
104	0x3e97a1ef	0.29615733
105	0xbeb0ea20	-0.34553623
106	0x3f0a8d78	0.54122114
107	0x9398493a	-3.84424e-27
108	0x3dcfafd7	0.10140961
109	0xbdc6e065	-0.097107686
110	0xbeb15b57	-0.3464
111	0x3cb095d0	0.021555811
112	0x3d7b88a3	0.061409604
113	0xbf26bf8f	-0.65136045
114	0x3ba984b9	0.0051732925
115	0xbc6b28d6	-0.014352998
116	0xbf2869c1	-0.6578637
117	0x3e43bab1	0.19114186
118	0x3f1c8952	0.61147034
119	0xbebc8735	-0.36821905
120	0xb686e7b8	-4.020487e-06
121	0xbe510806	-0.20413217
122	0x3e82f7c4	0.25579655
123	0x3e6239b3	0.22092323
124	0xbe0a3003	-0.13494878
125	0x3d25906c	0.040420935
126	0xbc8c0ca7	-0.017095877
127	0x3e9ddcc4	0.30832493
128	0x3f25ba28	0.64737177
129	0xbcf5cb68	-0.030004218
130	0xbe188108	-0.14892972
131	0x3f2bca17	0.6710524
132	0xbdbb4d08	-0.09145552
133	0xbe7dd1f8	-0.24787128
134	0x3d7629fd	0.060098637
135	0x3d43fb2c	0.047846958
136	0xbede395a	-0.4340313
137	0xbd817c1e	-0.063225016
138	0x3d0c0548	0.034184724
139	0x3e9a35ac	0.30119073
140	0xbe0b8af9	-0.13627233
141	0xbe6f97c1	-0.23397733
142	0x3dd15f12	0.10223211
143	0xbcbc2f4d	-0.022971774
144	0x3f09d767	0.538443
145	0xbe9ed474	-0.31021464
146	0x3e053174	0.13007146
147	0x3ebb8b59	0.3662975
148	0xbf364fec	-0.712157
149	0x3f2bca0b	0.6710517
150	0xbeebbab5	-0.46040884
151	0xbc043cac	-0.008071106
152	0x3f2608ec	0.64857364
153	0x3d6c767a	0.057730176
154	0x3dfcce54	0.123440415
155	0x3d5aac11	0.05338675
156	0x3ee70977	0.4512441
157	0x3e857e52	0.26072937
158	0xbe54fd76	-0.20799813
159	0x3e0bf8e7	0.13669167
160	0x3db6ee3c	0.08932158
161	0x3dd0570a	0.101728514
162	0x3dd5d9cf	0.10441934
163	0xbeb04b94	-0.34432662
164	0xbed7aac7	-0.4212248
165	0x3e87758c	0.2645687
166	0x3f1874e1	0.59553343
167	0x3c5b9e51	0.013404445
168	0x3e2e42cb	0.17017667
169	0xbf1913a4	-0.59795594
170	0xbe049300	-0.12946701
171	0x3e900a1e	0.2813272
172	0xbba2efcd	-0.004972434
173	0xbc67102a	-0.014102975
174	0x3ee523df	0.4475393
175	0x3ed5b662	0.4174071
176	0xbf074c69	-0.5285097
177	0x3e02dc4c	0.12779349
178	0xbe23a4ec	-0.15980881
179	0x3e19be2a	0.15013948
180	0xbb04c863	-0.0020261041
181	0xbe4027fd	-0.18765254
182	0xbcc6682f	-0.0242196
183	0xbe14b943	-0.14523797
184	0x3e7917bf	0.24325465
185	0x3e56d2fb	0.2097892
186	0xbe984d59	-0.29746512
187	0xbf79f3dd	-0.9763773
188	0xbd7a90f2	-0.061173387
189	0x3e3abac2	0.18235305
190	0xbd9d196f	-0.07670867
191	0x3e805be7	0.25070116
192	0xbdf64383	-0.120245956
193	0xbf1cf2c0	-0.6130791
194	0xbeb3f273	-0.35145912
195	0x3caf404c	0.021392964
196	0x3e57774f	0.21041606
197	0x3e47a9b6	0.19498333
198	0x3e0a3695	0.13497384
199	0xbf215ec3	-0.6303522

fc3.weight f4 [10, 200]
0	0xbe548bb0	-0.20756412
1	0x3ce190d9	0.027534889
2	0xbe0f7b4b	-0.14011876
3	0x3e91e33f	0.28493688
4	0xbe23ca8d	-0.15995236
5	0xbda54f5e	-0.08071779
6	0x3efb9361	0.4913588
7	0x3e9d03db	0.30667004
8	0x3f1f5b30	0.62248516
9	0x3ee3b1bb	0.44471535
10	0x3e960802	0.29302984
11	0x3e47d07f	0.19513129
12	0x380b4f95	3.32143e-05
13	0xb9daea04	-0.00041754555
14	0xbe93c470	-0.28860807
15	0x3d8cde08	0.068782866
16	0x3e586a04	0.21134192
17	0xbd56de4b	-0.05245809
18	0x3f2e447d	0.68073255
19	0xbf39c3b9	-0.72564274
20	0xbeeca453	-0.4621912
21	0x3e088d1c	0.13335079
22	0x3f20a26e	0.6274785
23	0x3e6e99cd	0.23300858
24	0x3bd816b8	0.006594505
25	0xbd54444d	-0.05182295
26	0xbee01f0b	-0.43773684
27	0x3f4031de	0.7507609
28	0x3f022b4c	0.50847316
29	0xbd049884	-0.032372013
30	0x3ec15dee	0.37766975
31	0x3e70d671	0.23519303
32	0x3b6d18d6	0.0036178133
33	0xbf327972	-0.6971656
34	0x3f0fd50e	0.5618447
35	0x3e8b81f5	0.27247587
36	0x3be03fdd	0.0068435506
37	0xbcac66e6	-0.02104516
38	0x3dda87cd	0.10670433
39	0x3ef9e21d	0.48805323
40	0x3d89205b	0.066956244
41	0x3ec9c85f	0.39410684
42	0x3e69bbff	0.22825621
43	0xbc1791d9	-0.009251081
44	0x3cbd8693	0.023135459
45	0xbe1d971f	-0.1538968
46	0x3ea43a3b	0.32075676
47	0xbb2ab300	-0.0026046634
48	0xbd0fa069	-0.03506509
49	0x3c9bd9df	0.019024787
50	0x3d3a27c2	0.045448072
51	0x3de2816b	0.11059841
52	0x3ef643dc	0.48098648
53	0x3eaf3854	0.34222662
54	0xbd981e03	-0.07427599
55	0x3e2fe9d4	0.17179042
56	0xbc2a172d	-0.010381502
57	0x3f26ff7f	0.65233606
58	0xbea9c0e4	-0.33154976
59	0xbe4d2b8a	-0.2003614
60	0xbe1f377b	-0.15548508
61	0x3f327c59	0.6972099
62	0xbe1d9440	-0.15388584
63	0xbeaf1c6a	-0.34201366
64	0xbc78d723	-0.015188011
65	0x3eefea4b	0.4685844
66	0x3e835f05	0.25658432
67	0x3c9e74e3	0.019342845
68	0xbe1bf171	-0.15228821
69	0x3e749886	0.23886308
70	0xbbd5aef5	-0.0065211006
71	0xbe498b66	-0.19682083
72	0x3ecb5560	0.39713573
73	0x3ecf7b7a	0.40523893
74	0xbd9ec468	-0.07752305
75	0x3f44ebf3	0.7692253
76	0x3ce70cd0	0.028204352
77	0xbe3658bb	-0.17807285
78	0xbdf9fdaa	-0.12206586
79	0x3eb6f5d6	0.35734433
80	0xbe2c0463	-0.16798548
81	0x3e1fa458	0.15590036
82	0xbf0337cd	-0.5125702
83	0x3ecc24f3	0.3987194
84	0x3e8a7fc4	0.27050602
85	0xbd4bb4f3	-0.049733113
86	0x3f1fc526	0.624102
87	0x3eb73145	0.35779777
88	0x3e8b87d3	0.27252063
89	0x3ba6f168	0.005094696
90	0x3f2f7045	0.68530685
91	0x3dc9ebc6	0.09859423
92	0xbe955859	-0.29168966
93	0x3d0b8738	0.0340645
94	0xbdbe2dc2	-0.09286071
95	0x3ea923b7	0.3303506
96	0x3e696949	0.2279407
97	0xbe8a3219	-0.26991346
98	0x3db05dfa	0.086116746
99	0x3e043b98	0.12913358
100	0xbf02649b	-0.5093476
101	0x3f15e1f5	0.5854791
102	0x3ed1c2b3	0.40968856
103	0x3f054c36	0.52069414
104	0x3efeb86c	0.49750078
105	0x3e559ab1	0.20859791
106	0x3e2a115f	0.16608189
107	0x2cbbe5fb	5.3403926e-12
108	0xbdc28948	-0.094988406
109	0xbd1a0050	-0.037597954
110	0x3f062cc5	0.5241206
111	0xbf046197	-0.5171141
112	0x3e6a6aa6	0.22892246
113	0xbb95e0f6	-0.0045739366
114	0xbeb942fd	-0.3618392
115	0xbc6df3c5	-0.014523451
116	0x3e90ce9a	0.28282624
117	0x3df9c008	0.1219483
118	0xbd35baa0	-0.044367433
119	0x3e4b4ddd	0.19853921
120	0xba74f9aa	-0.0009345064
121	0x3e24f1b8	0.16107833
122	0xbe334403	-0.17506413
123	0xbed677e4	-0.41888344
124	0x3eeb2444	0.45926106
125	0xbeca4214	-0.3950354
126	0x3e79b9ea	0.24387327
127	0xbe28cff5	-0.1648558
128	0x3d6c429f	0.057680722
129	0x3e275cb1	0.16343953
130	0xbee54a1c	-0.44783103
131	0xbed6621d	-0.4187173
132	0xbc3ef047	-0.011653966
133	0xbe719cea	-0.23595014
134	0xbdc41ad6	-0.09575431
135	0x3ed08b74	0.40731394
136	0xbedaa960	-0.42707348
137	0x3e38a05b	0.18029921
138	0x3ee530cc	0.44763792
139	0x3d40b980	0.047051907
140	0x3f2a9fa9	0.6664987
141	0x3eaaf9e2	0.3339377
142	0x3eeda3cd	0.46414033
143	0x3d808feb	0.0627745
144	0xbf264af2	-0.6495811
145	0x3e49a08e	0.19690153
146	0xbe3448ec	-0.17605942
147	0xbe9df2f2	-0.30849415
148	0xbcbb50f5	-0.022865752
149	0x3e144511	0.14479472
150	0x3cbd8dc7	0.023138894
151	0x3e6054c4	0.21907336
152	0x3f2e12d6	0.6799749
153	0x3caffd58	0.021483108
154	0xbf0fc919	-0.56166226
155	0x3e494664	0.19655758
156	0x3ec34d90	0.38145113
157	0xbe4ae2cd	-0.1981308
158	0x3f1911c5	0.5979274
159	0xbaa44442	-0.001253255
160	0x3c9be412	0.01902965
161	0xbed7f867	-0.42181703
162	0xbe6ef3cc	-0.23335189
163	0xbe33122f	-0.17487405
164	0xbe1ce07c	-0.15320009
165	0xbefb6f22	-0.49108225
166	0x3dfe4ecc	0.12417373
167	0x3f2e9953	0.68202704
168	0x3f27262e	0.6529263
169	0x3f13bcd5	0.5771001
170	0xbd0a6418	-0.033786863
171	0xbe9c8bff	-0.3057556
172	0x3dbc3f54	0.091917664
173	0xbeba5134	-0.36390078
174	0x3f09e8a3	0.538706
175	0xbe889ac7	-0.26680586
176	0xbe03dac6	-0.12876424
177	0xbe99fcfb	-0.3007582
178	0xbf29fc94	-0.6640103
179	0xbc4c7281	-0.012478472
180	0x3ee20a07	0.44148275
181	0x3f363466	0.71173704
182	0xbc0f4830	-0.008745238
183	0xbe1a2d61	-0.15056373
184	0x3ec500a5	0.38477054
185	0x3e2f495a	0.17117825
186	0x3e3776bc	0.17916387
187	0x3e223a30	0.1584251
188	0x3eab92aa	0.33510333
189	0x3ea3c97c	0.31989658
190	0xbf106220	-0.56399727
191	0xbe0bc233	-0.136483
192	0x3ed58e33	0.41710052
193	0x3e9e8289	0.30958965
194	0xbc103b97	-0.00880327
195	0xbf205df2	-0.6264335
196	0xbe82fa84	-0.25581753
197	0xbec56a1b	-0.38557515
198	0xbebaa7bd	-0.364561
199	0x3e71271b	0.23550074
200	0x3eedda0b	0.46455416
201	0xbe8ff478	-0.28116202
202	0x3dee565c	0.116375655
203	0xbea03897	-0.31293175
204	0x3ee5e58b	0.4490169
205	0xbbfcbee4	-0.0077131856
206	0xbe914b60	-0.2837782
207	0xbe3d6c50	-0.18498349
208	0xba9ab669	-0.001180363
209	0x3eda4d89	0.4263728
210	0xbeb4b356	-0.35293072
211	0xbe518fbd	-0.20464988
212	0x376a04b8	1.3948586e-05
213	0x3f14148e	0.57843864
214	0x3c362cc4	0.011119071
215	0xbec5eb2e	-0.3865599
216	0x3f126719	0.57188565
217	0x3ec3c339	0.3823488
218	0xbe3edccc	-0.18638915
219	0x3ebd1f8c	0.3693813
220	0xbd9e874c	-0.077406496
221	0x3e4e62a4	0.20154816
222	0xbebe5d25	-0.3718044
223	0x3d8a0e5f	0.06741022
224	0xbb546740	-0.0032410175
225	0x3da270fd	0.07931707
226	0x3f508341	0.8145028
227	0x3c55aa0f	0.013041033
228	0x3eefd06c	0.468387
229	0x3e88dcfa	0.26731092
230	0xbeeabb8c	-0.45846212
231	0xbedc995e	-0.4308576
232	0xbec3dc86	-0.38254184
233	0x3deb103a	0.11477704
234	0xbed2c178	-0.4116323
235	0x3f19d8e0	0.6009655
236	0xbec48595	-0.38383165
237	0xbdd1e6b9	-0.10249085
238	0x3d474a17	0.048654642
239	0xbd4484b2	-0.04797811
240	0x3e3890f8	0.18024051
241	0x3e71075e	0.23537967
242	0x3f36eb4e	0.71452796
243	0xbbc5a022	-0.006031052
244	0xbc53818b	-0.012909303
245	0x3db1e7d1	0.086867936
246	0xbaf932cc	-0.0019012331
247	0x3eafcc04	0.3433534
248	0xbf21a40a	-0.6314093
249	0xbdc2496e	-0.09486662
250	0xbca9dbcf	-0.020734696
251	0x3f2d1c9c	0.6762178
252	0xbd8e7916	-0.06956689
253	0xbd8d1395	-0.068885006
254	0xbea216fb	-0.31658158
255	0x3e2216ff	0.15829085

fc3.bias f4 [10]
0	0x3be21908	0.0068999566
1	0x3dbeaef5	0.09310714
2	0x3f0b4abc	0.5441091
3	0x3f148a74	0.5802376
4	0x3f2f54e7	0.68488926
5	0xba9a7de9	-0.0011786792
6	0xbb811f23	-0.0039404794
7	0x3e33f670	0.17574477
8	0xbb0c8c24	-0.0021445835
9	0x3f93727c	1.1519313

fc4.weight f4 [7, 10]
0	0x3e280a2b	0.16410129
1	0x3f5ed7a4	0.8704779
2	0xbf89fee3	-1.078091
3	0x401e3549	2.4720023
4	0x3eed7110	0.46375322
5	0xbb0f53bf	-0.0021869985
6	0x3bef67a0	0.0073060542
7	0xc014a73d	-2.3227074
8	0x3b0d85ea	0.0021594712
9	0xbfef17fc	-1.8679194
10	0xc01b899e	-2.4302745
11	0x4027c5e5	2.6214535
12	0xbfab5514	-1.3385339
13	0xbf8680e5	-1.0508085
14	0x3ea4d9c1	0.32197383
15	0xbba6229d	-0.005070044
16	0x3c0488c7	0.008089251
17	0x3f77f40b	0.96856755
18	0x3923d93c	0.00015625817
19	0x3f0000ab	0.5000102
20	0x400c28cd	2.1899903
21	0x3f01626e	0.50540817
22	0xbf09b34a	-0.537892
23	0x3caaa630	0.020831198
24	0xc04a6eaf	-3.1630056
25	0x3aba9a95	0.0014236743
26	0xbc5ed8d6	-0.013601502
27	0x3f9f36b8	1.2438574
28	0xbad1268e	-0.0015956925
29	0xbe808b04	-0.2510606
30	0x3fc059f8	1.5027456
31	0x3f6c0355	0.92192584
32	0x3ffd6e9f	1.9799384
33	0xc01c96a2	-2.446694
34	0x3f881421	1.0631143
35	0xba79ef17	-0.00095342234
36	0xbaef79d9	-0.0018270566
37	0xbffab221	-1.9585611
38	0xb857aded	-5.1421976e-05
39	0x3eb4b72d	0.35296002
40	0x3f7b1673	0.9808113
41	0xbfe69f6d	-1.8017403
42	0xbf28bfb6	-0.6591753
43	0xbf44ca1f	-0.7687091
44	0x3fdb2dbc	1.7123332
45	0x3a42f5d0	0.00074371416
46	0xba566576	-0.0008178571
47	0x3ffc1de2	1.969662
48	0xbbfb4638	-0.007668283
49	0xbfd19815	-1.6374537
50	0xbff987a6	-1.9494522
51	0xbf82dd7b	-1.022384
52	0x404012b7	3.0011423
53	0x3fc24236	1.5176456
54	0xbf43aeee	-0.76438797
55	0x3c4710e2	0.012150021
56	0x3ae3e2cd	0.0017386317
57	0x3f8b37ee	1.0876443
58	0x3b1eb28f	0.0024215316
59	0xbea5fe32	-0.32420498
60	0xbeee2a4f	-0.46516654
61	0xc00502ea	-2.0783029
62	0xbfad5f85	-1.3544775
63	0x3e6a5ca4	0.22886902
64	0x3edb5d9e	0.42844862
65	0xbba09b83	-0.004901351
66	0xb94f3add	-0.00019762987
67	0xbf784de1	-0.96993834
68	0x3a93caf3	0.0011275694
69	0x404ee709	3.2328513

fc4.bias f4 [7]
0	0xbd8a1a32	-0.067432776
1	0x3d180a19	0.037119005
2	0xbdb8ce9d	-0.09023783
3	0xbd6d663b	-0.057958823
4	0xbd975aaf	-0.073903434
5	0x3c655c20	0.013999015
6	0x3e75a682	0.23989299
