mediapipe_facial_model_training/mediapipe_facial_model.pth (torch, 106406 bytes, 20 tensors)

fc1.weight f4 [200, 11]
-0.13064294 0.5283262 -0.89347667 -0.19295543 -0.7067123 0.051759984 -0.52252924 -0.33539805
-0.17542112 -0.16933055 0.6321298 0.65311986 -0.15670852 -0.87022233 0.53534764 0.04102384
-0.451124 0.06624649 0.4953975 -0.58425456 -0.01527307 0.77439064 1.0140605 -0.45675987
-0.55022305 -0.10955914 0.05724121 0.20289996 0.6758178 -0.20837776 0.53148973 0.1291828
-0.6907207 -0.067774855 -0.075025864 0.35113174 -0.9403623 -0.28101504 0.75823975 0.12498509
-0.15872823 -0.2791321 -0.32172328 0.845411 1.3795333 -0.38763466 0.039211657 -0.077329256
1.2273955 0.09342518 -0.22117229 -0.3499969 -0.060820214 -0.06876859 0.10661012 0.514402
0.21317713 -0.43469125 -1.1244812 0.0134573225 0.32185867 -0.5051026 -0.13205588 0.10922851
0.21656233 -0.83652407 0.33216506 -0.73156154 0.49042243 -0.03377466 0.85443676 -0.38032204
0.45038188 0.5443849 0.5322171 0.0029847918 -0.360227 0.50761116 1.2432017 -0.36888784
-0.51305985 -0.64510614 -0.24388821 0.43538722 0.06203413 -0.21299662 0.0030024203 -0.09462959
0.7254867 -0.3420634 0.1874357 -0.14477558 1.2843221 0.14785081 0.28451487 -0.3632986
-0.23255727 -0.38661224 0.10862038 0.083529584 0.30630496 0.307341 0.033713702 -0.32723254
-1.1993964 -0.8759256 0.29838336 -0.5409661 0.1983013 -0.18506579 -0.49173632 -0.18432865
0.34171578 -1.1508727 -0.27160642 0.3724147 -0.58708924 -0.4278596 0.3619611 -0.1415358
-0.26775637 0.7849641 -0.40410542 -0.23998423 0.47122025 0.4659061 -0.42223796 0.6983614
0.89477783 -0.21247062 -0.07198287 0.2742679 -0.4983565 -0.16897312 1.0248808 -0.551325
-0.09429385 0.33532774 0.32635137 0.5551394 0.8269306 0.016509512 0.06763782 -0.6101383
0.107321896 1.0932796 0.008818336 0.10978789 -0.037817992 -0.24087489 -0.94434994 -0.15425436
-0.08067906 -0.5152609 -0.5385392 -0.29712272 0.70590323 -0.8258593 0.4811669 0.14644732
-0.4015054 0.12767898 -0.5511969 -0.11442173 0.6412431 0.34170073 0.4114976 -0.8652566
-0.2036849 -0.003323383 -0.17621697 -0.2929857 -0.7644247 0.49473268 0.17402151 -0.15434164
-0.10613436 -0.5115735 0.26310405 -0.17396674 -1.6231834 0.19415863 0.5735606 0.3449501
-0.19446586 -0.07692702 0.78487486 -0.8672192 0.6488312 -0.47162777 0.30223435 0.095527664
0.7590447 0.45369586 -0.041564975 0.4905125 0.0037022876 -0.12763186 0.7626834 -0.7244745
0.21022551 0.43724668 0.5046335 -0.4793602 -0.38726464 -0.6762693 -0.3502988 0.19847699
-0.3661363 -0.47603244 -0.18640426 -0.4492836 -0.28063276 0.46501708 -0.31794655 -0.8564935
1.0439043 -0.13947675 0.17490427 -0.51056564 -0.76923203 -0.6738146 0.73092955 0.58831733
0.043271966 -0.27959675 -0.41141367 0.44381502 -0.5329401 -0.0761381 0.51318395 1.0126944
0.13007443 -0.33633816 0.43239072 -0.8156154 -0.8479294 -0.19817281 0.38263017 0.33641043
0.111777626 -0.16655056 0.23820242 0.044738565 -0.36041647 0.518073 -0.39806178 -0.4795499
-0.13830705 -0.70591986 -0.002796791 0.047388136 -1.3588704 -0.9953416 -0.42020085 0.63767326
00000000: 43c7 05be 6340 073f e3ba 64bf 1c96 45be
00000010: 19eb 34bf 4702 543d 7ac4 05bf 4bb9 abbe
00000020: 98a1 33be fd64 2dbe 42d3 213f dd32 273f
00000030: 3378 20be e4c6 5ebf 8b0c 093f 9d08 283d
00000040: baf9 e6be 3dac 873d bea4 fd3e b591 15bf
00000050: e63b 7abc 773e 463f bccc 813f 6edc e9be
00000060: 6bdb 0cbf 8b60 e0bd c275 6a3d 02c5 4f3e
00000070: 6502 2d3f fb60 55be b60f 083f 7f48 043e
00000080: 12d3 30bf 8bcd 8abd 29a7 99bd 8ac7 b33e
00000090: 95bb 70bf 34e1 8fbe 001c 423f 2ff8 ff3d
000000a0: a789 22be 67ea 8ebe eab8 a4be db6c 583f
000000b0: 8c94 b03f 0d78 c6be 679c 203d cd5e 9ebd
000000c0: 4c1b 9d3f b355 bf3d fd7a 62be cb32 b3be
000000d0: 9e1e 79bd 8cd6 8cbd 6856 da3d d9af 033f
000000e0: 1b4b 5a3e da8f debe 00ef 8fbf 1a7c 5c3c
000000f0: a9ca a43e 674e 01bf a839 07be 32b3 df3d
00000100: 84c2 5d3e 7126 56bf 8a11 aa3e 9e47 3bbf
00000110: a618 fb3e 4c57 0abd 5ebc 5a3f 92b9 c2be
00000120: 7498 e63e cf5c 0b3f 613f 083f 7f9c 433b
00000130: ac6f b8be cef2 013f 3c21 9f3f dede bcbe
00000140: e457 03bf ad25 25bf d5bd 79be 13eb de3e
00000150: 8017 7e3d c91b 5abe 41c4 443b 29cd c1bd
00000160: 7fb9 393f ef22 afbe 25ef 3f3e 0d40 14be
00000170: ab64 a43f 3466 173e efab 913e 4602 babe
00000180: 7e23 6ebe 0af2 c5be 5d74 de3d 8f11 ab3d
00000190: 01d4 9c3e cd5b 9d3e 6117 0a3d 068b a7be
000001a0: d285 99bf a93c 60bf b4c5 983e c17c 0abf
000001b0: 7f0f 4b3e e381 3dbe ddc4 fbbe a6c0 3cbe
000001c0: 5ff5 ae3e cc4f 93bf ff0f 8bbe 24ad be3e
000001d0: 7b4b 16bf 6a10 dbbe f752 b93e c3ee 10be
000001e0: 5d17 89be 68f3 483f e8e6 cebe 6dbe 75be
000001f0: c843 f13e 3f8b ee3e 932f d8be d0c7 323f
00000200: 2910 653f e691 59be c16b 93bd d86c 8c3e
00000210: 9528 ffbe 4a07 2dbe 4b2f 833f a323 0dbf
00000220: 221d c1bd 14b0 ab3e 8717 a73e 9e1d 0e3f
00000230: b9b1 533f f53e 873c b385 8a3d 0632 1cbf
00000240: 95cb db3d 96f0 8b3f c87a 103c 79d8 e03d
00000250: 0ae7 1abd e8a7 76be ebc0 71bf dbf4 1dbe
00000260: 103b a5bd 23e8 03bf b4dd 09bf 7820 98be
00000270: 13b6 343f 846b 53bf 825b f63e 49f6 153e
00000280: 1e92 cdbe 47be 023e 3d1b 0dbf f155 eabd
00000290: 8228 243f 66f3 ae3e d0af d23e 7581 5dbf
000002a0: c692 50be 1dcd 59bb 3972 34be 3902 96be
000002b0: 56b1 43bf 9a4d fd3e b232 323e bc0b 1ebe
000002c0: f95c d9bd 7bf6 02bf 93b5 863e 5624 32be
000002d0: 79c4 cfbf 85d1 463e ded4 123f 4d9d b03e
000002e0: 0f22 47be ea8b 9dbd 8fed 483f 1402 5ebf
000002f0: cd19 263f 3279 f1be 76be 9a3e 02a4 c33d
00000300: c150 423f d34a e83e 0940 2abd 7424 fb3e
00000310: 14a2 723b edb1 02be 383f 433f 2977 39bf
00000320: 5b45 573e ccde df3e a92f 013f b36e f5be
00000330: 8d47 c6be fc1f 2dbf 5d5a b3be 8d3d 4b3e
00000340: 3876 bbbe 86ba f3be c2e0 3ebe 8008 e6be
00000350: 19af 8fbe b816 ee3e e4c9 a2be 2843 5bbf
00000360: a89e 853f fed2 0ebe 1b1a 333e 6eb4 02bf
00000370: 64ec 44bf 1d7f 2cbf 331e 3b3f f79b 163f
00000380: f23d 313d 4e27 8fbe d0a4 d2be b93b e33e
00000390: c36e 08bf 4bee 9bbd 0660 033f f89f 813f
000003a0: 3b32 053e 8434 acbe 5162 dd3e 2ccc 50bf
000003b0: e711 59bf d0ed 4abe 1ae8 c33e fd3d ac3e
000003c0: abeb e43d 3b8c 2abe 56eb 733e c93f 373d
000003d0: 8288 b8be 6fa0 043f c1ce cbbe 9187 f5be
000003e0: 5da0 0dbe 2ab7 34bf 5e4a 37bb 101a 423d
000003f0: 77ef adbf b5ce 7ebf 9124 d7be 8e3e 233f

fc1.bias f4 [200]
-0.17719838 -0.11720061 -0.4164339 0.23334068 -0.099439666 0.27008328 -0.22072965 0.09805247
-0.19816136 0.09317507 0.2600704 0.20312782 -0.2958808 -0.19386941 -0.053013396 0.22093478
0.11160718 0.010456497 -0.05316655 0.29666534 -0.2121863 0.04184137 -0.10465599 0.18306711
0.25819352 0.120139405 0.19856729 -0.1507018 -0.23136313 -0.009794456 -0.080711074 0.12708703
-0.22354245 0.19246595 -0.027699646 -0.27030867 -0.0058675134 -0.0034011938 -0.18720362 0.11228165
-0.13116008 -0.24909233 0.24657202 -0.14952768 -0.1793516 0.07223924 0.30285707 -0.37923095
-0.11343851 0.16596107 0.15226589 0.20589986 0.35086927 0.07659231 0.0742738 -0.22917554
0.022895616 -0.21565668 -0.07412495 -0.09319505 0.0010722899 -0.28020075 0.1605153 0.036322705
-0.2799537 0.13131723 -0.121190555 0.16968417 0.22368109 -0.14547303 0.08161895 0.19799586
-0.30634633 0.047183685 -0.18615192 -0.26772457 -0.12527435 0.06428084 0.070025355 -0.18891211
0.18059295 -0.021649018 -0.27122146 0.053719554 0.23320019 -0.30350223 0.20796227 -0.12709633
-0.11486576 0.16471268 0.25088644 0.06334484 -0.24329054 -0.2428825 -0.14651462 0.30691233
0.27484724 -0.32837194 -0.20235473 -0.13051094 0.03363817 0.15925308 -0.28549194 -0.1205607
-0.107387796 0.010847126 0.013105236 0.15660326 0.24264011 0.06228955 0.24620797 -0.18155503
-0.12177116 0.26959252 0.20500812 -0.34250107 0.053028245 -0.16111201 -0.30178759 -0.24850428
-0.26713863 -0.1840142 0.015682982 0.14886738 0.16556533 0.1965385 0.27130568 0.15475015
-0.007393119 0.047238376 0.12912515 -0.0045470293 0.21701476 0.21747851 -0.2727236 0.30189964
-0.24479198 -0.11772549 -0.055318657 0.23191746 -0.054448325 0.070088826 -0.07340475 -0.10405428
0.06256706 0.27771133 0.26120734 -0.068299025 -0.14535587 0.10721092 -0.10034359 0.14157492
-0.2118354 -0.32332397 -0.12855062 0.2501396 -0.22658563 0.30945393 -0.12353386 0.14523228
-0.3437805 -0.20602365 -0.31374905 -0.1786584 -0.017549612 0.3124099 0.2683233 0.34717306
-0.07409556 -0.13929358 -0.105065554 -0.018908266 -0.19995043 -0.20884976 -0.2851877 0.27576804
0.0033957467 -0.22968742 -0.15909922 0.1170572 -0.12907587 -0.13566206 0.005711569 0.06640855
-0.258474 -0.20855582 0.06711426 -0.2368029 -0.24351592 -0.21154793 0.2433256 -0.18931007
0.14438754 -0.2769003 -0.05864365 -0.010023133 -0.26241505 -0.34254357 -0.011960666 -0.12595735
00000000: 7e73 35be e006 f0bd d336 d5be dcf0 6e3e
00000010: 06a7 cbbd 5b48 8a3e f406 62be bccf c83d
00000020: d0ea 4abe 92d2 be3d f327 853e bd00 503e
00000030: b07d 97be b485 46be 9324 59bd ba3c 623e
00000040: 4e92 e43d ba51 2b3c 2bc5 59bd 85e4 973e
00000050: 5e47 59be db61 2b3d e155 d6bd f275 3b3e
00000060: f131 843e a60b f63d 3955 4b3e 9351 1abe
00000070: 75ea 6cbe ed78 20bc d94b a5bd 1a23 023e
00000080: 50e8 64be cb15 453e 5eea e2bc e665 8abe
00000090: 4544 c0bb 90e6 5ebb 4eb2 3fbe ecf3 e53d
000000a0: d44e 06be 0f12 7fbe 607d 7c3e c91d 19be
000000b0: f2a7 37be 2bf2 933d 1510 9b3e 8f2a c2be
000000c0: 7352 e8bd b3f1 293e 97eb 1b3e 6ad7 523e
000000d0: 23a5 b33e 6edc 9c3d dd1c 983d feac 6abe
000000e0: 968f bb3c 1bd5 5cbe d2ce 97bd 0cdd bebd
000000f0: 148c 8c3a 7976 8fbe 1f5e 243e 1ec7 143d
00000100: 1756 8fbe 0678 063e c132 f8bd b0c1 2d3e
00000110: a80c 653e e2f6 14be d627 a73d 6dbf 4a3e
00000120: 6dd9 9cbe ae43 413d 9c9e 3ebe 3213 89be
00000130: eb47 00be aca5 833d 7469 8f3d 2d72 41be
00000140: 5ced 383e 4859 b1bc 8add 8abe 0909 5c3d
00000150: 08cc 6e3e a564 9bbe 10f4 543e 8a25 02be
00000160: bd3e ebbd 71aa 283e 3074 803e f1ba 813d
00000170: 2821 79be 31b6 78be ee07 16be 9d23 9d3e
00000180: c7b8 8c3e 5e20 a8be 1436 4fbe a9a4 05be
00000190: 2ec8 093d 3d13 233e 002c 92be 87e8 f6bd
000001a0: 22ee dbbd 25b8 313c 58b7 563c 9b5c 203e
000001b0: a676 783e 5423 7f3d f11d 7c3e 90e9 39be
000001c0: 2863 f9bd 0808 8a3e a6ed 513e 4d5c afbe
000001d0: 2534 593d 8cfa 24be e783 9abe e877 7ebe
000001e0: 65c6 88be 386e 3cbe 9979 803c b170 183e
000001f0: f589 293e 6341 493e 94e8 8a3e d376 1e3e
00000200: fa41 f2bb 077d 413d 6239 043e 3fff 94bb
00000210: 1e39 5e3e b0b2 5e3e 6da2 8bbe 9792 9a3e
00000220: c0aa 7abe 101a f1bd d195 62bd c57b 6d3e
00000230: 3505 5fbd bb8a 8f3d 3b55 96bd 691a d5bd
00000240: 2923 803d 2e30 8e3e f8bc 853e 5ce0 8bbd
00000250: 2bd8 14be 6691 db3d f180 cdbd 04f9 103e
00000260: 61eb 58be b88a a5be c6a2 03be 4c12 803e
00000270: 1006 68be bf70 9e3e 52ff fcbd c5b7 143e
00000280: ff03 b0be ddf7 52be b7a3 a0be 3af2 36be
00000290: 34c4 8fbc 31f4 9f3e ac61 893e abc0 b13e
000002a0: 6abf 97bd faa2 0ebe 9c2c d7bd 82e5 9abc
000002b0: cebf 4cbe b6dc 55be 1f04 92be 7831 8d3e
000002c0: 2d8b 5e3b 2e33 6bbe e8ea 22be afbb ef3d
000002d0: 772c 04be ffea 0abe 1d28 bb3b 3501 883d
000002e0: b456 84be a88f 55be 3373 893d 767c 72be
000002f0: 3d5c 79be 05a0 58be 592a 793e 80da 41be
00000300: 54da 133e e0c5 8dbe 5334 70bd 1138 24bc
00000310: 445b 86be df61 afbe abf6 43bc f7fa 00be

bn1.weight f4 [200]
9.330374 4.9274564 10.860635 10.434046 7.182089 8.716507 12.592363 14.516525
10.734896 14.129197 10.677359 17.578812 8.09825 9.401274 12.243556 2.3750024
14.554531 8.8595495 10.567454 8.821275 10.953781 14.597244 1.0721176 12.150115
7.5330677 8.351779 9.731242 19.273125 11.866345 12.361801 5.234026 4.6235514
6.3961496 8.492173 14.920945 5.283859 17.513332 13.796309 4.153119 2.5027034
3.608639 10.176821 6.623147 10.17612 7.563188 12.537938 8.41156 14.459104
10.042426 9.618299 7.0104413 0.91965175 13.281351 1.6897821 6.675991 14.459765
5.849234 6.836976 5.721715 10.835117 7.737275 5.5257025 15.508783 11.17533
13.733513 11.864426 6.1767063 8.077873 11.637564 2.6135008 8.741285 10.220871
12.097976 15.766736 8.5482435 7.940379 14.176624 8.529791 14.30229 5.74405
19.789799 10.566436 6.5536637 11.218954 12.9947 2.500155 9.349184 6.7340026
19.780441 15.645241 8.0318165 16.56187 12.982285 4.2156167 2.8065844 7.3079224
4.273926 7.835918 14.67917 5.975195 6.791283 2.6099098 6.0194254 11.772643
11.220994 12.091958 11.149618 8.222189 5.426335 11.473177 5.434611 8.194715
5.2775064 17.402967 14.507839 8.374888 5.948071 11.711224 11.5470495 5.601259
11.338587 8.559363 7.8121004 5.6211205 14.473554 8.002915 1.6564318 10.44633
8.866674 6.737854 3.779619 8.256524 13.681748 1.9308639 6.787935 5.6832714
9.424578 15.747459 3.413995 11.733469 6.9441557 1.6482366 9.86993 5.6946263
8.873279 11.343562 7.9409523 11.060049 4.6722717 13.009507 4.0614305 11.117987
0.6979384 9.992753 10.917893 12.3302145 5.6122317 12.415665 12.357567 6.850637
11.10204 19.164082 11.2119 5.8051105 12.0799465 11.927911 14.821681 7.2063966
2.541898 8.240144 1.1511217 4.0104713 7.7679133 16.54807 11.463728 0.6975563
1.3816358 10.788699 6.997306 7.538793 14.683008 11.785797 5.1893497 10.344969
11.9910345 11.8819065 0.7385452 8.661848 12.050749 7.9032664 11.357279 4.3849387
2.620439 5.8919187 8.445169 12.457585 13.752881 10.911109 11.940025 6.6036596
00000000: 3649 1541 b9ad 9d40 29c5 2d41 daf1 2641
00000010: acd3 e540 d076 0b41 527a 4941 b043 6841
00000020: 22c2 2b41 3111 6241 76d6 2a41 68a1 8c41
00000030: 6f92 0141 9e6b 1641 9be5 4341 0a00 1840
00000040: 5cdf 6841 b7c0 0d41 4b14 2941 f123 0d41
00000050: b042 2f41 508e 6941 263b 893f df66 4241
00000060: e40e f140 e3a0 0541 2bb3 1b41 5c2f 9a41
00000070: 8ddc 3d41 f0c9 4541 247d a740 22f4 9340
00000080: 42ad cc40 f1df 0741 31bc 6e41 5f15 a940
00000090: 4e1b 8c41 afbd 5c41 5ae6 8440 4b2c 2040
000000a0: f1f3 6640 42d4 2241 d2f0 d340 63d1 2241
000000b0: a305 f240 659b 4841 c095 0641 7d58 6741
000000c0: c7ad 2041 8de4 1941 8955 e040 4c6e 6b3f
000000d0: 6a80 5441 c84a d83f b8a1 d540 335b 6741
000000e0: ed2c bb40 82c8 da40 4a18 b740 a45c 2d41
000000f0: c297 f740 8ed2 b040 fa23 7841 27ce 3241
00000100: 78bc 5b41 b0d4 3d41 94a7 c540 f83e 0141
00000110: 7633 3a41 9943 2740 4edc 0b41 b088 2341
00000120: 4f91 4141 8d44 7c41 9bc5 0841 9617 fe40
00000130: 74d3 6241 067a 0841 2ed6 6441 42cf b740
00000140: 8251 9e41 1f10 2941 9db7 d140 d680 3341
00000150: 4bea 4f41 8a02 2040 4296 1541 f37c d740
00000160: 583e 9e41 e852 7a41 5282 0041 b67e 8441
00000170: 70b7 4f41 55e6 8640 149f 3340 80da e940
00000180: 00c4 8840 d7bf fa40 e1dd 6a41 cc34 bf40
00000190: 3152 d940 c308 2740 229f c040 bf5c 3c41
000001a0: 3189 3341 a978 4141 d664 3241 168e 0341
000001b0: 89a4 ad40 2292 3741 55e8 ad40 8d1d 0341
000001c0: 55e1 a840 4739 8b41 1c20 6841 8bff 0541
000001d0: 9956 be40 2c61 3b41 b7c0 3841 843d b340
000001e0: da6a 3541 27f3 0841 bafc f940 38e0 b340
000001f0: ad93 6741 f10b 0041 f505 d43f 2b24 2741
00000200: e6dd 0d41 809c d740 47e5 7140 b91a 0441
00000210: 71e8 5a41 8c26 f73f c336 d940 5cdd b540
00000220: 12cb 1641 98f5 7b41 e57e 5a40 4abc 3b41
00000230: 8636 de40 6bf9 d23f 3ceb 1d41 613a b640
00000240: f3f8 0d41 3b7f 3541 481c fe40 f6f5 3041
00000250: 4083 9540 f126 5041 3df7 8140 46e3 3141
00000260: 17ac 323f 51e2 1f41 b1af 2e41 8f48 4541
00000270: 6797 b340 90a6 4641 98b8 4541 6b38 db40
00000280: f5a1 3141 0a50 9941 f163 3341 77c3 b940
00000290: 7647 4141 b9d8 3e41 9b25 6d41 cd9a e640
000002a0: 75ae 2240 a1d7 0341 f557 933f c855 8040
000002b0: bf92 f840 7362 8441 6e6b 3741 0d93 323f
000002c0: 71d9 b03f 839e 2c41 eee9 df40 cb3d f140
000002d0: 9aed 6a41 a092 3c41 270f a640 fe84 2541
000002e0: 47db 3f41 4a1c 3e41 4c11 3d3f ee96 0a41
000002f0: decf 4041 8fe7 fc40 6ab7 3541 6b51 8c40
00000300: 46b5 2740 998a bc40 6a1f 0741 4552 4741
00000310: cd0b 5c41 e793 2e41 580a 3f41 2e51 d340

bn1.bias f4 [200]
-2.2092307 2.2045085 -0.45321885 -2.055088 1.9176159 1.9469006 -1.2545685 -1.0469936
1.1437671 0.63867956 1.3081422 -0.60635227 -3.0547001 -2.1615896 -0.8263 1.4308968
-1.0098614 2.0878444 -1.4937055 1.638574 -1.0076674 -1.1366276 -0.15250252 -1.1351501
1.9218341 1.9994416 1.4833972 0.0019313748 -0.2986088 -0.062380802 2.6044762 2.3674164
2.2046006 2.4039607 -1.3110685 1.859333 0.019435905 0.5512947 -2.143063 -1.4995724
1.270996 -1.6907815 -1.9639319 1.5870693 2.259007 0.030356742 -2.140899 -0.50965405
1.4655055 -1.5418141 1.8649584 0.483934 0.83602256 -1.7136099 -1.9157928 -0.35871175
-2.5576026 2.177205 2.2177224 1.7853572 -0.88848126 2.3742402 0.0068515106 -0.9854946
0.8177013 0.3244552 -1.8367047 1.3495889 0.31505412 1.1579069 1.6251585 1.1302434
1.4686952 -0.09461771 -1.1890078 2.1473882 0.6945012 -1.9414803 -0.9574068 -2.3909454
0.9297156 1.0471947 2.3828175 0.6601452 -1.0379893 1.2409875 -2.1071687 -2.4905696
-0.07274609 0.6087875 2.0079577 -0.018497378 0.23696838 3.3417826 1.3666346 3.0679734
-2.2601333 2.1031735 0.4681733 -2.0081682 -1.9675347 -1.8055887 3.104162 0.75676936
-0.9310979 -0.74203426 1.2702773 2.1226616 -2.8328679 -1.4491026 1.8057026 2.2270749
-1.8185573 -0.72907335 -1.7729819 -1.928784 2.6561027 -1.0410342 0.20902337 2.5458853
-0.91753155 1.5723166 -2.247813 2.9289615 0.097931504 2.0433016 0.80271775 -1.3065466
2.0748699 -2.6746094 -0.31517354 -1.7809316 -1.7521015 -0.5269638 2.4965725 -2.7107835
1.3054386 -1.1403166 -2.4138074 0.17141125 2.3268914 -0.97688705 -1.5904567 2.7149544
1.7636722 1.2482165 -1.0165213 -0.5202689 2.4020805 -1.1693722 -2.4241967 -0.9894033
-0.16013175 -1.3167022 1.3257434 -1.2439163 -2.8167884 0.8820626 0.13683231 -1.9278561
0.5995344 0.05059131 -1.487115 2.42358 1.3192259 -1.0910355 0.0771323 1.8424436
-1.8133395 -1.6852177 -0.4251681 2.5988307 2.3901322 -0.20964116 0.29338205 0.15985684
-0.57196546 -0.56993586 -1.6589042 -2.4614518 -0.9526629 0.8024177 -3.3838403 0.9538631
0.751636 -1.3008738 -0.16564071 2.0596433 1.0899863 2.0118768 1.1973132 -0.68636763
-2.4391503 -3.2611418 2.1695805 0.10931448 -1.0005404 -0.29714668 -0.5939421 -1.8128539
00000000: 0964 0dc0 ab16 0d40 4d0c e8be 9086 03c0
00000010: 7074 f53f 0a34 f93f b395 a0bf e303 86bf
00000020: f666 923f 8180 233f 3471 a73f e739 1bbf
00000030: 3580 43c0 7c57 0ac0 6688 53bf a027 b73f
00000040: 2343 81bf 3e9f 0540 be31 bfbf cbbc d13f
00000050: 3ffb 80bf 037d 91bf 9f29 1cbe 994c 91bf
00000060: a9fe f53f b4ed ff3f f6df bd3f 2f26 fd3a
00000070: 41e3 98be 0383 7fbd bdaf 2640 c083 1740
00000080: 2d18 0d40 7eda 1940 18d1 a7bf a0fe ed3f
00000090: 0c38 9f3c a621 0d3f f227 09c0 fdf1 bfbf
000000a0: ffaf a23f 876b d8bf 1f62 fbbf 1625 cb3f
000000b0: 9293 1040 b4ae f83c 7d04 09c0 b078 02bf
000000c0: af95 bb3f 2a5a c5bf f5b6 ee3f 32c6 f73e
000000d0: 9305 563f 9257 dbbf b338 f5bf 11a9 b7be
000000e0: c3af 23c0 5457 0b40 2aef 0d40 9686 e43f
000000f0: 8273 63bf 8df3 1740 a382 e03b 6049 7cbf
00000100: df54 513f fe1e a63e 2419 ebbf 54bf ac3f
00000110: c64e a13e 4b36 943f 3205 d03f d1ab 903f
00000120: 34fe bb3f eec6 c1bd 6831 98bf cf6e 0940
00000130: d5ca 313f 6d82 f8bf 9d18 75bf 4005 19c0
00000140: d701 6e3f 7a0a 863f 1580 1840 47ff 283f
00000150: d5dc 84bf aed8 9e3f dadb 06c0 7e65 1fc0
00000160: e7fb 94bd 7fd9 1b3f 6182 0040 d087 97bc
00000170: d7a7 723e c4df 5540 e2ed ae3f ad59 4440
00000180: 06a6 10c0 659a 0640 69b4 ef3e d485 00c0
00000190: 2dd8 fbbf 881d e7bf 97aa 4640 a3bb 413f
000001a0: 6f5c 6ebf f5f5 3dbf 7298 a23f b0d9 0740
000001b0: b54d 35c0 327c b9bf 4321 e73f 6588 0e40
000001c0: 7cc6 e8bf 8da4 3abf 12f1 e2bf 65e2 f6bf
000001d0: 96fd 2940 9c40 85bf 390a 563e c9ef 2240
000001e0: 59e3 6abf ac41 c93f 2bdc 0fc0 1b74 3b40
000001f0: 5090 c83d 74c5 0240 e97e 4d3f eb3c a7bf
00000200: abca 0440 cd2c 2bc0 6d5e a1be 91f5 e3bf
00000210: dd44 e0bf 19e7 06bf d8c7 1f40 7a7d 2dc0
00000220: 9d18 a73f e5f5 91bf d27b 1ac0 6e86 2f3e
00000230: caeb 1440 4515 7abf 1694 cbbf d0c1 2d40
00000240: 03c0 e13f 8fc5 9f3f 5f1d 82bf 5830 05bf
00000250: b0bb 1940 fdad 95bf 0a26 1bc0 8949 7dbf
00000260: 94f9 23be b389 a8bf f6b1 a93f a638 9fbf
00000270: 4346 34c0 dbce 613f c51d 0c3e fdc3 f6bf
00000280: 167b 193f d538 4f3d c959 bebf ef1b 1b40
00000290: 65dc a83f 0da7 8bbf 8af7 9d3d 31d5 eb3f
000002a0: 821b e8bf 37b5 d7bf a2af d9be 3e53 2640
000002b0: edf7 1840 2cac 56be 2c36 963e 83b1 233e
000002c0: 546c 12bf 51e7 11bf f956 d4bf 6d88 1dc0
000002d0: b7e1 73bf 3f6b 4d3f d790 58c0 5f30 743f
000002e0: 386b 403f 0883 a6bf b89d 29be 32d1 0340
000002f0: ac84 8b3f 97c2 0040 8f41 993f cab5 2fbf
00000300: 0a1b 1cc0 8cb6 50c0 68da 0a40 45e0 df3d
00000310: b511 80bf 9c23 98be 970c 18bf 990b e8bf

bn1.running_mean f4 [200]
-1.5422418 -0.42848068 0.3478921 0.2961581 0.37734392 -0.47907704 0.7193358 1.2587659
0.6134897 -1.487658 -1.1926087 1.4020307 0.9793059 -0.5644998 -0.8151612 -0.343417
-0.2090444 1.4101148 -1.155577 -1.2492161 -1.3332108 -0.25912064 -1.1962781 0.12807514
0.63664263 -1.9437779 0.011408336 -0.026221236 -0.049702547 -0.7351656 0.04610972 0.56867164
0.31611142 -2.994093 -0.51033914 -0.7949613 -0.122024655 -0.50235015 -0.01769363 1.3819882
0.9577179 -1.3417082 -1.288913 1.1475971 0.4704156 0.66385543 -0.39500484 -0.7677111
-1.7862387 -1.537066 -0.21769854 -0.09053565 -0.35136765 0.11285326 1.1806866 -0.66746724
0.8433054 1.6411616 -1.4768047 1.0252659 0.74918526 0.089599565 0.30856928 0.5483471
1.5734272 -1.2152337 0.6111612 1.4947402 0.92305404 -1.175716 -0.49150717 -0.35018313
-1.6250149 -0.3438317 1.7683707 -0.21139403 0.6855081 0.4555782 0.3577089 0.19344145
0.8139616 -1.0415188 0.29760757 -0.39072576 1.1250656 -0.88859206 0.547639 0.16624671
2.2477243 -1.4868025 -0.045497842 1.1489412 -1.3088092 -1.9728402 -0.022167142 1.1569357
-0.22990851 -0.051836707 -1.604988 0.7294792 -0.12362382 1.810303 1.2814424 -0.21000525
-0.18682866 -0.4037644 0.58122945 1.365542 0.24907875 0.5169538 -0.8232814 1.8176115
-0.44950765 -0.90800065 0.70522535 -0.6334269 -1.3688756 -0.98690015 -0.8644303 -1.7293155
-0.39718384 -0.601029 -0.12788418 0.3418277 0.5893747 1.0570457 -0.5457618 -0.21857506
-0.4889846 -0.1080417 1.6296458 1.5468519 1.6930525 -0.34967604 -1.8858486 0.060266495
-0.8477208 -0.34123263 -2.445441 1.1407439 0.31683037 -0.595749 0.70829564 1.0196283
0.69096327 1.0992405 0.8581454 0.20077711 0.31663266 0.40106678 -0.7282796 -0.1346561
-0.37344432 0.18784055 0.9656029 -2.0403905 1.1001669 -1.6239043 1.7374856 1.4591738
0.4837075 -2.0070226 -0.56247735 0.21033882 0.12857686 -0.67152905 1.2335644 1.0646181
-1.1884108 0.06330764 0.7080478 1.5952224 -0.072889894 -1.3554674 0.39083716 -1.4563309
0.094447784 -0.64471734 1.3279781 -1.1720036 -1.5145969 0.52700776 0.053860247 0.5387701
0.3401404 0.5169182 -1.3685508 -2.7087078 -0.86877376 -0.029264465 0.7516716 -0.5792661
1.0099326 1.3919346 -0.02748628 0.14726615 -0.32156652 -2.248257 -0.19958034 -0.07932844
00000000: 2e68 c5bf d261 dbbe ea1e b23e 09a2 973e
00000010: 3933 c13e 9649 f5be 6426 383f 3e1f a13f
00000020: a90d 1d3f 946b bebf 67a7 98bf be75 b33f
00000030: cbb3 7a3f 0f83 10bf 68ae 50bf 5ad4 afbe
00000040: bc0f 56be a47e b43f f2e9 93bf 50e6 9fbf
00000050: a7a6 aabf 76ab 84be a41f 99bf 2126 033e
00000060: 03fb 223f b7cd f8bf 08ea 3a3c ebcd d6bc
00000070: e694 4bbd d033 3cbf 8cdd 3c3d 7794 113f
00000080: 5bd9 a13e 389f 3fc0 96a5 02bf 9582 4bbf
00000090: 10e8 f9bd 059a 00bf 3bf2 90bc fde4 b03f
000000a0: 002d 753f 18bd abbf 1afb a4bf 76e4 923f
000000b0: 50da f03e 6ef2 293f 133e cabe b788 44bf
000000c0: 78a3 e4bf 94be c4bf 5eec 5ebe c16a b9bd
000000d0: 76e6 b3be 9c1f e73d bd20 973f 22df 2abf
000000e0: dde2 573f 9511 d23f f007 bdbf ea3b 833f
000000f0: 9bca 3f3f fa7f b73d cbfc 9d3e 7a60 0c3f
00000100: 1066 c93f c78c 9bbf 0f75 1c3f a653 bf3f
00000110: 454d 6c3f dd7d 96bf d4a6 fbbe 344b b3be
00000120: 7d00 d0bf b50a b0be f959 e23f ad77 58be
00000130: 757d 2f3f 8c41 e93e 9f25 b73e 8415 463e
00000140: ca5f 503f 7d50 85bf 0560 983e 350d c8be
00000150: 2602 903f c57a 63bf 1232 0c3f 943c 2a3e
00000160: b7da 0f40 8b4f bebf f25b 3abd 8110 933f
00000170: 0f87 a7bf 0786 fcbf de97 b5bc 7816 943f
00000180: 236d 6bbe ba52 54bd 3f70 cdbf 26bf 3a3f
00000190: 7c2e fdbd 02b8 e73f 4e06 a43f 9e0b 57be
000001a0: 0350 3fbe 35ba cebe 74cb 143f 15ca ae3f
000001b0: 800e 7f3e 1657 043f 92c2 52bf 7ea7 e83f
000001c0: de25 e6be bb72 68bf a689 343f 4428 22bf
000001d0: 5137 afbf 7da5 7cbf 4e4b 5dbf 365a ddbf
000001e0: ae5b cbbe 09dd 19bf 12f4 02be 0a04 af3e
000001f0: 43e1 163f 464d 873f 0cb7 0bbf 24d2 5fbe
00000200: 315c fabe f844 ddbd 3c98 d03f 3eff c53f
00000210: f2b5 d83f bd08 b3be 7d63 f1bf 00da 763d
00000220: 3b04 59bf 0bb6 aebe 1b82 1cc0 e503 923f
00000230: 9737 a23e 0283 18bf dd52 353f 2e83 823f
00000240: f8e2 303f eab3 8c3f 6baf 5b3f 8498 4d3e
00000250: ad1d a23e a058 cd3e 8870 3abf 4ae3 09be
00000260: 1834 bfbe 4659 403e c031 773f c295 02c0
00000270: 45d2 8c3f 19dc cfbf ee65 de3f 35c6 ba3f
00000280: 82a8 f73e 0f73 00c0 84fe 0fbf 0f63 573e
00000290: a7a9 033e 54e9 2bbf 70e5 9d3f 6845 883f
000002a0: d81d 98bf 70a7 813d 9f42 353f 3f30 cc3f
000002b0: 4c47 95bd f57f adbf cf1b c83e 0d69 babf
000002c0: d76d c13d 320c 25bf 30fb a93f 3704 96bf
000002d0: 50de c1bf fbe9 063f 909c 5c3d d6ec 093f
000002e0: e226 ae3e c054 043f ac2c afbf 785b 2dc0
000002f0: f567 5ebf 08bc efbc 8d6d 403f c84a 14bf
00000300: 7945 813f ea2a b23f e82a e1bc f0cc 163e
00000310: 5ea4 a4be 71e3 0fc0 ca5e 4cbe f376 a2bd

bn1.running_var f4 [200]
0.03805109 0.018351858 0.045232102 0.03494959 0.06261271 0.014479252 0.037079364 0.10511038
0.047377568 0.04813347 0.0137989335 0.027368179 0.03254842 0.026435304 0.030033398 0.039746195
0.09250087 0.028995471 0.02489475 0.075356685 0.041585963 0.038303696 0.111825086 0.031154066
0.014518459 0.018467601 0.014694473 0.053411026 0.018506534 0.05770071 0.057973895 0.0385895
0.014693569 0.19622803 0.11785857 0.01803198 0.029940313 0.08633777 0.10561128 0.063942984
0.0118305115 0.07797429 0.020267447 0.023066454 0.03874597 0.07089123 0.03115091 0.013087286
0.036575615 0.054085966 0.017506728 0.02137908 0.048808396 0.038440775 0.091837145 0.017481966
0.017443303 0.13708784 0.021656506 0.022456894 0.009312038 0.013103325 0.10892347 0.0359182
0.062202033 0.023695271 0.028878551 0.035660237 0.014403771 0.08203767 0.06473844 0.023834536
0.027769597 0.029318213 0.04181854 0.018922223 0.033105537 0.031085033 0.0332816 0.010705872
0.06398408 0.025484366 0.021716084 0.021091802 0.044883415 0.2791258 0.02738524 0.02309344
0.064832814 0.13617356 0.01935547 0.12297241 0.02158495 0.061980706 0.31381437 0.071154736
0.010245687 0.030690847 0.023055954 0.014977573 0.012693488 0.025253052 0.030239975 0.093244396
0.022267578 0.021207368 0.07974383 0.0140148485 0.023310626 0.044035785 0.07228713 0.0727125
0.03075849 0.062876046 0.051786833 0.023543164 0.05366876 0.029431349 0.023136143 0.027535006
0.036329377 0.051916275 0.028348336 0.016141417 0.034883935 0.037366446 0.33918947 0.046873532
0.10975426 0.0805775 0.053671356 0.019391397 0.18891338 0.035603944 0.020640811 0.047348745
0.026676511 0.05266677 0.04772815 0.04599704 0.06589336 0.03573323 0.081395954 0.08974368
0.06996235 0.023096148 0.014084517 0.02131169 0.082072 0.03704427 0.049088906 0.054043513
0.07652238 0.040170204 0.029902188 0.06859677 0.027513254 0.033027973 0.0178873 0.01562225
0.02740168 0.11307693 0.030633243 0.020220352 0.03764205 0.013945361 0.07324717 0.007099499
0.06388261 0.01591296 0.018941332 0.048894677 0.04568587 0.03159609 0.09349532 0.033714436
0.17993928 0.040703494 0.06189541 0.051129743 0.092303 0.03290046 0.024194932 0.01845924
0.0144272605 0.026321316 0.22430786 0.08233573 0.03392368 0.045736697 0.016970566 0.06317417
0.041914336 0.033528294 0.049444593 0.058374923 0.044292256 0.04721575 0.037356477 0.06977806
00000000: 76db 1b3d a356 963c 4c45 393d 4d27 0f3d
00000010: 183b 803d 623a 6d3c 88e0 173d 1c44 d73d
00000020: fb0e 423d 9a27 453d ec14 623c 3b33 e03c
00000030: 7e51 053d da8e d83c 9a08 f63c e8cc 223d
00000040: 1971 bd3d e987 ed3c 13f0 cb3c 9b54 9a3d
00000050: 0b56 2a3d 56e4 1c3d 8d04 e53d d036 ff3c
00000060: d5de 6d3c 5e49 973c 16c1 703c 85c5 5a3d
00000070: 049b 973c 9457 6c3d 0976 6d3d 0610 1e3d
00000080: 4cbd 703c 00f0 483e d55f f13d ceb7 933c
00000090: 6345 f53c dbd1 b03d ba4a d83d 8af4 823d
000000a0: c3d4 413c fcb0 9f3d eb07 a63c dcf5 bc3c
000000b0: 18b4 1e3d 6c2f 913d 3130 ff3c 0e6c 563c
000000c0: 50d0 153d 3f89 5d3d 456a 8f3c 2e23 af3c
000000d0: 50eb 473d 1374 1d3d 1d15 bc3d 5736 8f3c
000000e0: 42e5 8e3c c160 0c3e fc68 b13c 85f7 b73c
000000f0: 8591 183c 54af 563c 4513 df3d f61e 133d
00000100: 8fc7 7e3d 961c c23c b692 ec3c 7810 123d
00000110: cbfd 6b3c 5e03 a83d 9695 843d a540 c33c
00000120: 117d e33c c02c f03c eb49 2b3d c702 9b3c
00000130: ac99 073d 0aa6 fe3c 4952 083d af67 2f3c
00000140: 160a 833d 97c4 d03c eee5 b13c b7c8 ac3c
00000150: acd7 373d 94e9 8e3e 0357 e03c 742e bd3c
00000160: 11c7 843d 1571 0b3e 5d8f 9e3c f5d8 fb3d
00000170: ecd2 b03c 7bdf 7d3d 47ac a03e 93b9 913d
00000180: 87dd 273c 5f6b fb3c d7df bc3c 7f64 753c
00000190: 59f8 4f3c 7ddf ce3c d3b9 f73c ebf6 be3d
000001a0: 7f6a b63c 13bb ad3c bc50 a33d 899e 653c
000001b0: edf5 be3c de5e 343d 460b 943d 4bea 943d
000001c0: 3bf9 fb3c 28c5 803d 6e1e 543d 98dd c03c
000001d0: c6d3 5b3d 031a f13c 0288 bd3c 1891 e13c
000001e0: 1dce 143d 29a6 543d c53a e83c 013b 843c
000001f0: 75e2 0e3d 8f0d 193d 3eaa ad3e 76fe 3f3d
00000200: d7c6 e03d d105 a53d 7fd6 5b3d b5da 9e3c
00000210: 8272 413e 71d5 113d eb16 a93c c2f0 413d
00000220: b388 da3c 1cb9 573d 987e 433d 6467 3c3d
00000230: 19f3 863d 025d 123d ecb2 a63d 89cb b73d
00000240: 6c48 8f3d 2234 bd3c bfc2 663c da95 ae3c
00000250: 5d15 a83d bcbb 173d 7311 493d bb5c 5d3d
00000260: c4b7 9c3d 8389 243d 6ff5 f43c 777c 8c3d
00000270: 7a63 e13c 5748 073d 6388 923c 77f4 7f3c
00000280: 7d79 e03c e194 e73d 91f2 fa3c 27a5 a53c
00000290: 8d2e 1a3d 157b 643c 9d02 963d eaa2 e83b
000002a0: e3d4 823d e55b 823c da2a 9b3c c945 483d
000002b0: 1b21 3b3d e76a 013d 797a bf3d 2618 0a3d
000002c0: 0142 383e b5b8 263d 0b86 7d3d 6c6d 513d
000002d0: 5b09 bd3d a2c2 063d 7334 c63c d537 973c
000002e0: 5160 6c3c cd9f d73c f6b0 653e a39f a83d
000002f0: 8ff3 0a3d 6756 3b3d db05 8b3c 7661 813d
00000300: 5eae 2b3d f754 093d 6a86 4a3d 8b1a 6f3d
00000310: cc6b 353d 4d65 413d 1b03 193d cde7 8e3d

fc2.weight f4 [100, 200]
0.03394875 -0.6720763 -0.4626252 -0.070008524 -0.7601379 0.092433736 0.4677511 0.61912227
-0.11036569 -0.2914967 -0.25955132 0.7983468 0.25342855 0.0075344965 -0.6430514 0.13717438
0.4284572 0.06528789 -0.161684 0.44387776 0.20835255 0.24720363 -0.1180277 0.34891385
0.6518698 0.5121307 0.12534744 -0.28764993 -0.5690893 0.01948054 -0.2756138 -0.6895698
-0.005514187 -0.42924386 0.103172265 -0.027796488 0.104579985 0.87086654 0.007881403 0.26412737
-0.00089078513 0.38777843 0.067131646 -0.11642548 0.6534012 -0.07217089 -0.326347 -0.23922223
-0.35488883 -0.37397742 0.07351362 0.103228815 -0.11546088 -0.3412128 1.0249163 -0.5632742
0.07897318 -0.6190467 -0.1943141 0.4378076 0.3988769 0.5786453 -0.56589615 -0.65217245
-0.34342805 -0.5779885 -0.10994119 -0.89607656 -0.31250793 -0.48633572 -0.066401936 0.39199853
-0.21854365 -0.0740399 -0.31890744 0.2261125 0.3215152 -0.19623023 -0.5998261 0.30237356
-0.39354154 0.1215612 0.14213377 -0.50634366 0.043435168 -0.88388765 0.46506262 0.6900705
0.074728034 0.6253967 0.29066345 -0.37824896 -0.70848316 0.016968094 -0.5819599 -0.22401606
-0.14428893 0.38934612 0.26934132 -0.596205 -0.2234455 -0.13573657 -0.4064757 0.062444683
0.21235505 -0.12893124 0.56877136 -0.5042153 0.2135289 -0.21781379 0.37806627 -0.21053426
0.45960388 0.004929292 0.29854864 -0.9649386 0.38857672 0.3323789 -0.39122224 0.10630974
-0.24787568 -0.81547916 0.2144117 0.47027817 0.6087274 0.13326475 -0.54284686 -0.31190827
0.6192681 -0.2892396 0.17321068 -0.12489718 0.25179046 0.45147797 0.33113015 0.9709749
0.28772318 0.39693412 0.593117 0.7743601 -0.20456141 0.38385755 -0.1467747 -0.37949353
-0.019158598 0.36770383 -0.13461171 -0.24545985 0.31185874 -0.099932574 -0.18701349 0.14343372
-0.04545215 -0.013553911 -0.15557146 0.2185539 -0.053195454 0.051499017 -0.71675605 0.5970808
0.099386625 0.70278645 -0.008479584 -0.16783151 0.11573708 -0.27472043 -0.506647 -0.041402478
-0.17964017 0.102102295 0.18477638 -0.22579356 0.7309577 -0.35190415 0.14402102 0.21433783
0.33253652 -1.0042077 0.4994846 0.08121915 0.21425381 0.36828324 0.21307752 0.9941478
-0.02917098 -0.5382939 -0.25437278 0.09512879 -1.0752504 1.1216166 0.36889002 0.38114384
0.20705993 -1.1093272 0.31469023 0.40281448 -0.5315154 0.68380415 -0.3836152 0.63440484
-0.2718932 0.3342519 0.4712747 0.2942556 0.1267733 -0.33919883 -0.37891635 0.49827847
-0.37455076 0.057836648 -0.5177262 -0.09027476 0.20488487 0.60613996 0.17715876 0.19893132
0.3521993 -0.42114475 -0.27580503 -1.1122749 0.08197978 -0.2539631 0.39360636 -0.017197313
0.3171242 -0.0709132 -0.03733555 0.119561344 0.427139 -0.5254263 0.19014615 0.24135682
0.48333886 -0.12477025 -0.5840865 -0.49716958 -0.8364472 0.037213862 0.04231198 -0.313361
-0.26175854 0.9621126 0.3727469 -0.5789761 -0.37785953 0.20170867 -1.1322277 0.16788019
-0.13802314 0.204585 0.34333155 0.27572015 0.07840958 -0.004343573 -0.06715529 -0.75465435
00000000: d80d 0b3d 310d 2cbf 36dd ecbe a160 8fbd
00000010: 6698 42bf e64d bd3d 127d ef3e cc7e 1e3f
00000020: 6807 e2bd 0e3f 95be e9e3 84be 7560 4c3f
00000030: 63c1 813e f0e3 f63b 049f 24bf 7177 0c3e
00000040: be5e db3e a8b5 853d 7e90 25be f243 e33e
00000050: 5f5a 553e f322 7d3e 82b8 f1bd d6a4 b23e
00000060: f0e0 263f ff1a 033f 145b 003e da46 93be
00000070: d6af 11bf a795 9f3c 411d 8dbe a587 30bf
00000080: 5ab0 b4bb dac5 dbbe fb4b d33d 76b5 e3bc
00000090: 082e d63d 1cf1 5e3f 0021 013c b43b 873e
000000a0: 9483 69ba e58a c63e 517c 893d 7b70 eebd
000000b0: 4d45 273f 55ce 93bd f416 a7be acf6 74be
000000c0: fdb3 b5be f879 bfbe 4f8e 963d a169 d33d
000000d0: c176 ecbd 72b3 aebe 7530 833f bd32 10bf
000000e0: b1bc a13d d879 1ebf 47fa 46be 5128 e03e
000000f0: 9839 cc3e 1922 143f 92de 10bf c6f4 26bf
00000100: cdd5 afbe 0ef7 13bf d928 e1bd 4665 65bf
00000110: 0a01 a0be ff00 f9be bdfd 87bd 08b4 c83e
00000120: e8c9 5fbe 3ba2 97bd d647 a3be 098a 673e
00000130: a49d a43e 94f0 48be 348e 19bf b5d0 9a3e
00000140: 477e c9be 14f5 f83d 848b 113e bd9f 01bf
00000150: 13e9 313d 7646 62bf b01c ee3e 76a8 303f
00000160: 030b 993d 001a 203f d7d1 943e d9a9 c1be
00000170: 275f 35bf ac00 8b3c 53fb 14bf 7764 65be
00000180: 7ac0 13be 6058 c73e 1be7 893e e4a0 18bf
00000190: e6ce 64be 87fe 0abe 951d d0be ffc5 7f3d
000001a0: 9a73 593e 8d06 04be 009b 113f 4114 01bf
000001b0: 52a7 5a3e 940a 5fbe e791 c13e 4b96 57be
000001c0: 3351 eb3e e685 a13b 5edb 983e 3706 77bf
000001d0: 87f3 c63e 912d aa3e 484e c8be ecb8 d93d
000001e0: 1fd3 7dbe 3ec3 50bf be8e 5b3e 4dc8 f03e
000001f0: 8fd5 1b3f 8e76 083e 03f8 0abf 71b2 9fbe
00000200: 5b88 1e3f 3617 94be 245e 313e 18ca ffbd
00000210: aeea 803e 1f28 e73e e489 a93e d091 783f
00000220: 7450 933e f33a cb3e 84d6 173f 773c 463f
00000230: 8c78 51be fa88 c43e 1b4c 16be fa4c c2be
00000240: 7ef2 9cbc ad43 bc3e a7d7 09be d459 7bbe
00000250: f3ab 9f3e 73a9 ccbd 7780 3fbe 4ae0 123e
00000260: 092c 3abd 3911 5ebc 204e 1fbe 98cc 5f3e
00000270: 7ae3 59bd a2f0 523d 537d 37bf 4ada 183f
00000280: 378b cb3d d0e9 333f f4ed 0abc 06dc 2bbe
00000290: 9007 ed3d 28a8 8cbe 9eb3 01bf a595 29bd
000002a0: 98f3 37be 021b d13d 0536 3d3e 6d36 67be
000002b0: 0b20 3b3f c82c b4be 3f7a 133e 607b 5b3e
000002c0: 3a42 aa3e e189 80bf 72bc ff3e 3a56 a63d
000002d0: 5a65 5b3e 9f8f bc3e fe30 5a3e 7880 7e3f
000002e0: fbf7 eebc a1cd 09bf 263d 82be e2d2 c23d
000002f0: cea1 89bf 2291 8f3f 27df bc3e 4925 c33e
00000300: 8507 543e 6ffe 8dbf 141f a13e b33d ce3e
00000310: 6511 08bf ca0d 2f3f 3669 c4be 5b68 223f
00000320: 9635 8bbe 1123 ab3e eb4a f13e aca8 963e
00000330: dcd0 013e 78ab adbe 5301 c2be 5b1e ff3e
00000340: 1ec5 bfbe 1fe6 6c3d b489 04bf f9e1 b8bd
00000350: 57cd 513e fd2b 1b3f 1b69 353e a7b4 4b3e
00000360: 7753 b43e 49a0 d7be 5136 8dbe 065f 8ebf
00000370: 04e5 a73d 7407 82be c686 c93e 61e1 8cbc
00000380: 1a5e a23e f13a 91bd 29ed 18bd 94dc f43d
00000390: f7b1 da3e 5782 06bf acb5 423e 3e26 773e
000003a0: 3178 f73e 8b87 ffbd b186 15bf 038d febe
000003b0: 6721 56bf 906d 183d 544f 2d3d da70 a0be
000003c0: 3705 86be 034d 763f afd8 be3e c737 14bf
000003d0: ce76 c1be b88c 4e3e d6ec 90bf c9e8 2b3e
000003e0: f055 0dbe bb7e 513e 27c9 af3e 312b 8d3e
000003f0: 3495 a03d 8854 8ebb b688 89bd 0731 41bf

fc2.bias f4 [100]
-0.058468536 0.024000568 -0.065422855 -0.0064408067 -0.03955926 0.0014362378 0.0047287648 -0.035155162
0.057101186 -0.0061647617 -0.008545639 -0.0070877466 -0.0059457524 0.07235381 -0.009825107 -0.04264283
-0.00526275 0.008550688 0.04778461 0.032512076 0.06573123 0.029719785 0.061461758 0.048542544
0.03946031 -0.0074592554 0.030869529 0.020617858 0.013198414 0.05628745 0.061235983 0.018254017
0.02126621 0.0029828213 0.044385213 0.019960148 -0.0018151464 0.0073913285 0.007257478 -0.0628101
0.029615724 -0.0110814795 -0.03941399 0.034691494 -0.05958296 0.016331723 0.045904726 0.041371252
-0.008428101 0.059045706 0.044318594 0.06905903 0.036148977 0.0391809 -0.031547673 -0.039103568
-0.011351925 -0.029098095 0.04578796 0.023871582 0.00041164225 -0.06458522 0.013203153 -0.043919805
-0.013779805 0.007911623 0.017858734 0.041705504 -0.048046507 -0.004621743 -0.06542991 -0.0700159
0.0073610456 0.039845716 -0.059810393 -0.029852211 0.015588074 -0.049628146 -0.051558543 0.062260777
-0.03138152 -0.026076734 -0.057435166 0.05705562 -0.009807173 -0.06883105 -0.031094758 0.03433631
0.01372653 -0.050596274 0.007650219 0.020506991 -0.021682395 0.05637606 -0.0055227126 -0.06768952
-0.06344618 0.043697413 -0.005013763 0.01761013
00000000: b47c 6fbd d79c c43c 6bfc 85bd 670d d3bb
00000010: e408 22bd 2540 bc3a c1f3 9a3b dcfe 0fbd
00000020: efe2 693d c501 cabb 0203 0cbc 5440 e8bb
00000030: 96d4 c2bb 3c2e 943d 7cf9 20bc 40aa 2ebd
00000040: 2673 acbb 2f18 0c3c ccb9 433d 622b 053d
00000050: 189e 863d e876 f33c 53bf 7b3d 8cd4 463d
00000060: 22a1 213d c56c f4bb 18e2 fc3c c8e6 a83c
00000070: 293e 583c ab8d 663d 95d2 7a3d 7389 953c
00000080: 7a36 ae3c 707b 433b 45cd 353d 7783 a33c
00000090: 35ea edba f532 f23b 23d0 ed3b 95a2 80bd
000000a0: ad9c f23c 188f 35bc 9070 21bd ab18 0e3d
000000b0: 430d 74bd 1bca 853c 9806 3c3d e774 293d
000000c0: 0516 0abc e9d9 713d 6a87 353d d26e 8d3d
000000d0: f310 143d 277c 203d 2238 01bd 102b 20bd
000000e0: 6dfd 39bc 215f eebc 288c 3b3d 568e c33c
000000f0: b0d1 d739 4145 84bd 0a52 583c 41e5 33bd
00000100: b1c4 61bc c19f 013c 7b4c 923c 64d3 2a3d
00000110: 6acc 44bd fe71 97bb 1e00 86bd 7f64 8fbd
00000120: ed34 f13b 4335 233d befb 74bd a08c f4bc
00000130: 1f65 7f3c e246 4bbd 0d2f 53bd 2805 7f3d
00000140: e989 00bd e09e d5bc 2341 6bbd 27b3 693d
00000150: 44ae 20bc 4bf7 8cbd 6fba febc 3ba4 0c3d
00000160: 3de5 603c 0a3e 4fbd b0ae fa3b 47fe a73c
00000170: 479f b1bc 95ea 663d dff7 b4bb cea0 8abd
00000180: 12f0 81bd 0ffc 323d 7e4a a4bb 1f43 903c

bn2.weight f4 [100]
4.9417005 6.196269 4.3217893 5.5241113 5.345914 6.0401254 4.606115 6.765647
4.0671897 4.1530924 7.6558833 5.189165 4.9883127 7.4138474 7.18219 5.468475
6.391521 5.18671 4.4080873 5.9290814 5.089454 6.939976 5.085735 7.0953784
6.5973706 6.862682 4.384214 4.7749143 5.3283553 4.9271646 4.825637 5.903127
5.2067423 4.2544866 7.7535043 5.746676 7.6102815 5.32654 5.740458 3.6377268
4.146666 6.0835247 6.3555713 7.287779 6.11773 4.542819 5.9309316 4.42024
6.610186 4.4754395 6.189587 6.8169436 6.160356 7.4459724 5.6591425 5.550545
5.302316 6.197867 5.6452336 4.777084 7.3799043 7.6825304 5.903649 5.089348
5.1791973 4.046062 4.7658405 6.4182158 6.11936 5.370546 5.815211 6.9925203
4.961753 4.5170507 5.4578857 5.842836 4.8172784 5.2730026 5.6522064 5.3827376
7.9871545 6.447398 7.5890365 6.102619 4.715418 5.951995 4.532391 4.6341367
4.3007183 4.706145 5.393706 5.4311357 4.0576406 5.282523 7.4591827 5.3638263
5.189367 8.340725 4.616576 6.049883
00000000: 6922 9e40 d647 c640 194c 8a40 85c5 b040
00000010: ba11 ab40 b548 c140 4b65 9340 2e80 d840
00000020: 6b26 8240 22e6 8440 fffc f440 a40d a640
00000030: 42a0 9f40 3d3e ed40 80d4 e540 bffd ae40
00000040: 5787 cc40 87f9 a540 0d0f 8d40 09bb bd40
00000050: cfdc a240 4914 de40 57be a240 570d e340
00000060: a91d d340 179b db40 7b4b 8c40 19cc 9840
00000070: e381 aa40 55ab 9d40 9e6b 9a40 6be6 bc40
00000080: a29d a640 c124 8840 b51c f840 c5e4 b740
00000090: 6d87 f340 0473 aa40 d5b1 b740 84d0 6840
000000a0: 7db1 8440 3cac c240 d760 cb40 7c35 e940
000000b0: 72c4 c340 c65e 9140 31ca bd40 9b72 8d40
000000c0: a586 d340 cd36 8f40 1911 c640 6724 da40
000000d0: a321 c540 6845 ee40 b217 b540 119e b140
000000e0: 93ac a940 ed54 c640 c1a5 b440 dfdd 9840
000000f0: 2d28 ec40 4ad7 f540 b1ea bc40 f0db a240
00000100: fcbb a540 5779 8140 c481 9840 0662 cd40
00000110: ccd1 c340 83db ab40 3516 ba40 bac2 df40
00000120: aec6 9e40 ae8b 9040 00a7 ae40 83f8 ba40
00000130: 2527 9a40 70bc a840 e0de b440 633f ac40
00000140: c596 ff40 1651 ce40 63d9 f240 a848 c340
00000150: b4e4 9640 be76 be40 5909 9140 d94a 9440
00000160: 7c9f 8940 bd98 9640 3d99 ac40 ddcb ad40
00000170: 31d8 8140 6e0a a940 a0b1 ee40 77a4 ab40
00000180: 4b0f a640 9c73 0541 feba 9340 a498 c140

bn2.bias f4 [100]
-0.040435497 -0.59362227 -1.064914 -1.292507 0.34078428 2.0710602 0.29244027 -0.7345562
-1.6279663 1.514298 1.8175237 0.77362615 0.5276321 0.38074538 -0.039163433 1.2802278
-0.30251184 0.28712177 0.08334145 -0.45809463 -1.026366 -0.95430726 -0.68879706 1.3439829
1.0348142 0.905181 0.8770143 -0.75779456 1.0801752 -0.7451369 -1.7826798 -0.15243596
1.4120209 -1.7663494 -0.5221737 0.6800651 -0.12577137 2.0631287 -0.9932006 0.9478646
-1.4959145 1.5900551 -0.78171694 -0.6369928 2.1487148 2.62213 -1.8556116 -0.76100284
0.72244334 0.016519723 0.12510733 0.3684088 -0.8800075 -0.29354516 0.11231035 1.4760494
-1.6976986 0.8831499 -0.73852617 -2.0113068 0.1821234 -0.41935876 -1.04918 2.1188931
-1.2157636 1.2255701 1.7594613 0.9670245 0.8821002 -0.7622279 -1.4503984 -0.6756612
-2.0273898 0.32512128 0.20393285 1.9354067 0.35746595 -1.2321076 1.2876356 -0.39895222
0.76149124 -1.0499264 -0.22336182 -0.57941186 -1.3031553 1.3781766 1.2072737 0.3604717
2.0097501 -1.8049144 1.7835221 1.0120252 -1.0806956 1.9650816 -0.37154555 1.7138766
0.7270772 0.7759164 0.78574836 -0.650374
00000000: b19f 25bd a1f7 17bf 1a4f 88bf df70 a5bf
00000010: 477b ae3e 408c 0440 bbba 953e e00b 3cbf
00000020: 3361 d0bf 84d4 c13f 9ea4 e83f 5d0c 463f
00000030: e612 073f 0ff1 c23e d669 20bd 81de a33f
00000040: d5e2 9abe a001 933e ecae aa3d 618b eabe
00000050: f65f 83bf 7b4d 74bf 0155 30bf a207 ac3f
00000060: cb74 843f f1b9 673f 0284 603f d3fe 41bf
00000070: 2e43 8a3f 4bc1 3ebf da2e e4bf 2c18 1cbe
00000080: 1abd b43f bd17 e2bf 2dad 05bf bf18 2e3f
00000090: 36ca 00be 4d0a 0440 6542 7ebf 41a7 723f
000000a0: 207a bfbf ed86 cb3f 9a1e 48bf f611 23bf
000000b0: 8b84 0940 fad0 2740 ae84 edbf 15d1 42bf
000000c0: 0cf2 383f 5f54 873c 231c 003e 14a0 bc3e
000000d0: 2c48 61bf 8d4b 96be f802 e63d 30ef bc3f
000000e0: 304e d9bf 1d16 623f 0d10 3dbf 40b9 00c0
000000f0: 8e7e 3a3e 31b6 d6be 884b 86bf f29b 0740
00000100: 249e 9bbf 7bdf 9c3f 0736 e13f eb8e 773f
00000110: 52d1 613f 5e21 43bf a8a6 b9bf 22f8 2cbf
00000120: c1c0 01c0 4c76 a63e c6d3 503e 68bb f73f
00000130: c705 b73e b4b5 9dbf 3ed1 a43f 7743 ccbe
00000140: 17f1 423f fd63 86bf f6b8 64be 5654 14bf
00000150: cbcd a6bf 1768 b03f f287 9a3f bf8f b83e
00000160: bf9f 0040 6f07 e7bf 744a e43f 0b8a 813f
00000170: 3c54 8abf cb87 fb3f 383b bebe 4f60 db3f
00000180: bb21 3a3f 75a2 463f ce26 493f e97e 26bf

bn2.running_mean f4 [100]
-0.45237026 -1.3281412 0.9203121 -5.491313 -3.0693042 -0.9181625 0.3619295 -2.4950686
-0.65907687 6.3757887 3.166722 2.5141683 1.0961027 -0.4803094 2.1916125 3.8018255
-0.0011151098 3.416119 2.9979448 0.6223105 6.0348706 0.16906664 1.1247998 3.7481544
4.210915 -1.5936922 0.4132108 -3.0262303 -6.73022 -5.073591 1.3814057 -2.7951846
3.033112 -2.7400398 1.6177412 7.119496 -5.3773184 1.1115035 -5.223947 0.053823613
-0.99749666 8.100386 -1.833083 -1.4986477 5.7358356 1.581993 -6.0042067 -4.8585286
-2.040544 2.879099 5.3037987 0.8608612 -0.83861196 -5.3174787 -1.269341 1.9667315
-2.1409457 1.0203444 2.9711971 -2.6511295 1.774112 -4.192651 -2.7853024 1.6365588
-4.892354 0.49135256 3.0373793 1.9472933 -1.1201788 0.18602414 -3.348942 -2.303623
-7.5517845 3.7572386 -1.5474389 1.699663 -0.3463936 -2.2807157 -3.0346007 -1.6877646
0.9638196 -7.930488 -2.7743077 2.5975373 -3.3383648 2.490639 1.6791247 2.3015878
0.89521366 -0.65718627 4.1778708 -4.88548 -1.6243811 6.3487053 -1.898145 9.93346
0.59555054 1.5456332 -3.393958 -6.308411
00000000: 139d e7be 8800 aabf 9399 6b3f d6b8 afc0
00000010: 7b6f 44c0 b30c 6bbf d34e b93e 34af 1fc0
00000020: 43b9 28bf 7606 cc40 93ab 4a40 22e8 2040
00000030: 184d 8c3f 1deb f5be 6143 0c40 1c51 7340
00000040: e028 92ba b2a1 5a40 54de 3f40 be4f 1f3f
00000050: a91d c140 ce1f 2d3e 71f9 8f3f c3e1 6f40
00000060: d1bf 8640 1bfe cbbf 5e90 d33e c2ad 41c0
00000070: f65d d7c0 dc5a a2c0 e7d1 b03f 4ee4 32c0
00000080: 821e 4240 d05c 2fc0 2512 cf3f e9d2 e340
00000090: fe12 acc0 bf45 8e3f 932a a7c0 2676 5c3d
000000a0: f15b 7fbf 2e9b 0141 77a2 eabf b0d3 bfbf
000000b0: f78b b740 bf7e ca3f 7622 c0c0 1179 9bc0
000000c0: 4698 02c0 2843 3840 b8b8 a940 6661 5c3f
000000d0: 46af 56bf c928 aac0 c479 a2bf dcbd fb3f
000000e0: 4105 09c0 a59a 823f 1828 3e40 1bac 29c0
000000f0: 1a16 e33f 322a 86c0 6542 32c0 c27a d13f
00000100: 2a8e 9cc0 9092 fb3e 6c64 4240 e840 f93f
00000110: 0562 8fbf 1d7d 3e3e 1155 56c0 8f6e 13c0
00000120: 38a8 f1c0 9976 7040 7a12 c6bf 8f8e d93f
00000130: 805a b1be 3ff7 11c0 e636 42c0 ac08 d8bf
00000140: e2bc 763f 8fc6 fdc0 428e 31c0 0d3e 2640
00000150: c5a7 55c0 a166 1f40 8fed d63f 374d 1340
00000160: b92c 653f 5c3d 28bf 1eb1 8540 da55 9cc0
00000170: b8eb cfbf 9828 cb40 6af6 f2bf 74ef 1e41
00000180: 0076 183f 4fd7 c53f 9c36 59c0 81de c9c0

bn2.running_var f4 [100]
123.133446 138.78064 78.78364 100.85392 101.5427 170.53864 86.31534 110.61274
68.722176 74.14578 148.87117 95.288704 87.734924 146.8737 154.62045 102.20983
138.46588 120.61966 74.603096 120.12569 83.77912 168.01674 93.460014 152.45439
174.99217 148.26028 80.55747 85.15088 93.35835 102.16874 115.27491 155.38446
120.3377 62.698353 159.95427 117.02908 163.6971 139.12605 98.97901 77.65887
76.445366 152.2313 114.8927 143.74971 135.17624 108.47183 131.2528 82.41507
149.76102 89.937584 124.76533 134.67574 118.132835 155.98662 156.26712 123.40195
101.40095 140.71663 100.01888 121.0401 143.58351 136.4145 137.92563 139.73634
104.55327 67.72851 115.758026 117.16447 130.57846 118.15423 107.86141 161.78568
90.944855 91.511856 104.35516 121.87171 80.78722 103.94997 106.10192 107.72873
168.78377 164.81519 159.21188 110.93839 76.88294 140.21042 87.96997 96.867645
102.69246 108.90407 110.16889 108.170975 95.82149 118.12584 165.33026 105.070694
158.92912 188.62923 89.35892 128.79907
00000000: 5344 f642 d8c7 0a43 3991 9d42 35b5 c942
00000010: dd15 cb42 e489 2a43 74a1 ac42 b939 dd42
00000020: c171 8942 a44a 9442 05df 1443 d193 be42
00000030: 4878 af42 abdf 1243 d69e 1a43 6f6b cc42
00000040: 4477 0a43 443d f142 c934 9542 5a40 f042
00000050: e98e a742 4904 2843 87eb ba42 5374 1843
00000060: fffd 2e43 a242 1443 6d1d a142 404d aa42
00000070: 7ab7 ba42 6556 cc42 c18c e642 6c62 1b43
00000080: e7ac f042 1dcb 7a42 4bf4 1f43 e40e ea42
00000090: 75b2 2343 4520 0b43 41f5 c542 5751 9b42
000000a0: 07e4 9842 363b 1843 10c9 e542 edbf 0f43
000000b0: 1e2d 0743 94f1 d842 b840 0343 84d4 a442
000000c0: d2c2 1543 0be0 b342 d987 f942 fdac 0643
000000d0: 0344 ec42 93fc 1b43 6244 1c43 cccd f642
000000e0: 49cd ca42 75b7 0c43 ab09 c842 8814 f242
000000f0: 6195 0f43 1d6a 0843 f6ec 0943 81bc 0b43
00000100: 461b d142 ff74 8742 1c84 e742 3554 ea42
00000110: 1694 0243 f74e ec42 0bb9 d742 22c9 2143
00000120: c4e3 b542 1206 b742 d8b5 d042 51be f342
00000130: 0e93 a142 62e6 cf42 2f34 d442 1c75 d742
00000140: a5c8 2843 b0d0 2443 3e36 1f43 75e0 dd42
00000150: 11c4 9942 de35 0c43 a0f0 af42 3cbc c142
00000160: 8a62 cd42 e2ce d942 7956 dc42 8a57 d842
00000170: 9aa4 bf42 6e40 ec42 8c54 2543 3224 d242
00000180: dbed 1e43 15a1 3c43 c4b7 b242 90cc 0043
