models/AudioClassifier_OHE.onnx (onnx, 103622 bytes, 8 tensors)

fc1.weight f4 [100, 33]
0	0x3c84e9df	0.0162248
1	0x3e0ae708	0.13564694
2	0xbe7356df	-0.23763607
3	0x3dd6c2a0	0.104863405
4	0xbe8bc320	-0.27297306
5	0x3edfda69	0.4372132
6	0xbeb8880b	-0.36041293
7	0x3e842196	0.25806874
8	0xbeb419e2	-0.35175997
9	0x3cfdc6b7	0.030978544
10	0xbe9822e8	-0.2971413
11	0xbca9c0d3	-0.020721829
12	0x3d88c4bd	0.0667815
13	0xbef06ffe	-0.46960443
14	0x3ed29d47	0.41135618
15	0x3e70b6ac	0.23507184
16	0xbe908915	-0.28229585
17	0x3eda41eb	0.42628416
18	0x3d80636a	0.06268962
19	0x3eebe9f6	0.46076936
20	0xbed93222	-0.4242106
21	0xbeda36e4	-0.42620003
22	0xbe98bd6a	-0.2983201
23	0x3ea3ae9f	0.31969163
24	0x3f490d0a	0.7853552
25	0xbec7592f	-0.3893523
26	0x3dfdf75b	0.12400695
27	0xbe8942d5	-0.268088
28	0xbe915737	-0.28386852
29	0x3f77bcae	0.9677228
30	0xbf1c4525	-0.61043006
31	0x3dc6e519	0.09711666
32	0x3d4ab89f	0.049492475
33	0xbdf22265	-0.118229665
34	0xbe78b01f	-0.24285935
35	0xbe16a399	-0.14710845
36	0xbb07bdef	-0.0020712574
37	0x3e203a1b	0.15647165
38	0x3e8cde50	0.2751336
39	0xbe71a2bd	-0.23597236
40	0x3ea4520b	0.32093844
41	0xbe7c1691	-0.24617983
42	0xbe598aae	-0.21244308
43	0x3e93e1a6	0.28883094
44	0x3d5197cd	0.05117016
45	0xbe991b29	-0.29903534
46	0x3e052742	0.13003257
47	0x3e4b251c	0.19838375
48	0x3cf4eb19	0.02989726
49	0x3ed85cc3	0.42258272
50	0xbef6081d	-0.48053065
51	0xbf593620	-0.84848213
52	0x3e2b5fe1	0.16735794
53	0x3db19a49	0.08672006
54	0xbb7af643	-0.0038293756
55	0xbd453c51	-0.048153225
56	0xbd3cc54f	-0.046086606
57	0x3e9dea33	0.30842742
58	0x3db40ae1	0.087911375
59	0xbec71a7a	-0.38887388
60	0x3f14a944	0.5807078
61	0x3ed2db01	0.41182712
62	0xbf0a3537	-0.5398745
63	0x3d8126bd	0.06306217
64	0x3e155458	0.14582956
65	0x3d147216	0.036241613
66	0xbd1d9627	-0.038473275
67	0x3e931707	0.28728506
68	0xbec1a9c3	-0.3782483
69	0x3ef52705	0.47881332
70	0x3c8482cc	0.01617565
71	0x3e5c113c	0.2149095
72	0x3f1c5504	0.61067224
73	0xbe1e4886	-0.15457353
74	0x3f02f1fc	0.5115049
75	0xbf302746	-0.68809927
76	0x3f3879f6	0.720611
77	0x3d4e04c0	0.0502975
78	0xbe29ba2d	-0.16574927
79	0x3df3ac95	0.11898152
80	0xbef27dfc	-0.47361743
81	0xbe54c80d	-0.20779438
82	0x3e5ec506	0.21754846
83	0xbe8c713a	-0.27430135
84	0xbe8d2d0c	-0.2757343
85	0x3dac1ff0	0.08404529
86	0xbe72750d	-0.23677464
87	0xbeaff1e6	-0.3436424
88	0x3e7b840d	0.24562092
89	0x3f01adc6	0.5065578
90	0x3ee72e95	0.45152727
91	0xbebd8725	-0.3701717
92	0xbea733cd	-0.32656708
93	0xbe5962ec	-0.21229142
94	0x3db1385a	0.08653326
95	0x3ea1af87	0.3157923
96	0x3d1da54d	0.03848772
97	0xbed4885e	-0.4151029
98	0xbee9172f	-0.455255
99	0xbe180025	-0.14843805
100	0x3eb2a786	0.34893435
101	0xbd10e443	-0.035373937
102	0x3f019216	0.50613534
103	0x3ebaab69	0.364589
104	0xbd1b9ddc	-0.037992343
105	0xbde6d746	-0.11271529
106	0x3ee52dc0	0.44761467
107	0x3df895f9	0.1213798
108	0xbc13f842	-0.009031357
109	0x3ea0c901	0.31403354
110	0x3ef8df3d	0.48607817
111	0x3dad8ed6	0.084745094
112	0x3ca4fc3e	0.02013981
113	0x3e90cc26	0.28280753
114	0xbed33214	-0.41249144
115	0x3e511080	0.2041645
116	0x3f1a16fe	0.60191333
117	0xbb613293	-0.003436242
118	0x3d969103	0.073518775
119	0xbe6a152b	-0.22859637
120	0xbe5349a7	-0.20633565
121	0xbef0590a	-0.4694293
122	0xbf108427	-0.5645165
123	0xbe420c5d	-0.18950029
124	0xbeb6a8cc	-0.35675657
125	0xbf1365e5	-0.57577354
126	0x3e16ab07	0.14713679
127	0xbd01d9bb	-0.031701785
128	0xbed44928	-0.41462064
129	0xbea4f7f3	-0.3222042
130	0x3ceaec9f	0.028677283
131	0x3d8e7907	0.06956678
132	0xbd473361	-0.048632983
133	0xbe16f719	-0.14742698
134	0x3dd0a89e	0.10188411
135	0xbd6d0fd3	-0.05787642
136	0xbddeb12b	-0.10873636
137	0x3d088742	0.033332117
138	0x3e277a7e	0.16355321
139	0xbdb26224	-0.08710125
140	0x3f1cd620	0.6126423
141	0x3f73cad6	0.9523138
142	0x3eeeca2c	0.4663862
143	0xbef31654	-0.47477973
144	0x3d52d4a9	0.05147234
145	0x3eccd7b3	0.40008315
146	0x3e77056b	0.2412316
147	0xbe6cb304	-0.23115164
148	0xbd61d5f0	-0.055135667
149	0x3d6c5406	0.05769732
150	0xbdb31520	-0.08744264
151	0x3d21607c	0.039398655
152	0xbf3ef05f	-0.7458553
153	0xbee864ac	-0.45389307
154	0xbefa4f6e	-0.48888725
155	0xbf44c98c	-0.76870036
156	0x3e8023cc	0.2502731
157	0x3e9b20b0	0.30298376
158	0xbee5fc30	-0.44918966
159	0x3b76a0db	0.0037632498
160	0xbdbf0324	-0.09326771
161	0x3e244eb6	0.16045651
162	0x3cd1f4e7	0.025629474
163	0x3e38f476	0.18062004
164	0x3e6266de	0.22109553
165	0xbdb989ba	-0.090594724
166	0x3c4e8786	0.0126055535
167	0x3c7e26ea	0.0155122075
168	0x3e2e851f	0.17042969
169	0xbe3fc587	-0.18727694
170	0x3edbc8b1	0.42926553
171	0x3ea05e71	0.31322053
172	0xbe8a659e	-0.27030653
173	0x3f278912	0.6544353
174	0x3f07c288	0.53031206
175	0xbe7cc300	-0.24683762
176	0xbb8dffee	-0.0043334877
177	0x3e86d611	0.26335195
178	0xbf4bcf9c	-0.7961366
179	0xbe91b6c8	-0.28459764
180	0xbcd17122	-0.025566641
181	0xbe2272c0	-0.15864086
182	0xbfae63ef	-1.3624247
183	0x3e72b668	0.23702395
184	0xbdc55554	-0.09635416
185	0x3dc4eb65	0.096152104
186	0xbddeab4e	-0.108725175
187	0x3c456ebd	0.012050328
188	0x3de93e55	0.11388842
189	0xbe2ed785	-0.17074402
190	0xbce305bc	-0.027712695
191	0x3efe7e62	0.49705797
192	0x3e4c9663	0.19979243
193	0xbe8c3162	-0.27381426
194	0xbd9c3e0e	-0.076290235
195	0x3e984419	0.29739454
196	0xbe56b1c5	-0.20966251
197	0x3f06be51	0.5263415
198	0xbdf4df72	-0.11956681
199	0xbe06fdd1	-0.13182761
200	0xbd8fc59c	-0.07020113
201	0xbddb6aed	-0.10713754
202	0x3f35a667	0.70957035
203	0xbde61f7b	-0.11236473
204	0xbc013446	-0.007885998
205	0xbeec4f71	-0.4615436
206	0x3e59442d	0.21217413
207	0xbeb499b4	-0.35273516
208	0xbe8dd99f	-0.27705094
209	0x3e982a40	0.29719734
210	0x3edbe86d	0.42950764
211	0x3e7b52dd	0.24543329
212	0xbe5efffc	-0.21777338
213	0xbe9d1413	-0.30679378
214	0x3f47114a	0.77760756
215	0xbe36c69d	-0.17849202
216	0xbebb8027	-0.3662121
217	0x3df1250e	0.11774646
218	0xbd6a5c2c	-0.05721681
219	0x3e06ff19	0.1318325
220	0xbe568a06	-0.2095109
221	0x3e920df2	0.28526264
222	0x3f0f1e8b	0.5590598
223	0xbdc69301	-0.096960075
224	0xbf11a9fe	-0.5690001
225	0x3da8d5d2	0.08243908
226	0xbe450edd	-0.19243951
227	0xbe96a13b	-0.29419884
228	0xbdc8b0fc	-0.09799382
229	0x3f2d59e5	0.67715293
230	0xbeee9565	-0.46598354
231	0xbe444991	-0.19168688
232	0xbec1d5b1	-0.37858346
233	0xbe4212cb	-0.18952481
234	0xbe26a3d1	-0.16273428
235	0xbee40294	-0.44533217
236	0x3ef8319c	0.4847535
237	0x3e161a55	0.14658482
238	0xbea07804	-0.31341565
239	0xbdbd07d2	-0.09230007
240	0x3e8c6358	0.27419543
241	0xbe933427	-0.28750727
242	0x3e01a0ac	0.12658948
243	0xbec5dfdf	-0.38647363
244	0xbd49f833	-0.049308967
245	0x3f070fa9	0.5275827
246	0xbda3673d	-0.079786755
247	0xbd0be639	-0.034155104
248	0x3e607c88	0.21922505
249	0xbe074eda	-0.13213673
250	0xbde0a3a6	-0.109687135
251	0x3e02fc9f	0.1279168
252	0x3eac2116	0.33618993
253	0xbd132400	-0.035923004
254	0xbe19b036	-0.15008625
255	0x3e3f7b06	0.18699273

fc1.bias f4 [100]
0	0xbe2313b3	-0.15925483
1	0x3d2d1196	0.0422531
2	0xbdb9bc77	-0.0906915
3	0xbdfb261c	-0.12263128
4	0x3e0af388	0.13569462
5	0x3e3d2165	0.1846977
6	0xbdbb22b2	-0.09137477
7	0x3d0b60e1	0.034027938
8	0xbcc57c09	-0.024106996
9	0x3c9e7509	0.019342916
10	0xbbd9fffe	-0.006652831
11	0xbdaa4360	-0.08313632
12	0x3f0d236a	0.5513216
13	0x3e104ac3	0.1409102
14	0xbe713a12	-0.23557308
15	0xbe278b0d	-0.16361637
16	0x801d31b7	-2.681064e-39
17	0x3daec747	0.08534103
18	0x3a26942e	0.0006354478
19	0xbc826c90	-0.015920907
20	0xb9f6f40a	-0.000471026
21	0xbe67eb2e	-0.22648308
22	0x3ded5eef	0.11590373
23	0x3e167000	0.14691162
24	0xbba97553	-0.005171457
25	0x3e1ff307	0.15620051
26	0x3c35558a	0.011067757
27	0xbe57c307	-0.21070491
28	0xbd84e4e9	-0.06488974
29	0x3dfcde26	0.12347059
30	0xbe2406bd	-0.16018195
31	0xbca2aa70	-0.019856662
32	0xbd99b8a4	-0.075059205
33	0xbeac9b9d	-0.33712474
34	0xbead53a5	-0.33852878
35	0x801c3900	-2.591842e-39
36	0xbd7bbc32	-0.061458774
37	0x0030e56f	4.490409e-39
38	0x3e536d09	0.20647062
39	0x3bc111c4	0.0058920104
40	0x3d660922	0.056161053
41	0x3b502d60	0.0031765327
42	0x3d4df544	0.05028273
43	0x801f896e	-2.896201e-39
44	0xbe3c406b	-0.18383949
45	0xbde61bf0	-0.112357974
46	0xbdc63568	-0.09678155
47	0xbd763e04	-0.060117736
48	0x3c649d18	0.01395347
49	0x3d558dfd	0.052137364
50	0xbbcc6112	-0.0062371576
51	0xbd9faa97	-0.07796209
52	0x3e29e266	0.1659027
53	0xbe2a0f96	-0.16607508
54	0x3a0e38b2	0.00054253184
55	0x3db8d127	0.09024268
56	0x3d2c4e93	0.04206712
57	0x3ca3c744	0.019992478
58	0xbdfaa18d	-0.122378446
59	0x000d4fba	1.222462e-39
60	0x000eca7a	1.358332e-39
61	0xbcb50fcb	-0.022102257
62	0x3e6332a6	0.2218729
63	0xbd1fc0f2	-0.039002366
64	0xbdd4bcfd	-0.10387609
65	0xbd817430	-0.06320989
66	0x3e53843c	0.20655912
67	0x3cade8e9	0.021229224
68	0x3e18dea5	0.14928682
69	0xbde024cb	-0.10944518
70	0xbe31288f	-0.17300628
71	0xbe732018	-0.23742712
72	0x3e168bcf	0.1470177
73	0x3badc67d	0.0053032027
74	0x3dcf03c2	0.101081386
75	0x3cce7a01	0.02520466
76	0xbe2c5a90	-0.16831422
77	0xac217468	-2.2944095e-12
78	0x3dcfea55	0.10152117
79	0x3d17c500	0.03705311
80	0x3de0b88f	0.10972702
81	0x3e0091df	0.12555645
82	0x3e0fe14d	0.14050789
83	0xba390439	-0.0007057819
84	0xbe317131	-0.17328335
85	0x8010cfca	-1.543909e-39
86	0x3ddbb9f6	0.107288286
87	0xbda80729	-0.08204491
88	0x3daae155	0.0834376
89	0xbdcea6f2	-0.10090436
90	0x3ea8d07e	0.32971567
91	0x3e66ecd2	0.22551277
92	0x3d153785	0.0364299
93	0x3d7f327d	0.06230401
94	0xbe5e2f74	-0.2169779
95	0xbd0ab85c	-0.033867225
96	0xbd79799a	-0.060906984
97	0x3d94886e	0.072525844
98	0xbe0edbe5	-0.1395107
99	0x3d045e5d	0.032316554

fc2.weight f4 [200, 100]
0	0x3d376a49	0.044779096
1	0xbe7c3935	-0.24631198
2	0xbe6bee5d	-0.23040147
3	0x3e016a4d	0.12638207
4	0xbe94b815	-0.29046693
5	0x3e601b64	0.21885449
6	0x3e61de98	0.22057569
7	0x3e8880da	0.26660806
8	0xbd037127	-0.032090332
9	0x3d9ebf52	0.07751335
10	0xbe65b4e2	-0.22432283
11	0x3d860b37	0.06545108
12	0x3d564bd4	0.05231841
13	0xbe074e8a	-0.13213554
14	0xbe8ac1a1	-0.27100852
15	0xbe82f19e	-0.25574964
16	0x8043aa35	-6.214037e-39
17	0x3e49ba69	0.19700016
18	0x3c16be1a	0.009200597
19	0xbe9fbe5e	-0.31199926
20	0xbb09b55a	-0.0021012635
21	0x3d8337a5	0.06407098
22	0xbe0240ee	-0.12720081
23	0xbe3a51b1	-0.18195225
24	0x3d88ddf8	0.06682962
25	0xbe049efb	-0.12951271
26	0xbd82392b	-0.0635856
27	0x3d938ff4	0.07205191
28	0xbd5c9d18	-0.053860754
29	0x3e0f2b25	0.13981302
30	0xbc79522f	-0.015217348
31	0xbb81ea29	-0.0039646816
32	0x3b95a552	0.004566827
33	0x3e7d2d5d	0.24724336
34	0xbe706496	-0.2347587
35	0x001f0788	2.849602e-39
36	0xbe1538f4	-0.14572507
37	0x801c8708	-2.619834e-39
38	0xbe04fcea	-0.12987104
39	0xbdcec941	-0.1009698
40	0x3ba3cf8f	0.004999108
41	0x3d4431f8	0.047899216
42	0x3cfa2d49	0.030539172
43	0x312ca347	2.5122107e-09
44	0x3c931e9a	0.017958928
45	0xbde159f1	-0.11003483
46	0xbea77829	-0.32708862
47	0xbc49fe40	-0.012328684
48	0xbe9319aa	-0.28730518
49	0x3de614e2	0.11234452
50	0xbde9ca4b	-0.114155374
51	0xbdb9f0ca	-0.0907913
52	0x3e97f523	0.29679212
53	0xbe7326aa	-0.23745218
54	0x3ca07635	0.019587616
55	0x3e019f62	0.12658456
56	0x3dcfdc6a	0.101494625
57	0xbc36f8a8	-0.011167683
58	0xbe5a0715	-0.21291764
59	0x0028e2e7	3.754817e-39
60	0x800e68dd	-1.323315e-39
61	0x3e1197dc	0.14218086
62	0xbb260060	-0.0025329813
63	0xbeb59772	-0.35467106
64	0xbe0de640	-0.13857365
65	0xbc1ab207	-0.009441859
66	0x3e2dc1ba	0.16968432
67	0xbe8a0579	-0.269573
68	0x3dcbe19b	0.0995514
69	0x3d7dd8e6	0.06197443
70	0xbda4ab85	-0.08040527
71	0xbeb68913	-0.35651454
72	0xbdaabfbc	-0.08337352
73	0xbc9e5b7f	-0.019330738
74	0x3d1caf59	0.038253162
75	0x3d328344	0.043582216
76	0xbe060f28	-0.13091719
77	0x34ff550b	4.7559328e-07
78	0xbd8a0cc5	-0.06740717
79	0x3d4373ee	0.04771798
80	0xbeb0db0c	-0.3454212
81	0x3e3c4bde	0.18388316
82	0x3dd5f384	0.104468375
83	0x3cb278f6	0.021786194
84	0x3d93cd51	0.07216895
85	0x001b227b	2.491928e-39
86	0x3e27845d	0.16359086
87	0xbe5bec49	-0.21476854
88	0xbe8069ed	-0.25080815
89	0xbe544723	-0.20730262
90	0xbc26d5b2	-0.010182785
91	0xbc803c47	-0.015653742
92	0x3e347cc3	0.17625718
93	0xbd809954	-0.06279245
94	0xba4fcae7	-0.0007926658
95	0x3e13f421	0.14448597
96	0xbe7ecaa0	-0.24881983
97	0xbe8c5e4a	-0.27415687
98	0xbb5c2466	-0.003359103
99	0xbe2fa1eb	-0.1715161
100	0x3cc7076c	0.024295531
101	0xbe693567	-0.22774278
102	0x3dfcce1b	0.12343999
103	0xbce9c50f	-0.028536348
104	0xbd2cb6fc	-0.042166695
105	0x3d86cce5	0.06582049
106	0xbe1cc5a7	-0.15309773
107	0x3df3c193	0.11902156
108	0xbd60956d	-0.054830004
109	0xbe26d84f	-0.16293453
110	0x3e739d39	0.23790444
111	0xbeb0ecbb	-0.3455561
112	0xbe40df36	-0.18835148
113	0xbd45ba3b	-0.048273306
114	0xbea8916a	-0.32923442
115	0xbe3a91ca	-0.18219677
116	0x003a0b77	5.330572e-39
117	0xbda8c1e2	-0.08240105
118	0xbe440cf3	-0.19145565
119	0xbc443f43	-0.011977973
120	0xbbcfc765	-0.0063409084
121	0xbe37ec58	-0.17961252
122	0xbe107aa6	-0.14109287
123	0xbe624998	-0.22098386
124	0xbe11c57e	-0.14235494
125	0xbce1fbf0	-0.027585953
126	0x3ce5c4e2	0.028047983
127	0xbe0855dc	-0.13314003
128	0x3d1a9d36	0.037747584
129	0xbdbfca07	-0.093647055
130	0x3da09746	0.07841353
131	0x3d287fe7	0.041137602
132	0x3e509db5	0.2037266
133	0xbda66ae5	-0.08125857
134	0x3e9949f0	0.29939222
135	0x00253885	3.418189e-39
136	0x3e81aabc	0.25325572
137	0x000f129e	1.384211e-39
138	0xbe31b012	-0.17352322
139	0x3d1d17f3	0.038352918
140	0x3dbbfd9f	0.09179234
141	0xbecd99d3	-0.4015642
142	0x3e46524b	0.1936733
143	0xac8ef5c0	-4.0631665e-12
144	0xbe9bc296	-0.30421895
145	0xbd3b3a6a	-0.045710005
146	0x3e2af3e7	0.16694604
147	0x3e3f1189	0.18659033
148	0x3e8eb5b5	0.27873006
149	0x3cec066a	0.028811652
150	0x3d0bcd6b	0.03413145
151	0xbde2843a	-0.110603765
152	0xbdd5aff1	-0.10433949
153	0x3e3f614c	0.1868946
154	0x3e7c62b6	0.2464703
155	0x3db69c34	0.08916512
156	0xbdd7ddd2	-0.10540356
157	0xbe086a53	-0.1332181
158	0xbb94c90e	-0.004540569
159	0x8127516b	-3.073147e-38
160	0x2ca3e7a5	4.6584563e-12
161	0xbdea4f7b	-0.11440941
162	0xbc95e464	-0.018297382
163	0x3ea7a20c	0.3274082
164	0xbe58b795	-0.21163781
165	0x3df5f3b7	0.120093755
166	0xbe082a28	-0.13297331
167	0x3e01ce69	0.12676395
168	0x3ce35c34	0.027753927
169	0xbe6f74e3	-0.23384432
170	0x3d431099	0.04762325
171	0xbda329b3	-0.07966938
172	0xbe00d290	-0.12580323
173	0xbe0c0ab6	-0.13675961
174	0xbd9c891a	-0.076433375
175	0xbdff0be1	-0.124534376
176	0xbe842dd9	-0.2581623
177	0xaabd09c9	-3.3579934e-13
178	0xbe286245	-0.16443737
179	0xbd673812	-0.056449957
180	0x3e81dc53	0.25363407
181	0xbe12439d	-0.14283605
182	0xbbd02760	-0.00635235
183	0x3c0489c1	0.008089484
184	0x3c5fd826	0.013662374
185	0x001f508d	2.875797e-39
186	0xbbabab18	-0.005238902
187	0xbe9b5c1d	-0.30343714
188	0x3db4b879	0.08824248
189	0xbe41ca2f	-0.18924783
190	0xb9a65da7	-0.00031731764
191	0x3b4e676f	0.0031494757
192	0x3d07455b	0.033025127
193	0xbd5eccbb	-0.054394465
194	0xbc1f9c68	-0.00974188
195	0xbde93d11	-0.113886006
196	0xbe096709	-0.13418211
197	0x3dc3ff63	0.095701955
198	0x3d9a32b6	0.075292036
199	0xbbaf905b	-0.0053577847
200	0xbc6ec13a	-0.014572436
201	0xbd4cec77	-0.050030198
202	0xbe265637	-0.16243826
203	0xbe08b55d	-0.13350435
204	0xbc549aea	-0.0129763875
205	0xbdab4667	-0.083630376
206	0x3d927fd2	0.07153286
207	0x3eabddb6	0.3356759
208	0x3d4fd59b	0.05074082
209	0xbdaf13c3	-0.08548691
210	0xbe113ea6	-0.14184055
211	0xbe0abb6e	-0.13548061
212	0xbe8d6fcc	-0.27624357
213	0x3dbf7f6c	0.09350476
214	0x3e1dbdf5	0.15404494
215	0xbdb70731	-0.089369185
216	0x003f7f22	5.831243e-39
217	0xbe6e7e66	-0.23290405
218	0x3de279fd	0.11058424
219	0xbdb452cb	-0.08804854
220	0xbbcf8319	-0.0063327667
221	0xbdcb02d2	-0.09912647
222	0x3d5d3e37	0.05401441
223	0x3d3009dc	0.042978153
224	0x3d20322d	0.03911035
225	0x3e6775c4	0.22603518
226	0x3d1a317d	0.037644852
227	0xbe505057	-0.20343147
228	0xbdc1fb91	-0.094718106
229	0xbdc722be	-0.097234234
230	0xbe82f65d	-0.25578585
231	0x3d1b8411	0.037967745
232	0xbe47de4f	-0.19518398
233	0xbbe95ca9	-0.0071216417
234	0xbe75d746	-0.24007902
235	0x0020f8d6	3.028001e-39
236	0xbdbb9e23	-0.091610216
237	0x8044709c	-6.28521e-39
238	0xbb465df1	-0.0030268396
239	0xbdbfecb6	-0.09371321
240	0xbe2ce036	-0.16882405
241	0xbe8406b6	-0.2578637
242	0xbcbd6fe1	-0.023124637
243	0xa84a02b2	-1.1213837e-14
244	0x3e577b34	0.21043092
245	0xbc944794	-0.018100537
246	0xbe8dd614	-0.2770239
247	0x3e65ac7f	0.22429083
248	0x3d245e75	0.040129144
249	0xbd88131b	-0.06644269
250	0xbea1b590	-0.31583834
251	0x3c16d4ad	0.009205979
252	0xbdf59a97	-0.11992376
253	0xbdb8792e	-0.09007488
254	0xbc8712d5	-0.016488472
255	0xbe2cdc99	-0.16881026

fc2.bias f4 [200]
0	0xbdb56579	-0.08857245
1	0xbd8c2458	-0.068428695
2	0x3d60c302	0.054873474
3	0xbe963aa9	-0.2934163
4	0x3e1bddc5	0.15221317
5	0x3e4869a9	0.19571556
6	0xbcc2803c	-0.023742788
7	0x3e7b60fa	0.24548712
8	0x3dc2e4e4	0.09516314
9	0xbcf2b6db	-0.029628208
10	0x3e225aa0	0.15854883
11	0xbe45bd1e	-0.19310424
12	0xbdd29ee6	-0.10284214
13	0xbe9c73bb	-0.30557045
14	0xbdf785ff	-0.120861046
15	0xbd5fcf11	-0.054640833
16	0xbdc0d4ff	-0.09415626
17	0xbe863ea0	-0.26219654
18	0xbc80a3fb	-0.015703192
19	0x3ea065ad	0.31327572
20	0xbe0acb78	-0.1355418
21	0xbe838503	-0.25687417
22	0x3d1c585e	0.03817021
23	0x3c9f9174	0.019478537
24	0x3db56db7	0.08858817
25	0xbe2c8e37	-0.16851126
26	0xbeb1baed	-0.34712926
27	0x3dff4e45	0.124661006
28	0xbde10683	-0.1098757
29	0x3e91cda3	0.284772
30	0xbdff830e	-0.124761686
31	0xbe493c76	-0.1965197
32	0x3cd6868b	0.026187202
33	0x3e0e625b	0.13904707
34	0x3e3987fc	0.1811828
35	0xbe194017	-0.14965855
36	0xbd851083	-0.0649729
37	0x3d8bff51	0.06835807
38	0x3c8c164c	0.017100476
39	0xbda0af29	-0.07845909
40	0xbe452e63	-0.19255976
41	0x3e69dfa9	0.22839226
42	0x00350b73	4.871389e-39
43	0x91aaf401	-2.697165e-28
44	0xbe3067c4	-0.17227083
45	0x3e28b10a	0.16473785
46	0xbd3e3aa5	-0.046442647
47	0xbe2db32a	-0.16962877
48	0x3d1f8319	0.038943384
49	0x3ea18c23	0.31552228
50	0x3e4f3775	0.20235999
51	0xbe8c160d	-0.27360573
52	0x3f10374d	0.5633438
53	0x3e2b6e0a	0.16741195
54	0x3d3d1921	0.046166543
55	0xba723358	-0.0009239218
56	0x3be2ac8f	0.0069175432
57	0x3d71833b	0.05896304
58	0xbe0f8733	-0.14016418
59	0x3ead988c	0.33905447
60	0xbed1e3c5	-0.40994087
61	0xbd30d36e	-0.043170385
62	0x3da8912f	0.082308166
63	0xbe2f61fa	-0.17127219
64	0xbc4988b2	-0.012300657
65	0xbd91a61b	-0.0711176
66	0x3e554dc8	0.20830452
67	0x3c95d200	0.018288612
68	0x3d6af48e	0.05736213
69	0x3e158c20	0.14604235
70	0xbe7a5cdf	-0.2444949
71	0x38beef1e	9.104445e-05
72	0x3d728234	0.059206203
73	0xbe54915d	-0.20758577
74	0xbd64a44b	-0.055820744
75	0x3e50bab2	0.20383719
76	0x3e852008	0.26001
77	0x3e181b4b	0.14854161
78	0xbc17ec7f	-0.009272694
79	0xbdef79c1	-0.116931446
80	0xbe020ba5	-0.12699755
81	0xbea8e048	-0.32983613
82	0x3ab66d7a	0.0013918125
83	0x3d8a0cfa	0.06740756
84	0xbe63b25a	-0.22236004
85	0xba538811	-0.00080692867
86	0xbe25a90f	-0.16177772
87	0xbdda66fc	-0.10664174
88	0xbe040df9	-0.12895955
89	0xbead7a41	-0.33882335
90	0x3d3c0f10	0.045912802
91	0xbd0f5a1d	-0.034998048
92	0x3ce05551	0.027384432
93	0xbb84a688	-0.0040481724
94	0xbd963c56	-0.07335727
95	0x3ea81928	0.32831693
96	0xbe997284	-0.2997018
97	0x3d203e7f	0.0391221
98	0x3ec0ddcb	0.37669215
99	0x3e01652d	0.12636252
100	0xbd0b8e69	-0.03407136
101	0x3e1da470	0.15394759
102	0xbce87866	-0.028377723
103	0x3def6c70	0.11690605
104	0x3d11b8a9	0.035576496
105	0xbafffd9e	-0.001953054
106	0x3d51d260	0.05122602
107	0x3e353e98	0.17699659
108	0xbe0839e7	-0.13303338
109	0x3de1f208	0.11032492
110	0xbde4fbd1	-0.11180843
111	0xbdfca96d	-0.12337003
112	0x3e987fd9	0.2978504
113	0xbc59a9c4	-0.013285104
114	0xbe1e81b9	-0.15479173
115	0xbca5900a	-0.020210285
116	0xbd2e5534	-0.042561725
117	0xbe9b53fe	-0.30337518
118	0xbdfcd936	-0.12346117
119	0x3e88fc25	0.2675487
120	0x3e566ac9	0.20939173
121	0x815ef662	-4.095173e-38
122	0x3e28fe9b	0.16503374
123	0xbe1b1abc	-0.15146917
124	0xbe8b1396	-0.2716338
125	0x3cb9c5ae	0.022677269
126	0xbca5316e	-0.020165171
127	0x3d2e1846	0.042503618
128	0xbf09cd34	-0.5382874
129	0xbe7ae53d	-0.2450151
130	0xbe24876b	-0.16067283
131	0x3d3c1398	0.045917124
132	0xbb537c75	-0.0032270227
133	0xbcb4c32a	-0.022065718
134	0xbdd98b66	-0.10622291
135	0xbcbbdf5f	-0.02293366
136	0x3df16ff2	0.1178893
137	0xbd4cdb0f	-0.050013598
138	0xbe25b2c9	-0.16181482
139	0xbe6a0356	-0.22852835
140	0x3e933ba7	0.2875645
141	0x3ea2d9d0	0.31806803
142	0x3eaee94a	0.3416236
143	0xbd92aac5	-0.07161478
144	0xbdb9aa48	-0.09065682
145	0x3e59dc57	0.21275459
146	0x3ea2322a	0.31678897
147	0xbe5584ac	-0.20851392
148	0x3ce024bb	0.027361264
149	0x3d4abdde	0.049497478
150	0xbbbd6553	-0.005779901
151	0x3e1d0b12	0.15336254
152	0xbccd2d3f	-0.02504599
153	0xb81ddda8	-3.763815e-05
154	0x3cf3bff7	0.029754622
155	0xbe4efc53	-0.20213442
156	0xbe01e671	-0.12685563
157	0x3eaec25c	0.3413266
158	0xbdbf6306	-0.09345059
159	0xbe8df8a0	-0.27728748
160	0x3c83aca2	0.016073529
161	0xbf021bc8	-0.5082364
162	0x3e55d229	0.20880951
163	0x3e175117	0.14777027
164	0xbcde6327	-0.027146889
165	0x3e45f8e5	0.19333227
166	0xbbdf6206	-0.006817105
167	0xbe00e14c	-0.12585944
168	0x3b88656c	0.004162481
169	0x3d163336	0.036669932
170	0xbe20e560	-0.157125
171	0xbc3525d3	-0.011056381
172	0xbc95ac8e	-0.018270757
173	0xbdcc3230	-0.0997051
174	0x3c885fc6	0.01664723
175	0xbdf63efe	-0.120237336
176	0xbcef4655	-0.029208342
177	0xbe68829d	-0.22706075
178	0x3dade658	0.084912
179	0xbed7bb3f	-0.42135045
180	0xbde71bb8	-0.11284584
181	0xbda18b8d	-0.07887945
182	0xbdb18e84	-0.08669761
183	0xbcdd9eee	-0.027053323
184	0xbde1642f	-0.11005437
185	0xbe38edd9	-0.18059482
186	0xbc74ec63	-0.014948937
187	0x3aaddd36	0.0013264779
188	0xbc758e06	-0.014987474
189	0xbb0c4e5e	-0.0021409015
190	0xbcc0725d	-0.023492033
191	0xbdc0325c	-0.09384605
192	0x3e456a60	0.1927886
193	0x3c3185d7	0.010835133
194	0xbdc245a9	-0.09485943
195	0xbe319ce9	-0.17345013
196	0x3da742ab	0.08167013
197	0x3c899193	0.016793048
198	0xbf1731a3	-0.59060115
199	0xbc188f41	-0.009311498

fc3.weight f4 [10, 200]
0	0xbd951cd5	-0.0728089
1	0xbf0fed78	-0.56221724
2	0xbf064526	-0.5244926
3	0xbd99b755	-0.07505671
4	0xbdc22d65	-0.094813146
5	0xbe6cfbaa	-0.23142877
6	0x3b719709	0.0036863706
7	0x3d408015	0.04699715
8	0xbebfbe0b	-0.3744968
9	0xbeb27385	-0.3485376
10	0xbe0dccd2	-0.13847664
11	0xbe853a6f	-0.26021144
12	0x3c7423a8	0.014901079
13	0x3e91e214	0.28492796
14	0xbe26ac4f	-0.16276668
15	0x3e196eaa	0.14983621
16	0x3d392f1e	0.04521095
17	0xbce2db80	-0.027692556
18	0x3e7a5f83	0.24450497
19	0xbd391a4d	-0.045191098
20	0xbe479338	-0.19489753
21	0x3e1737e8	0.1476742
22	0xbe6f5797	-0.23373257
23	0xbe047d22	-0.1293836
24	0x3eaaebfd	0.3338317
25	0x3ef433f3	0.47695884
26	0xbf029a5b	-0.5101678
27	0x3de7621a	0.11298008
28	0x3decfcda	0.11571665
29	0xbd78a9a8	-0.06070867
30	0x3f097e03	0.53707904
31	0x3eecb876	0.46234483
32	0x3c3adfe0	0.011405915
33	0xbdb29372	-0.08719529
34	0xbda30a8a	-0.079609945
35	0x3eaab8e7	0.33344194
36	0x3ecc442a	0.39895755
37	0x3f0018fc	0.50038123
38	0x3e68a6ba	0.22719851
39	0x3e2fd176	0.17169747
40	0x3e84a615	0.2590796
41	0xbe2f3b69	-0.17112507
42	0x1feb91bc	9.976747e-20
43	0xaf37069b	-1.66461e-10
44	0x3da70680	0.08155537
45	0xbea13c90	-0.31491518
46	0xbd6a05fd	-0.057134617
47	0x3e67f0a8	0.22650397
48	0x3ec8707b	0.39148316
49	0x3ed53a77	0.41646168
50	0xbe25bce2	-0.16185334
51	0x3ebed968	0.37275243
52	0xbe3e1f9c	-0.18566746
53	0xbdb43c0b	-0.08800515
54	0xbed5dcb4	-0.41769946
55	0xbe334d35	-0.17509921
56	0xbed83b81	-0.42232898
57	0x3d88a647	0.0667234
58	0x3ea68d7e	0.32529825
59	0x3e7ccad5	0.2468675
60	0xbe5c6439	-0.21522607
61	0xbd560195	-0.052247602
62	0x3e2f0c7d	0.17094608
63	0xbdb23586	-0.08701615
64	0x3ee7a033	0.4523941
65	0xbe8e6148	-0.27808595
66	0xbae74612	-0.0017644784
67	0x3dc1e13f	0.094667904
68	0x3cefe96d	0.02928611
69	0x3de4acc4	0.11165765
70	0x3f04eaf2	0.51921
71	0x3ea0b308	0.3138659
72	0x3d55d1b2	0.052201934
73	0x3ecb0350	0.39650965
74	0x3efe3c3c	0.4965533
75	0xbe904c77	-0.28183338
76	0xbe814df5	-0.2525479
77	0xbdf9f779	-0.12205405
78	0x3c1c6645	0.009545867
79	0xbe7dc9e8	-0.24784052
80	0x3ec14012	0.37744194
81	0x3e720574	0.23634893
82	0x3ea50421	0.32229713
83	0xbe65996d	-0.22421809
84	0x3eddf7ae	0.43353027
85	0xbe5df927	-0.21677075
86	0x3e1c693d	0.1527452
87	0x3dcc12f4	0.099645525
88	0xbe736457	-0.23768745
89	0x3e94d4d8	0.29068637
90	0xbd8191d8	-0.063266456
91	0x3ee6a3b9	0.45046785
92	0xbdd76d24	-0.10518864
93	0xbcae16fd	-0.021251196
94	0xbe7f3719	-0.24923362
95	0x3de00c9a	0.109399036
96	0x3e198ec5	0.14995869
97	0x3ec512a8	0.38490796
98	0xbe3dc6ea	-0.18532911
99	0x3e21564f	0.1575558
100	0x3e79a37d	0.24378772
101	0x3ea9d470	0.3316989
102	0xbe9c7fbf	-0.30566213
103	0xbeab4783	-0.33452997
104	0xbcd2aa82	-0.02571607
105	0x3b0edee5	0.0021800336
106	0x3d210e0a	0.03932003
107	0x3ca9c0e8	0.020721868
108	0x3ec5a950	0.38605738
109	0x3e9a28cc	0.3010925
110	0x3d4078c8	0.046990186
111	0xbe3d324e	-0.18476221
112	0xbe43087e	-0.19046208
113	0xbd3d7c8a	-0.046261348
114	0x3da0e2d8	0.07855767
115	0x3df1cb98	0.118064106
116	0x3e5890b4	0.2114895
117	0xbdc520da	-0.096254066
118	0x3e8c315b	0.27381405
119	0xbe831233	-0.25599822
120	0x3e432e5f	0.19060658
121	0xb746ca0b	-1.18487615e-05
122	0x3dc2feb5	0.09521238
123	0xbe1245ac	-0.1428439
124	0xbe1d617c	-0.15369219
125	0xbee9eee1	-0.45690063
126	0xbd78e532	-0.060765453
127	0x3e4bc1a1	0.19898082
128	0x3eca2680	0.39482498
129	0xbe34d412	-0.17659023
130	0x3e3a4a78	0.1819247
131	0xbe73084f	-0.23733638
132	0xbcc75319	-0.024331616
133	0x3c0e3f54	0.008682091
134	0x3efda536	0.49540108
135	0x3d6a36c3	0.05718113
136	0x3ecba0d9	0.39771155
137	0x3f09749a	0.53693545
138	0x3dbdf444	0.092751056
139	0x3e95427d	0.2915229
140	0xbe2fb72a	-0.17159715
141	0x3edf4a37	0.4361131
142	0x3f05eb35	0.5231202
143	0x3ec1e97b	0.37873444
144	0x3f028da2	0.50997365
145	0x3dbfabe0	0.093589544
146	0xbe1501ee	-0.14551517
147	0x3ea9fc49	0.3320029
148	0xbebad314	-0.36489165
149	0x3edf5c58	0.4362514
150	0xbc41c4f8	-0.011826746
151	0x3de77ad7	0.11302727
152	0x3e83f725	0.25774494
153	0x3e7b1342	0.24519065
154	0xbd496547	-0.04916885
155	0x3ed7e92b	0.4217008
156	0x3da37584	0.07981399
157	0xbd541637	-0.051779
158	0x3ce26e00	0.027640343
159	0xbd303327	-0.043017533
160	0xbe2025ef	-0.1563947
161	0x3eae64ac	0.34061182
162	0xbd32d1d9	-0.043657158
163	0x3d9d8056	0.07690494
164	0xbe47b74d	-0.19503517
165	0xbea16215	-0.31520143
166	0xbe90ba4b	-0.2826713
167	0xbe5a1dff	-0.21300505
168	0xb9070367	-0.00012875871
169	0x3e0733d0	0.13203359
170	0x3e7e5f81	0.2484112
171	0x3c5a0972	0.013307916
172	0x3e5603e5	0.20899923
173	0xbde4caee	-0.11171518
174	0x3e13a5f3	0.14418773
175	0x3bf8a521	0.0075880443
176	0x3dc2c28e	0.095097646
177	0x3e8c77d8	0.27435184
178	0x3ee39d22	0.4445582
179	0x3d346e07	0.044050243
180	0x3cba11b6	0.022713523
181	0x3ef709c1	0.4824963
182	0x3e01b483	0.12666516
183	0x3cc8a2a4	0.024491616
184	0x3e8592de	0.26088613
185	0x3e6e364f	0.23262905
186	0xbc83bf3d	-0.0160824
187	0xbdafc59b	-0.08582612
188	0xbe7056bc	-0.23470587
189	0x3ccb085a	0.024784256
190	0x3e230868	0.15921175
191	0x3e7855b7	0.24251448
192	0xbd864f63	-0.065581106
193	0x3e86fb81	0.26363757
194	0x3df720c4	0.120667964
195	0xbe7688fc	-0.24075693
196	0x3c34a602	0.0110259075
197	0x3e240ef1	0.16021325
198	0x3e8de93b	0.27717003
199	0x3a10facc	0.0005530536
200	0xbea31c64	-0.31857598
201	0xbea10080	-0.31445694
202	0x3de7b0e3	0.11313035
203	0x3e8c9158	0.27454638
204	0xbe6b6a47	-0.2298976
205	0x3df60eca	0.120145395
206	0x3c7c77a5	0.015409385
207	0xbe6715fe	-0.22566983
208	0x3e8146dd	0.25249377
209	0xbe12e7b6	-0.14346203
210	0xbed31251	-0.41224912
211	0x3d80e49f	0.06293606
212	0xbeedcc91	-0.46445134
213	0x3d9b6b6d	0.07588849
214	0x3e9e377e	0.30901712
215	0xbdd3190e	-0.10307513
216	0xbdd9d7d9	-0.10636873
217	0xbeda2ab1	-0.42610696
218	0xbed79ff8	-0.42114234
219	0x3ebf26bf	0.37334248
220	0x3e6ca4c0	0.23109722
221	0x3e5fdb09	0.21860899
222	0xbe19e73e	-0.15029618
223	0xbe749f2d	-0.23888846
224	0x3ed03613	0.40666255
225	0xbe288c5a	-0.1645979
226	0xbe6e7a02	-0.2328873
227	0x3da8d828	0.082443535
228	0x3edf4dc5	0.4361402
229	0xbd5c5a04	-0.053796783
230	0x3b6f3e42	0.0036505614
231	0x3e3b9460	0.1831832
232	0x3ec30ecd	0.3809723
233	0x3ee9b5a4	0.45646393
234	0x3f1f0fdd	0.6213358
235	0xbe9b6b53	-0.3035532
236	0xbe824e61	-0.25450423
237	0x3bcc3833	0.0062322854
238	0xbef4f4cf	-0.47843024
239	0x3eb168f8	0.34650397
240	0x3e0b55eb	0.13606994
241	0x3d883531	0.066507705
242	0xa6affeb3	-1.2212101e-15
243	0xb0ae0262	-1.2660843e-09
244	0x3dd4ff69	0.10400278
245	0x3e950c6d	0.29111043
246	0x3c7c94d0	0.015416339
247	0x3e4eb092	0.20184544
248	0x3e971002	0.295044
249	0xbecf3659	-0.4047115
250	0x3f249122	0.64283955
251	0xbd1c76a1	-0.03819907
252	0x3ebc423c	0.36769283
253	0x3e41cf88	0.18926823
254	0xbc4f722b	-0.012661497
255	0x3dc0059e	0.093760714

fc3.bias f4 [10]
0	0xbeb85483	-0.36001977
1	0x3e4ea840	0.2018137
2	0x0b68e614	4.4854666e-32
3	0xbe207855	-0.15670903
4	0x3eddf9da	0.43354684
5	0x3f889e3a	1.0673287
6	0x3e4d1b06	0.2002984
7	0xbbb00333	-0.005371475
8	0xaf01935c	-1.1784834e-10
9	0xbd42b514	-0.04753597

fc4.weight f4 [7, 10]
0	0xbec2f9fe	-0.38081354
1	0xbeefa198	-0.46802974
2	0x348aeb2c	2.5875613e-07
3	0x401eec8c	2.4831877
4	0xbe80a18a	-0.25123245
5	0xbf8b4d6d	-1.0883003
6	0xbee74592	-0.45170265
7	0x397cc409	0.00024105622
8	0xb95e91f8	-0.00021225947
9	0x3f3f993c	0.7484319
10	0x3c8f0e29	0.017462807
11	0xbfadaafa	-1.3567803
12	0x368605d2	3.994189e-06
13	0xbe23ae44	-0.15984446
14	0x3f24bde5	0.64352256
15	0xbedf90dc	-0.43665206
16	0x4015a9df	2.338493
17	0xbcad09f9	-0.02112292
18	0xb4f0f196	-4.487926e-07
19	0xbf862d3b	-1.0482553
20	0x3ea369d1	0.3191667
21	0x3e1bd790	0.1521895
22	0xb3739ab7	-5.671856e-08
23	0xbfb9fd5f	-1.4530448
24	0x3eb84cb9	0.35996035
25	0xbf99ddad	-1.2020775
26	0xbeab8da7	-0.3350651
27	0x3bf6204d	0.007511175
28	0xb828bfee	-4.023307e-05
29	0x40146ed5	2.3192647
30	0xbf4d9b4e	-0.803151
31	0x3ee90a7c	0.4551581
32	0x34c5f650	3.6873325e-07
33	0xbe107395	-0.14106591
34	0x40185360	2.3800888
35	0x3ef58641	0.4795399
36	0xbf9448ea	-1.1584752
37	0x3a2feb9e	0.000671083
38	0x368dfedc	4.231797e-06
39	0xbf832db2	-1.024832
40	0x401999b2	2.4000058
41	0xbf11e8b4	-0.569957
42	0xb3d1b98c	-9.766072e-08
43	0xbe773907	-0.24142848
44	0xbf076f19	-0.52903897
45	0x3e570320	0.20997286
46	0xbf80f069	-1.0073367
47	0xba8d2a75	-0.00107701
48	0x366895c9	3.465788e-06
49	0xbf46e7e4	-0.77697587
50	0xbdb076d1	-0.086164124
51	0x40254061	2.5820544
52	0xb4540484	-1.9745681e-07
53	0x3da9e29a	0.08295174
54	0xbfad4588	-1.3536844
55	0xbedace4b	-0.42735514
56	0x3eb5ce6b	0.35509047
57	0x3af3a13c	0.001858748
58	0x3619d2f2	2.2921563e-06
59	0xbf457920	-0.7713795
60	0xbfb44cf6	-1.4085987
61	0xbf468a76	-0.77555025
62	0x347416be	2.2732544e-07
63	0xbf0fe604	-0.5621035
64	0xbf9b7f2c	-1.2148185
65	0x401d0e75	2.4540074
66	0x3e8aff7f	0.27148053
67	0x3bb88777	0.005631383
68	0x3687f807	4.0521877e-06
69	0x3f0f38d1	0.5594607

fc4.bias f4 [7]
0	0xbe251b9f	-0.16123818
1	0xbc773f1f	-0.015090733
2	0xbe0ed81a	-0.13949624
3	0x3e1f10ec	0.15533799
4	0xbdd0c81b	-0.10194417
5	0x3d70ba98	0.0587717
6	0x3e4fc5f2	0.20290354
