models/AudioClassifier.onnx (onnx, 103315 bytes, 7 tensors)

fc1.weight f4 [100, 33]
-0.18368065 -0.0024359804 -0.28431422 -0.39087203 0.28884828 -0.6205027 0.9425311 -0.33008146
-0.14849414 -0.29553998 0.25439286 0.21069072 -0.15964402 -0.024733564 0.14906926 -0.542669
0.079954885 -0.021033922 -0.36351126 0.05770379 0.18300943 -0.3239082 0.10470869 -0.13624859
0.54381496 -0.2039096 -0.11477394 0.14025702 0.11462154 0.0331122 -0.16339816 0.6505762
0.56547993 -0.01796093 0.14922826 -0.059886284 0.23787263 -0.18929647 0.5046937 -0.10755551
0.40760055 -0.51504624 -0.31667718 -0.09573186 0.06797828 0.06072433 0.08646557 0.47918174
0.3218542 -0.09655937 -0.12679566 0.63820624 -0.82610154 0.47504345 0.014014972 -0.0049344962
0.052013163 -1.1483465 -0.70533353 0.48348528 -0.34562072 0.27829975 0.44732156 -0.30796528
-0.38412812 0.28293252 -0.21164732 -0.046952132 -0.13665983 -0.4507219 0.016358478 0.17634645
0.088606894 -0.7623075 0.3338376 -1.0867432 -0.08358676 -0.53482395 0.22122131 0.4171671
0.21247002 -0.21147053 0.1792069 -0.1272317 0.0074180444 -0.046647437 0.58135444 -0.14678933
0.21277198 0.03692027 0.28331563 -0.86578715 1.0007169 0.44117308 -0.039295536 -0.102412894
0.91189885 0.06409046 -0.30589965 -0.046334352 -0.115010716 0.22482921 -0.11504124 -0.58679223
-0.64416856 0.34093413 0.3370996 -0.15558831 -0.014842875 -0.05936164 0.6298246 0.2609655
0.14570697 -0.60612154 0.13406561 0.0053177313 0.36888483 -0.27754638 -0.38431174 0.91286683
-0.70004654 -0.2675061 -0.033150468 0.33744702 0.17873852 0.043538418 -0.37566802 0.043162104
0.36008865 0.21275292 -0.19356951 -0.08394546 -0.06630003 0.19356301 -0.23209994 0.40383178
-0.31572768 0.36794186 0.2565236 0.29288825 0.5257166 0.27511075 0.9699687 -0.3864716
-0.46388233 -0.10496294 -0.95639545 0.17361766 0.336456 0.20025611 0.19234426 0.19942623
0.4871576 -0.08816511 -0.2641982 0.48545805 0.19249669 -0.2392165 0.23146269 -0.6068738
-0.542034 -0.29155064 -0.95753074 -0.1466334 -0.31106663 -0.09740175 0.1934452 -0.12193716
0.42385852 0.0049625295 -0.37480727 -0.04681528 0.3190287 0.008701073 -0.8085011 0.537516
0.33961457 0.67723346 0.25454208 -0.4468746 0.36885533 0.18879478 -1.0627255 -0.11818592
0.06951378 0.8728809 -0.21047078 -0.16920222 -0.36004022 0.45829955 -0.5981484 -0.19398697
0.6193474 -0.15381812 -0.05365089 0.46285474 -0.9417865 -0.29613417 -0.033314824 -0.1995987
0.104945645 -0.31255713 -0.022816285 0.18490496 0.4247689 0.07377445 0.5115967 0.32605597
-0.91177386 -0.6288958 0.0629782 0.522604 -0.4923326 0.8402351 -1.1157175 -0.041969042
0.36661506 0.3775705 -0.15125488 -0.6165837 0.45045695 -0.3167349 0.27294227 0.00064454717
0.18300837 0.005259748 -0.42880327 0.058617067 0.59580857 0.57882434 -0.86401373 -0.045410547
-0.24652325 0.17002171 0.023304947 -0.04918721 -0.048066877 0.37866518 -0.16788733 0.039720576
0.15795247 -0.18713416 0.113250874 0.28918615 0.5699947 -0.49671087 -0.6312408 -0.18373686
0.31441572 -0.49099505 -0.2302583 0.05616043 -0.26572368 0.24960044 0.51315945 -0.2899369
00000000: c816 3cbe f8a4 1fbb a291 91be 6120 c8be
00000010: ece3 933e 44d9 1ebf b849 713f 7000 a9be
00000020: d90e 18be 0451 97be c83f 823e 4fbf 573e
00000030: b979 23be 0b9e cabc 9da5 183e 5bec 0abf
00000040: 63bf a33d 554f acbc 261e babe cf5a 6c3d
00000050: d366 3b3e 4cd7 a5be 8271 d63d c084 0bbe
00000060: 7537 0b3f aecd 50be 990e ebbd 899f 0f3e
00000070: b3be ea3d a9a0 073d d951 27be 298c 263f
00000080: 4bc3 103f cd22 93bc 4bcf 183e 524b 75bd
00000090: e294 733e efd6 41be 9b33 013f 1046 dcbd
000000a0: 05b1 d03e 12da 03bf 8323 a2be 110f c4bd
000000b0: 3238 8b3d 13ba 783d dc14 b13d 4f57 f53e
000000c0: 13ca a43e ebc0 c5bd b9d6 01be 7c61 233f
000000d0: 647b 53bf e538 f33e 0e9f 653c 8eb1 a1bb
000000e0: c10b 553d 05fd 92bf bd90 34bf 628b f73e
000000f0: 33f5 b0be 4e7d 8e3e 5507 e53e a0ad 9dbe
00000100: 71ac c4be 88dc 903e 13ba 58be e150 40bd
00000110: 8ef0 0bbe 05c5 e6be 3702 863c 2a94 343e
00000120: 8877 b53d 9626 43bf c3ec aa3e 671a 8bbf
00000130: 892f abbd 39ea 08bf d787 623e ed96 d53e
00000140: be91 593e bb8b 58be 0382 373e 0749 02be
00000150: 1113 f33b 6211 3fbd a5d3 143f f14f 16be
00000160: e6e0 593e b639 173d bf0e 913e 3aa4 5dbf
00000170: 7e17 803f 70e1 e13e 5bf4 20bd dabd d1bd
00000180: 3472 693f dc41 833d e19e 9cbe 17c9 3dbd
00000190: bd8a ebbd a139 663e be9a ebbd 0438 16bf
000001a0: 3be8 24bf eb8e ae3e 5298 ac3e 8b52 1fbe
000001b0: 882f 73bc 3125 73bd 2f3c 213f 459d 853e
000001c0: 3534 153e c82a 1bbf 7f48 093e 5d40 ae3b
000001d0: 79de bc3e 8f1a 8ebe 82c4 c4be a4b1 693f
000001e0: 4036 33bf 8ff6 88be c9c8 07bd dbc5 ac3e
000001f0: 3b07 373e 5755 323d 8f57 c0be bfca 303d
00000200: 8a5d b83e e7db 593e 1637 46be 99eb abbd
00000210: 4fc8 87bd 6235 463e 9bab 6dbe 0ac3 ce3e
00000220: 0fa7 a1be e062 bc3e 1057 833e 73f5 953e
00000230: 5d95 063f 51db 8c3e de4f 783f 9bdf c5be
00000240: fc81 edbe cff6 d6bd 55d6 74bf d4c8 313e
00000250: f643 ac3e f00f 4d3e e5f5 443e 6436 4c3e
00000260: b96c f93e e98f b4bd fd44 87be f58d f83e
00000270: da1d 453e 2cf5 74be 8e04 6d3e 155c 1bbf
00000280: bdc2 0abf 2046 95be bc20 75bf 1127 16be
00000290: 2044 9fbe 927a c7bd 8016 463e 31ba f9bd
000002a0: fc03 d93e b79c a23b bde6 bfbe 61c1 3fbd
000002b0: bb57 a33e f28e 0e3c eef9 4ebf a69a 093f
000002c0: f6e1 ad3e 2c5f 2d3f 5753 823e bfcc e4be
000002d0: 9bda bc3e 6b53 413e 6407 88bf 760b f2bd
000002e0: 3e5d 8e3d 1f75 5f3f a785 57be 5943 2dbe
000002f0: 3157 b8be 3da6 ea3e 4120 19bf 85a4 46be
00000300: 8d8d 1e3f 7f82 1dbe 09c1 5bbd 4cfb ec3e
00000310: ec18 71bf e69e 97be 2075 08bd 9a63 4cbe
00000320: beed d63d 7d07 a0be 38e9 babc ba57 3d3e
00000330: 4f7b d93e 0f17 973d 00f8 023f cff0 a63e
00000340: 036a 69bf 51ff 20bf b7fa 803d 60c9 053f
00000350: 0513 fcbe a619 573f d5cf 8ebf bbe7 2bbd
00000360: f8b4 bb3e ec50 c13e 8fe2 1abe 6ed8 1dbf
00000370: 4ba2 e63e 142b a2be 17bf 8b3e d4f6 283a
00000380: 8c66 3b3e f759 ac3b 1a8c dbbe 7318 703d
00000390: e986 183f d52d 143f 0130 5dbf 6900 3abd
000003a0: 9770 7cbe 2c1a 2e3e 04ea be3c 8778 49bd
000003b0: c6e1 44bd 67e0 c13e a8ea 2bbe 0bb2 223d
000003c0: 4bbe 213e 19a0 3fbe 13f0 e73d 3510 943e
000003d0: 2ceb 113f e350 febe ff98 21bf 8425 3cbe
000003e0: 19fb a03e b463 fbbe d5c8 6bbe 7b08 663d
000003f0: ef0c 88be 4297 7f3e 6b5e 033f 9c72 94be

fc1.bias f4 [100]
0.05604013 -0.41452378 0.18169987 -0.05215254 0.02467353 0.002644566 0.39623165 -0.28413507
0.5887126 0.25793952 -0.27667987 -0.058124848 0.09173002 -0.061721276 -0.10634705 -0.3779839
-0.24865057 -0.5720535 0.21474144 0.35028476 0.23125641 0.15940586 -2.302441e-39 -0.742875
0.08547439 -0.026789527 0.566002 0.1497183 -0.04117179 -0.14464569 -0.776617 -0.04305285
-2.091818e-39 -0.30055755 0.031556852 -0.16028926 -4.84736e-40 0.09226396 0.18006869 0.03761546
0.17807975 0.42316434 0.061324544 0.43688312 0.26489025 -0.38779715 -0.21210739 -0.5621006
-0.5847089 -0.14021052 -0.061647 0.3796751 0.15855473 0.0573589 -0.93421346 -0.07888232
-0.11626588 -0.22755803 -0.47166392 -0.009516418 0.35666195 2.0899993e-31 -0.1560184 0.09325292
-0.10299184 0.44288126 -0.017505037 0.07846057 -0.07757845 0.032154854 -0.00083385105 -0.09427511
-0.014932882 -0.07158703 0.12933746 -0.4241244 0.27775717 -0.21037257 -0.2983211 -0.054577418
0.021944389 0.094593704 0.25798988 -0.13923877 -0.056751035 0.10752695 -0.40740135 0.04843451
-0.22601092 -0.18392622 -0.08331512 0.12942234 -0.06439402 0.02847284 -0.14419858 -0.48203662
0.049909737 3.845816e-39 0.124573804 -0.0706237
00000000: 568a 653d 763c d4be 880f 3a3e e79d 55bd
00000010: 2520 ca3c 7450 2d3b e0de ca3e 277a 91be
00000020: deb5 163f a610 843e fca8 8dbe 5214 6ebd
00000030: f3dc bb3d 73cf 7cbd 7bcc d9bd 1b87 c1be
00000040: 419e 7ebe 1972 12bf 2ee5 5b3e 8658 b33e
00000050: 7bce 6c3e 4a3b 233e 4512 1980 0e2d 3ebf
00000060: 320d af3d b675 dbbc 82e5 103f c14f 193e
00000070: c0a3 28bd 001e 14be 5fd0 46bf 2f58 30bd
00000080: 23c7 1680 aee2 99be c241 013d de22 24be
00000090: 3f47 0580 e3f4 bc3d ed63 383e ab12 1a3d
000000a0: 8a5a 363e ffa8 d83e 722f 7b3d 25af df3e
000000b0: b29f 873e 598d c6be ae32 59be d3e5 0fbf
000000c0: 7caf 15bf 5993 0fbe 9181 7cbd c664 c23e
000000d0: 2c5c 223e 2af1 6a3d 9d28 6fbf 0e8d a1bd
000000e0: ce1c eebd f904 69be ef7d f1be c0ea 1bbc
000000f0: 659c b63e 12a6 870c 4ac3 1fbe 63fb be3d
00000100: 63ed d2bd 55c1 e23e b966 8fbc efaf a03d
00000110: 73e1 9ebd cfb4 033d cc96 5aba 4f13 c1bd
00000120: 0ca9 74bc 399c 92bd 0a71 043e d526 d9be
00000130: 3036 8e3e e86b 57be 8bbd 98be 928c 5fbd
00000140: b8c4 b33c 58ba c13d 4017 843e 9c94 0ebe
00000150: c673 68bd 1737 dc3d e996 d0be 4463 463d
00000160: 686f 67be 2857 3cbe 1ea1 aabd 4a87 043e
00000170: 03e1 83bd e03f e93c cba8 13be 81cd f6be
00000180: 276e 4c3d 92e0 2900 8d20 ff3d 29a3 90bd

fc2.weight f4 [200, 100]
0.006325459 0.15838757 0.33456028 0.14089572 0.09041863 0.17423336 -0.29274613 -0.16555691
-0.04108494 -0.19288722 -0.21019672 -0.01762807 -0.30343148 -0.08258822 -0.112505056 -0.067095995
0.11016708 -0.009181259 -0.08028084 0.080163285 -0.21057951 0.18171714 8.4257544e-17 -0.02466381
-0.09716296 -0.01358258 -0.08995857 -0.24096131 0.28160858 0.040160302 -0.10153536 -0.2610224
4.135076e-39 0.11073587 -0.33240613 0.21531951 -4.247762e-39 0.059423998 -0.15972093 -0.21452156
-0.43503532 -0.4306923 -0.13385406 0.05928787 -0.061026923 -0.23052417 0.04199084 0.18167259
0.13125847 -0.0018188948 -0.16799766 -0.34096986 -0.018996535 -0.110644445 -0.67935175 -0.026033206
0.08462539 -0.17294371 -0.13917798 -0.010348381 -0.4456868 -3.462837e-33 0.021731943 -0.06588459
-0.48344743 -0.55017203 0.5111228 -0.007462572 -0.17960012 -0.021758702 -0.20931618 -0.07622981
0.05480956 0.27238622 -0.07540075 0.13842277 -0.020534925 0.013171741 -0.22389345 0.057293292
-0.42359382 -0.13591199 -0.183177 0.12854157 -0.003599833 -0.20396039 0.019174462 -0.35522315
0.040366065 -0.07325957 -0.06856564 -0.3509141 -0.26047552 -0.03357975 -0.0050628637 -0.108787924
-0.3863695 5.557901e-39 0.026437113 -0.15871923 0.39294308 0.013663908 -0.027829396 0.192982
-0.09809445 -0.09579502 0.13268012 -0.030802457 0.035571925 -0.033230748 0.1340359 0.040405173
-0.29154763 -0.14350076 0.0451587 -0.012666913 0.12131042 -0.27676618 -0.31159824 -0.11453441
-0.044770796 -0.06997763 1.9226506e-25 -0.08271559 -0.093338884 -0.40361094 0.13198432 -0.5103009
-0.23320316 0.1532755 -0.17941844 -0.09768135 -1.9942e-39 -0.10965934 -0.048378024 -0.19300805
-3.791223e-39 -0.108398356 -0.12614252 0.097707026 0.12322535 -0.050155953 0.08876118 0.07671102
-0.06407248 0.13389744 -0.7465708 0.0361211 -0.1790789 0.014547564 -0.20034148 0.1862043
-0.036594756 -0.23844115 -0.12924036 -0.116099715 0.14523728 0.18131728 -0.22063373 -0.06015136
-0.04151691 -3.3957399e-31 -0.27204517 0.31406617 -0.07738292 -0.11743008 0.28228652 0.16914925
0.14046443 -0.2814643 0.04222864 -0.2082153 0.1536706 -0.002750861 -0.06522558 -0.20572758
-0.12193942 -0.22767766 0.2073736 -0.30005348 0.13396245 -0.20213695 -0.07551299 0.0026663814
-0.24272268 0.06242704 -0.23168468 -0.482295 -0.01971805 -0.32006603 -0.26950163 -0.49743435
-0.09742743 0.45559424 0.06715696 -0.13185985 0.20381017 1.980574e-39 0.08275097 -0.021681545
0.020531768 0.16078337 -0.17782146 -0.03812139 -0.36058843 -0.15366225 -0.20143223 0.08135715
0.013168583 0.24275246 0.23137997 -0.051965687 -0.105417274 0.33973026 -0.050654512 0.17775778
0.19176704 -0.1771976 0.009722817 0.04130807 -0.07464274 -0.028725935 6.2721697e-22 0.051944397
-0.13547415 0.13300058 -0.066108175 0.13120744 -0.13140167 0.2266382 -0.061082873 -0.3784019
-1.823476e-39 -0.13190432 0.13949864 0.15022953 -2.994963e-39 -0.14137587 -0.07579942 -0.28775647
0.07492278 -0.065738805 -0.14377241 -0.024293276 0.15800408 -0.56039786 -0.30597302 -0.2618029
-0.21910188 -0.4256903 0.06294022 -0.1885469 -0.29509896 -0.28648725 -0.04303779 -0.07127541
00000000: cc45 cf3b 5a30 223e 7c4b ab3e f846 103e
00000010: 672d b93d 3b6a 323e d2e2 95be c087 29be
00000020: af48 28bd 3a84 45be cf3d 57be be68 90bc
00000030: 5f5b 9bbe 0324 a9bd 0d69 e6bd a069 89bd
00000040: 479f e13d fe6c 16bc 486a a4bd a62c a43d
00000050: 28a2 57be 0f14 3a3e e048 c224 c20b cabc
00000060: 60fd c6bd 7889 5ebc 333c b8bd 90be 76be
00000070: 002f 903e 217f 243d c5f1 cfbd baa4 85be
00000080: e906 2d00 7dc9 e23d 2331 aabe b87c 5c3e
00000090: 0841 2e80 9466 733d e28d 23be 8aab 5bbe
000000a0: f3bc debe b383 dcbe 0a11 09be d6d7 723d
000000b0: 5ef7 79bd 870e 6cbe 96fe 2b3d 6108 3a3e
000000c0: 9f68 063e fb67 eeba 9407 2cbe 9a93 aebe
000000d0: 9f9e 9bbc 8e99 e2bd ffe9 2dbf 9743 d5bc
000000e0: 1450 ad3d 2818 31be ac84 0ebe 418c 29bc
000000f0: 0f31 e4be 33d7 8f89 3007 b23c 80ee 86bd
00000100: 6c86 f7be 13d8 0cbf f2d8 023f 9788 f4bb
00000110: 18e9 37be 4e3f b2bc fb56 56be 601e 9cbd
00000120: fd7f 603d 3576 8b3e b56b 9abd b3be 0d3e
00000130: dc38 a8bc 49ce 573c 5344 65be 5fac 6a3d
00000140: 4ae1 d8be 832c 0bbe c092 3bbe 67a0 033e
00000150: 2deb 6bbb feda 50be c313 9d3c cfdf b5be
00000160: e356 253d 1d09 96bd 246c 8cbd 03ab b3be
00000170: 0c5d 85be ec8a 09bd 61e6 a5bb 34cc debd
00000180: 39d2 c5be 2b85 3c00 a592 d83c 4b87 22be
00000190: d62f c93e 95de 5f3c 79fa e3bc 139d 453e
000001a0: bee5 c8bd 2e30 c4bd 4cdd 073e 6f55 fcbc
000001b0: deb3 113d f71c 08bd b540 093e e57f 253d
000001c0: bb45 95be ddf1 12be 54f8 383d e288 4fbc
000001d0: 9971 f83d 4cb4 8dbe ce89 9fbe 0491 eabd
000001e0: 9561 37bd 6f50 8fbd 3b03 6e16 cb66 a9bd
000001f0: 7528 bfbd 18a6 cebe e626 073e 14a3 02bf
00000200: cfcc 6ebe 41f4 1c3e 78b9 37be 290d c8bd
00000210: 05b7 1580 1395 e0bd 0928 46bd e7a3 45be
00000220: 6348 2980 f5ff ddbd 812b 01be 9f1a c83d
00000230: 935d fc3d 5470 4dbd 6cc8 b53d ab1a 9d3d
00000240: 6f38 83bd 691c 093e 441f 3fbf b8f3 133d
00000250: 7660 37be e858 6e3c 5126 4dbe 57ac 3e3e
00000260: 62e4 15bd eb29 74be 9657 04be b0c5 edbd
00000270: 15b9 143e 3dab 393e cfed 61be 4661 76bd
00000280: a30d 2abd 6865 dc8c 8149 8bbe 48cd a03e
00000290: f07a 9ebd 2f7f f0bd dc87 903e 7635 2d3e
000002a0: e8d5 0f3e 171c 90be f0f7 2c3d 6436 55be
000002b0: d35b 1d3e ca47 34bb fd94 85bd 40aa 52be
000002c0: 60bb f9bd 5524 69be bf59 543e 9ca0 99be
000002d0: 742d 093e fdfc 4ebe 8ea6 9abd 75be 2e3b
000002e0: 4b8c 78be 7fb3 7f3d c03e 6dbe 5fef f6be
000002f0: bf87 a1bc b2df a3be 1efc 89be b7af febe
00000300: 0888 c7bd a643 e93e 9789 893d 4506 07be
00000310: 9db3 503e 0991 1500 5779 a93d 7f9d b1bc
00000320: 3d32 a83c 65a4 243e d416 36be 2d25 1cbd
00000330: 0c9f b8be a359 1dbe 4044 4ebe 949e a63d
00000340: 0ac1 573c 1a94 783e dfee 6c3e f9d9 54bd
00000350: 03e5 d7bd 20f1 ad3e 1b7b 4fbd 2306 363e
00000360: 945e 443e 4a73 35be 734c 1f3c a732 293d
00000370: 4bde 98bd a752 ebbc 9090 3d1c a6c3 543d
00000380: bcb9 0abe 4e31 083e b963 87bd 3e5b 063e
00000390: 298e 06be d813 683e 0932 7abd e5bd c1be
000003a0: 1cdb 1380 ed11 07be bbd8 0e3e c5d5 193e
000003b0: bd9c 2080 d6c4 10be ba3c 9bbd d154 93be
000003c0: 1d71 993d 11a2 86bd 1339 13be b102 c7bc
000003d0: d2cb 213e 3c76 0fbf 7fa8 9cbe 080b 86be
000003e0: 3e5c 60be 14f4 d9be cde6 803d 7012 41be
000003f0: 3617 97be 75ae 92be 6548 30bd d8f8 91bd

fc2.bias f4 [200]
-0.49091673 -0.34749967 -0.33542117 -0.5129618 -0.7209073 -0.41487786 0.46860263 0.26159352
-0.33633932 -0.34312436 0.18636581 -0.45267376 -0.39011496 0.124799825 -0.29927295 -0.35336694
0.06514083 -0.5156757 -0.08648622 -0.32059103 -0.072042756 -0.44457296 0.10021273 0.013256098
0.7608006 -0.039857574 0.07225065 0.15348127 -0.116409995 -0.2074818 0.32092756 -0.13210888
-0.4066116 -0.06805842 -0.18237285 -0.10285929 -0.25679135 0.13313624 -0.104252405 -0.27626717
-0.31314623 0.06794251 0.26921067 0.16420686 -0.54208046 0.040735338 0.04464827 0.5578907
1.01643 -0.43699113 -0.21396044 0.30020517 -0.19071005 0.17567909 -0.12946802 -0.09807152
0.75625914 0.2035722 -0.59346914 -0.19880064 0.26247722 -0.083788365 0.3017629 -0.6122658
-0.3290677 -0.27086204 0.18776774 0.08167544 -0.029220037 -0.6937753 -0.39065588 0.14027908
-0.41085726 -0.18630436 -0.07505608 0.42512566 0.06901823 -0.38632673 -0.49378937 0.243041
-0.46164712 0.078879654 0.32346752 0.25650173 -0.081608474 -0.0072178547 -0.01169045 -0.61832744
-0.1868837 0.09653062 -0.06277192 -0.037866913 0.71097577 -0.25273132 -0.0009691467 -0.25482884
-0.15747568 -0.3725666 -0.031026743 0.130844 0.6660427 -0.45248166 -0.9904327 0.45530504
0.17207886 -0.052740876 -0.12570149 -0.1143203 0.36851084 -0.040160842 -0.0138031505 0.011843686
-0.334655 0.24884604 -0.32212654 -0.027295383 -0.15223327 0.494411 0.11588262 -0.43312213
-0.30885962 -0.32337424 -0.34290758 -0.16048811 -0.18888947 -0.76419985 0.11802618 0.49774042
0.111242436 -0.15175846 0.17303169 -0.5509309 -0.29062328 -0.035407286 -0.36553383 0.41191798
-0.23017763 -0.2337912 0.06975128 -0.33550248 0.04698699 0.4996125 0.3246081 0.7252694
0.01962767 -0.26750463 0.48500168 -0.16509385 -0.7804396 0.043113705 0.043511707 0.06617801
-0.23969568 -0.026588362 -0.42548895 -0.52022475 0.50377536 0.16486049 -0.1328895 -0.008136423
-0.45891467 0.25374052 0.30930594 -0.60414916 -0.14716242 -0.14159265 -0.12991825 -0.4166939
-0.2689338 -0.7892838 -0.21292225 -0.69672954 0.14294757 -0.13305956 -0.13195592 -0.11544407
0.23017812 -0.406332 0.2277646 0.39704674 0.014804487 -0.008346214 -0.5454809 -0.024070775
-0.16115914 -0.13256818 -0.8608923 0.37897202 -0.29051396 0.35866275 -1.429844e-39 0.3520386
-0.33070824 -0.5213922 -0.6561821 0.602124 0.01236681 0.09627988 0.61838853 -0.83222026
00000000: 7059 fbbe 7aeb b1be 53bc abbe 7751 03bf
00000010: 618d 38bf df6a d4be afec ef3e 96ef 853e
00000020: ab34 acbe ffad afbe aed6 3e3e dbc4 e7be
00000030: 26bd c7be 0d97 ff3d 4e3a 99be 83ec b4be
00000040: 8e68 853d 5303 04bf b01f b1bd 8224 a4be
00000050: 278b 93bd 119f e3be 553c cd3d 1b30 593c
00000060: d4c3 423f b241 23bd 26f8 933d 322a 1d3e
00000070: 5d68 eebd 1c76 54be 9e50 a43e 8d47 07be
00000080: 652f d0be 3762 8bbd f3bf 3abe e4a7 d2bd
00000090: 287a 83be de54 083e 4982 d5bd e472 8dbe
000000a0: b454 a0be 7125 8b3d fbd5 893e d825 283e
000000b0: c9c5 0abf 19da 263d 1be1 363d edd1 0e3f
000000c0: 611a 823f 4dbd dfbe 7218 5bbe 7eb4 993e
000000d0: 7f49 43be 38e5 333e 4493 04be b9d9 c8bd
000000e0: 339a 413f 3b75 503e 98ed 17bf 6592 4bbe
000000f0: 6a63 863e 3c99 abbd ab80 9a3e 74bd 1cbf
00000100: 907b a8be 6eae 8abe 3046 403e 7445 a73d
00000110: dc5e efbc 429b 31bf 0c04 c8be 52a5 0f3e
00000120: e25b d2be 92c6 3ebe 01b7 99bd 12aa d93e
00000130: 6e59 8d3d 9ecc c5be f6d1 fcbe bddf 783e
00000140: 035d ecbe a88b a13d 899d a53e 3254 833e
00000150: 5822 a7bd c183 ecbb 4d89 3fbc b54a 1ebf
00000160: 715e 3fbe d8b1 c53d 908e 80bd 561a 1bbd
00000170: 8202 363f 0066 81be 560e 7eba ed78 82be
00000180: 4e41 21be 0dc1 bebe cc2b febc f8fb 053e
00000190: c681 2a3f adab e7be ff8c 7dbf be1d e93e
000001a0: 7135 303e d106 58bd e4b7 00be c320 eabd
000001b0: 74ad bc3e b27f 24bd 9c26 62bc 050c 423c
000001c0: e657 abbe 7fd1 7e3e c5ed a4be 919a dfbc
000001d0: 0ae3 1bbe 7023 fd3e de53 ed3d 2fc2 ddbe
000001e0: d922 9ebe 4f91 a5be 9591 afbe ff56 24be
000001f0: 3e6c 41be 9aa2 43bf b6b7 f13d d5d7 fe3e
00000200: 13d3 e33d 9266 1bbe 382f 313e cf09 0dbf
00000210: 93cc 94be 3b07 11bd 4027 bbbe eae6 d23e
00000220: afb3 6bbe f666 6fbe c2d9 8e3d fbc6 abbe
00000230: 6e75 403d 36cd ff3e 0833 a63e 41ab 393f
00000240: 35ca a03c 5ef6 88be 2452 f83e 5d0e 29be
00000250: e4ca 47bf ff97 303d 5539 323d 5688 873d
00000260: c972 75be d6cf d9bc b0d9 d9be 732d 05bf
00000270: 6cf7 003f 30d1 283e 2f14 08be a24e 05bc
00000280: ddf6 eabe 47ea 813e 595d 9e3e 85a9 1abf
00000290: bfb1 16be aafd 10be 4a09 05be e758 d5be
000002a0: b1b1 89be 810e 4abf 4a08 5abe de5c 32bf
000002b0: d960 123e c440 08be 741f 07be f16d ecbd
000002c0: d0b3 6b3e bf0a d0be 203b 693e b649 cb3e
000002d0: 858e 723c 8fbe 08bc a3a4 0bbf 1330 c5bc
000002e0: e706 25be f4bf 07be 7063 5cbf 9f08 c23e
000002f0: 3fbe 94be a5a2 b73e d391 0f80 673e b43e
00000300: 9752 a9be f679 05bf 8dfb 27bf cc24 1a3f
00000310: 299e 4a3c 632e c53d b64e 1e3f 630c 55bf

fc3.weight f4 [10, 200]
0.4671357 -0.023620978 -0.077081434 0.28915274 0.51501405 -0.0050946064 -0.11438162 -0.35171077
0.19345066 0.040696528 0.42129552 0.26544985 -0.43457648 -0.10759941 -0.011137552 -0.27635816
-0.1292928 -0.37522498 0.028127775 0.024584394 -0.21599023 0.0720238 -0.11064559 -0.15294206
-0.82438713 0.36844382 -0.13094893 -0.28754297 0.8074393 0.38969943 -0.067117855 -0.15173195
-0.07718232 -0.12869866 0.0022553825 0.17154348 -0.26055574 0.06470246 -0.13722512 -0.19884339
-0.027952284 -0.02141929 -0.17872165 -0.26863104 0.105497755 -0.18121971 -0.16799353 -0.24766444
0.5042417 0.22615848 -0.04656103 -0.10964749 0.10652208 0.047825415 0.030366618 -0.19803701
-0.1378263 -0.1621744 -0.035297167 0.27653778 0.09159827 0.18941842 -0.18574548 0.22331963
-0.4757959 0.20651807 -0.5814928 0.35726422 -0.0047796383 0.20430684 3.787689e-05 0.20975956
-0.06993828 0.27904093 -0.0024125553 -0.1300743 -0.18083408 0.03851471 -0.011774555 -0.19196291
0.015608279 -0.11660363 -0.1966183 -0.18759835 -0.23802206 -0.09504169 -0.51433945 0.19886135
0.04980593 -0.16814004 -0.27331203 -0.0030399568 -0.46059167 -0.19785216 -0.067522496 0.18252578
0.3420914 -0.2981463 0.041474845 -0.14111914 0.03916813 -0.50567335 0.30561274 -0.11930044
-0.33939594 -0.12827848 0.00089233654 -0.08924527 -0.13742107 -0.2287188 -0.49077857 0.05102927
-0.32739595 0.17098518 0.5008567 0.19002628 -0.16702156 -0.040945318 0.11467791 -0.033357013
0.12340252 0.016406566 0.009703979 -0.02662383 -0.26686653 0.030308789 -0.10393688 0.18114905
-0.045951243 0.04740259 -0.18838693 0.25420812 -0.5068502 0.043728348 -0.4636136 -0.21515596
-0.83768535 0.28926933 0.37330022 0.060678743 0.15021382 -0.26742277 -0.035801332 -0.09202106
0.006981161 -0.021459436 0.122786716 0.05523009 0.05150311 -0.13922516 0.016545055 -0.16134588
-0.1419323 -0.11943744 0.3648015 0.37470302 0.0151122 0.14261419 0.0078106327 0.011867124
-0.19059703 -0.23186846 -0.13374494 0.093799695 -0.0025763868 -0.12622505 0.12110887 -0.3788123
-0.058005366 -0.0084896125 0.21429226 0.1729436 -0.18047251 0.36592075 -0.05282118 -0.16481668
-0.08227204 -0.6718864 0.43450373 -0.20448038 0.44256398 -0.18755442 -0.4612274 -0.12897855
-0.068717666 -0.079453334 0.08198611 -0.00031023388 0.4908591 -0.14587322 -5.7036846e-07 -0.14828221
-0.10399753 0.21505503 0.34085214 -0.6502393 0.06331731 0.020691756 0.33824655 0.28077397
-0.5905094 -0.30726382 -0.4674528 -0.17752935 -0.2627453 -0.35049415 0.5060582 0.6080282
-0.47042224 -0.4489287 -0.59239054 -0.35367876 -0.66098875 0.5111433 -0.47910485 -0.7570519
0.45494196 -0.56950235 -0.0017892688 -0.3567456 -0.7860356 -0.39908984 0.16257001 -0.15428016
-0.68560255 -0.444027 0.5232916 0.21494895 0.36937377 -0.22538619 0.45917124 0.49701947
-0.014427165 0.42563006 -0.2765408 -0.20934127 0.6240366 -0.40267166 0.3207341 -0.6281138
-0.49655315 0.48946318 0.5050185 0.4101345 -0.34283838 0.4862405 0.48037475 0.5434337
-0.7042404 -0.37445837 0.20516671 0.42139512 -0.269628 -0.5160579 -0.32144734 0.32955572
00000000: 692c ef3e c880 c1bc dfdc 9dbd d40b 943e
00000010: f6d7 033f a8f0 a6bb e940 eabd 6f13 b4be
00000020: ee17 463e 67b1 263d 0cb4 d73e 0be9 873e
00000030: cf80 debe 145d dcbd 477a 36bc d17e 8dbe
00000040: 5565 04be 7d1d c0be 386c e63c 3665 c93c
00000050: 8b2c 5dbe 3781 933d 289a e2bd d89c 1cbe
00000060: 090b 53bf aba4 bc3e 7a17 06be d538 93be
00000070: 58b4 4e3f af86 c73e 1675 89bd 9f5f 1bbe
00000080: c411 9ebd 95c9 03be 0acf 133b 18a9 2f3e
00000090: 9067 85be b982 843d be84 0cbe 9a9d 4bbe
000000a0: 30fc e4bc 8277 afbc cf02 37be 028a 89be
000000b0: 350f d83d a991 39be 7f06 2cbe bf9b 7dbe
000000c0: fc15 013f 1796 673e c7b6 3ebd dd8e e0bd
000000d0: 4028 da3d 95e4 433d 6ac3 f83c 37ca 4abe
000000e0: 5622 0dbe 0c11 26be c393 10bd 5c96 8d3e
000000f0: e097 bb3d e7f6 413e 1034 3ebe e7ad 643e
00000100: 859b f3be 7979 533e b6dc 14bf 56eb b63e
00000110: 839e 9cbb d035 513e 00de 1e38 36cb 563e
00000120: cd3b 8fbd 74de 8e3e f61b 1ebb 3332 05be
00000130: 922c 39be 9ac1 1d3d 10ea 40bc ed91 44be
00000140: deb9 7f3c e2cd eebd 4f56 49be c819 40be
00000150: 0ebc 73be 38a5 c2bd c0ab 03bf 4fa2 4b3e
00000160: 4e01 4c3d e72c 2cbe 8eef 8bbe 033a 47bb
00000170: acd2 ebbe c299 4abe 3c49 8abd 0ae8 3a3e
00000180: 9b26 af3e a2a6 98be 87e1 293d 8981 10be
00000190: c36e 203d cf73 01bf 4679 9c3e ca53 f4bd
000001a0: 4ec5 adbe 6f5b 03be b1eb 693a 39c6 b6bd
000001b0: 1cb8 0cbe 4335 6abe 5447 fbbe 1104 513d
000001c0: 71a0 a7be bd16 2f3e 2538 003f 4096 423e
000001d0: b307 2bbe 47b6 27bd 41dc ea3d 5da1 08bd
000001e0: 76ba fc3d 1067 863c 70fd 1e3c 381a dabc
000001f0: bba2 88be 234a f83c dcdc d4bd 237f 393e
00000200: 5f37 3cbd 3829 423d 81e8 40be 9127 823e
00000210: efc0 01bf 7f1c 333d c35e edbe d851 5cbe
00000220: 8c72 56bf 1c1b 943e 3521 bf3e 468a 783d
00000230: a7d1 193e a3eb 88be 6ba4 12bd 8a75 bcbd
00000240: 39c2 e43b b3cb afbc 9a77 fb3d f238 623d
00000250: edf4 523d 0a91 0ebe 7f89 873c db37 25be
00000260: b356 11be 9e9b f4bd 43c7 ba3e 13d9 bf3e
00000270: 2999 773c 7409 123e 56f0 ff3b 536e 423c
00000280: de2b 43be ed6e 6dbe 6ff4 08be 0e1a c03d
00000290: 99d8 28bb 2441 01be ed07 f83d b0f3 c1be
000002a0: 0997 6dbd 0418 0bbc 6e6f 5b3e 2118 313e
000002b0: c9cd 38be f759 bb3e 065b 58bd b4c5 28be
000002c0: 3e7e a8bd bf00 2cbf 4677 de3e 4e63 51be
000002d0: bf97 e23e 440e 40be ff25 ecbe f412 04be
000002e0: d9bb 8cbd 6eb8 a2bd 55e8 a73d e3a6 a2b9
000002f0: e251 fb3e ca5f 15be 6c1b 19b5 4bd7 17be
00000300: a8fc d4bd 6337 5c3e 2c84 ae3e 1576 26bf
00000310: 81ac 813d c281 a93c a72e ad3e 9bc1 8f3e
00000320: a02b 17bf af51 9dbe f955 efbe 41ca 35be
00000330: 8d86 86be f873 b3be 088d 013f bca7 1b3f
00000340: 2fdb f0be fcd9 e5be e8a6 17bf 6215 b5be
00000350: 8f36 29bf 4ada 023f 3b4d f5be 27ce 41bf
00000360: 27ee e83e e8ca 11bf e685 eaba 5ca7 b6be
00000370: a139 49bf 8155 ccbe c178 263e 9efb 1dbe
00000380: a683 2fbf 8257 e3be 70f6 053f 941b 5c3e
00000390: 8f1e bd3e a3cb 66be 7e18 eb3e 5679 fe3e
000003a0: ea5f 6cbc 2fec d93e c196 8dbe 8f5d 56be
000003b0: ddc0 1f3f fb2a cebe 4337 a43e 11cc 20bf
000003c0: 373c febe eb9a fa3e e448 013f 26fd d13e
000003d0: 8388 afbe 84f4 f83e aef3 f53e 791e 0b3f
000003e0: 1949 34bf 02b9 bfbe 3917 523e 1ac1 d73e
000003f0: ae0c 8abe 5f1c 04bf bf94 a4be 87bb a83e

fc3.bias f4 [10]
0.6032635 -0.8451184 0.5200361 1.3132025 -0.9920991 0.4088233 1.4793893 0.5238121
-1.038091 0.000320607
00000000: 7a6f 1a3f ae59 58bf 1621 053f 0517 a83f
00000010: 35fa 7dbf 4a51 d13e a15c bd3f 8d18 063f
00000020: 2ae0 84bf 2517 a839

fc4.weight f4 [1, 10]
0.38557553 -2.3647857 -0.421899 0.76069814 0.77945805 0.5414497 0.5186404 1.9097842
0.9778042 -0.95510554
00000000: 286a c53e a658 17c0 2503 d8be 1dbd 423f
00000010: 908a 473f 739c 0a3f 9ec5 043f cf73 f43f
00000020: 6051 7a3f cc81 74bf
