models/AudioClassifier_LargerDropout.onnx (onnx, 103622 bytes, 8 tensors)

fc1.weight f4 [100, 33]
000000 5c 98 67 be 72 5d 82 3d f9 45 4c 3e c6 f2 bd 3e
       -0.22616714 0.063654795 0.19948567 0.37099284
000010 15 da 19 be 19 09 0f 3f c5 e5 8d 3e 56 71 a3 3e
       -0.15024598 0.55873257 0.27714363 0.31922406
000020 cd d3 26 be ae 26 ee 3f c8 96 9b bf e5 55 f6 be
       -0.16291733 1.8605554 -1.215539 -0.48112407
000030 88 35 f8 3d 15 30 c9 bd 0e c4 a0 3f 1b 54 c8 3f
       0.12119585 -0.09823624 1.2559831 1.5650667
000040 b1 08 a1 be bc 59 96 bf 23 32 c6 bf 65 3c f3 3e
       -0.31451944 -1.1746135 -1.548405 0.47507015
000050 02 e0 82 3f 5d a8 c3 bf 13 de d6 be 06 96 ae bf
       1.0224612 -1.5285755 -0.41966304 -1.3639534
000060 08 d8 f8 3e 60 a2 b4 be c2 b4 52 3f 22 43 8c be
       0.4860232 -0.35280132 0.82307065 -0.27394968
000070 c5 94 02 3e 8d 2d 2c 3e f2 d4 7d 3f 62 8e 7f be
       0.12752064 0.16814251 0.99153054 -0.24956658
000080 99 29 ba 3f 52 68 a3 bd 53 3f 8e be 61 13 b8 3e
       1.4543945 -0.07978882 -0.27782688 0.35952285
000090 eb 13 9d 3d f4 90 ef 3a a6 05 9a be 1c 9d 48 3f
       0.07669815 0.0018277452 -0.30082434 0.7836473
0000a0 1b c5 e0 be a3 97 8a bd 7d 86 1e bf 74 b5 80 3e
       -0.4390038 -0.06767204 -0.6192396 0.25138438
0000b0 b1 7b 00 3e 76 8f 7a 3f 11 25 c8 3e e2 b4 a0 3f
       0.12547185 0.97875154 0.3909078 1.2555201
0000c0 7f 0f 03 c0 68 78 b6 bc 70 28 cb bd ff b6 82 be
       -2.0478208 -0.022274211 -0.09919822 -0.2553024
0000d0 d1 7b 73 3e ff 20 48 3f 2d 0e d1 3f ed a0 3d be
       0.23777701 0.7817535 1.6332451 -0.1851842
0000e0 5f cb 72 bf a9 38 11 be 5d 7a e5 bd ae bb 3b 3f
       -0.9484157 -0.1418177 -0.112049796 0.7333325
0000f0 87 45 ab bf 4b 00 2c bd 05 0d 16 3f 13 3d d4 be
       -1.3380593 -0.041992467 0.58613616 -0.41452846
000100 f6 bd d3 be 10 8f 99 3f d2 9d a5 3c 79 5c 69 3e
       -0.41355866 1.1996784 0.020216856 0.22789182
000110 d4 e3 8b 3b 1d a5 0c bf 05 8d 99 3d 4c bd 81 3f
       0.0042691026 -0.5493944 0.074976005 1.0135894
000120 49 8c 71 3e d7 b3 06 3f 06 cc dc 3d 09 95 22 3f
       0.23588671 0.52618164 0.10781102 0.6350866
000130 13 83 46 bf 6a 37 e9 be 5f 2c 00 bf 47 a7 3b 3f
       -0.77543753 -0.4555009 -0.50067705 0.7330212
000140 70 f3 87 bf 91 b3 3f 3f 90 8e 86 be ee bb e4 3d
       -1.0621166 0.7488337 -0.26280642 0.11168657
000150 1e 38 97 3e 2b 08 17 bf de 33 8d 3f 33 65 d8 be
       0.29535002 -0.5899684 1.1031454 -0.4226471
000160 20 4c 1f bf 3c 4a 4a 3e e4 f0 03 c0 3e a4 54 be
       -0.6222553 0.1975488 -2.0615778 -0.20765778
000170 0b 47 6d bf bb 0d a8 be c5 17 0c 3f a2 5f 9f 3e
       -0.9268653 -0.32822976 0.5472377 0.3112765
000180 c5 2e b5 bf ad be 22 3f f4 07 d4 3f 30 43 8c bd
       -1.4154898 0.635722 1.6564927 -0.068487525
000190 5a ef 20 3c b3 1a 85 be 82 49 3d 3d 3a 04 77 3f
       0.009822691 -0.25996932 0.04621268 0.96490824
0001a0 d3 90 a1 be 1e 82 c8 3e f6 e5 55 3f 3e 65 04 bf
       -0.31555805 0.39161772 0.8355402 -0.51716983
0001b0 d3 29 a7 bf 0d 76 62 3c a5 cc 13 3f 53 0b a0 be
       -1.3059639 0.013822091 0.5773414 -0.3125864
0001c0 32 eb 8c 3f cb 19 db 3f b8 74 ce 3d 13 7f 50 bf
       1.1009276 1.7117246 0.10080856 -0.814439
0001d0 ac f3 2b 3c e6 12 18 bf 22 ab 02 c0 a3 c6 c7 be
       0.010495108 -0.59403837 -2.041695 -0.39018735
0001e0 12 7e 1c 3f be 02 1d bd a0 ff 8a 3f 59 2b 1b 3f
       0.6112987 -0.038332693 1.085926 0.6061302
0001f0 58 1f 21 3f 83 92 c6 3e 9a b8 96 bc 11 d4 5d bf
       0.6293845 0.38783655 -0.018398572 -0.8665171
000200 22 d4 81 3f e4 f7 24 be f5 48 5e bf 22 5c 29 3d
       1.0142863 -0.16110188 -0.86830074 0.04134763
000210 eb 9a 50 bd 60 f0 ee 3c 1a f1 ac be 01 f4 1c 3f
       -0.05092899 0.029167354 -0.33777696 0.6130982
000220 05 2f fb 3e b0 0a d5 3e 1c d8 5c 3f ca e1 b4 3f
       0.4905931 0.41609716 0.86267257 1.4131405
000230 b5 24 f0 3c 5b 89 47 3f 11 32 07 3f e9 44 d2 3e
       0.029314378 0.7794396 0.5281077 0.410682
000240 86 5d 37 3d 58 8b 2e 3c 4a f4 89 bf e1 a2 e8 be
       0.044766925 0.010653339 -1.0777676 -0.45436767
000250 fc 3e 2f 3f 86 d2 4c bf 4e c8 2b bf 2a 13 54 3e
       0.6845548 -0.80008733 -0.67102516 0.20710436
000260 cd 0a 3e bf f2 cf 7a bf d5 b2 94 be 76 70 b0 bf
       -0.7423523 -0.9797355 -0.29042688 -1.378432
000270 a1 b3 65 3f ae 4a ad be ab a0 9a be a9 ab a6 3f
       0.89727217 -0.3384604 -0.30200705 1.3021137
000280 5a b4 4f bf 4a f8 e6 be 12 d1 31 3f 4b e1 68 be
       -0.8113457 -0.45111305 0.6945964 -0.22742192
000290 22 0c 85 be 3c a6 1e 3e 28 45 0c 3e 14 4b e3 be
       -0.2598582 0.15493101 0.13698256 -0.44393218
0002a0 45 24 50 bf 83 d0 b2 bd 55 23 d0 bf 20 67 70 3f
       -0.8130534 -0.08731177 -1.6260782 0.93907356
0002b0 75 48 0d 3f 3d 1a 77 3f f2 72 89 3e ed 78 c4 3e
       0.55188686 0.9652441 0.2684551 0.3837351
0002c0 57 9b 4a 3f 5a 39 5e bf 98 d5 1b 3f 55 71 c4 be
       0.7914328 -0.8680626 0.60872793 -0.38367715
0002d0 79 57 dc 3a 5e 33 0a bf 2a 03 0f 3e 2f 6f 56 3f
       0.0016810737 -0.5398463 0.1396605 0.837634
0002e0 70 17 da 3e 90 eb f0 3e 9d 4c 1e 3f 2f bc c4 bf
       0.42596006 0.4705472 0.6183565 -1.5369929
0002f0 68 50 29 3f a6 08 e6 be 46 25 10 3f c4 6b 42 3a
       0.66138315 -0.44928473 0.56306875 0.0007416571
000300 65 58 16 bf 2a cb 13 3f 34 ff 29 bd 8a 6a 98 be
       -0.5872863 0.5773188 -0.041503146 -0.29768783
000310 7f 40 24 bd 70 21 58 3f d1 12 da bb 2e 58 41 3d
       -0.04010057 0.8442602 -0.006655075 0.047203235
000320 73 ee b4 bc 8f 23 b6 3e fd b2 0a be 0e 51 c1 3f
       -0.022086358 0.35574004 -0.13544841 1.5102861
000330 34 6a 78 3e 56 23 79 be 08 9e 09 3f a1 c6 2d bf
       0.24259263 -0.24329886 0.5375676 -0.6788121
000340 c5 c6 a8 be 2b f8 2d bf 11 ea 5c bf 7d 0d 11 bf
       -0.3296415 -0.679568 -0.86294657 -0.56661206
000350 9a 4e ba 3f a1 78 81 be 3a ea 5e bf 1c 60 9c 3e
       1.4555237 -0.25287345 -0.8707615 0.30542076
000360 30 9b 75 bf e3 bb a2 3e 31 ee 00 3f 27 13 bd 3d
       -0.9593992 0.3178397 0.5036345 0.09232169
000370 fb a0 ac 3f 7b 9a 8d 3e 21 65 ad bf 39 f4 95 3f
       1.3486627 0.27656922 -1.3546487 1.1715156
000380 67 18 ab bf fd 80 d8 3f 5f 66 cb be 49 54 88 bf
       -1.3366822 1.6914364 -0.3972654 -1.0650722
000390 e7 63 6b 3e 76 21 24 3f 48 1a e8 be ff e3 07 be
       0.22987328 0.6411356 -0.4533255 -0.13270567
0003a0 17 a4 3c 3f ae a0 9f 3e e2 fa 0b be 36 87 ab be
       0.7368788 0.31177276 -0.13669923 -0.33501595
0003b0 79 53 08 3f ca eb d7 bf c3 72 51 bf 15 91 97 be
       0.5325237 -1.6868832 -0.8181574 -0.29602876
0003c0 e2 c3 f9 be b5 3b e1 bd cd 3b 91 3e 96 23 0c 3f
       -0.4878226 -0.10997716 0.28365937 0.547418
0003d0 bb c0 ca 3e 5f 42 07 bf f8 cf 44 3f db 84 a4 3e
       0.39600167 -0.5283565 0.76879835 0.3213261
0003e0 c0 80 1f 3d 24 f7 66 3f a6 08 ad be 22 98 08 bf
       0.038941145 0.90220857 -0.3379566 -0.53357136
0003f0 a1 c7 44 bd c5 11 4e be 36 10 c3 3f aa f3 44 3f
       -0.048041943 -0.20123966 1.5239322 0.769343

fc1.bias f4 [100]
000000 3b d3 56 3d d1 e0 fe 3f 13 75 99 be 3f 47 20 bf
       0.05244754 1.9912359 -0.29972133 -0.6260871
000010 a1 d6 0c bf 40 13 5f 3f 95 e2 be bf a1 c5 10 3f
       -0.55015 0.8713875 -1.4912897 0.5655156
000020 15 c7 ac be 54 ba 85 bf e4 14 fd 3e 2a 4d 0c c0
       -0.33745638 -1.0447488 0.4943 -2.1922097
000030 37 e1 d0 be 08 54 93 3d 8f 69 02 3e e8 38 aa be
       -0.40796825 0.07193762 0.1273558 -0.3324654
000040 05 18 3e be 6f 6a e6 3e 18 14 64 c0 e4 0f 20 be
       -0.1856385 0.45003077 -3.5637264 -0.15631062
000050 d0 90 e3 bf 0c 69 0e bf e2 5d 3c 3e 8c 47 0c 3e
       -1.7778568 -0.5562904 0.18395188 0.13699168
000060 94 5e 27 bf 97 ae 51 3e 91 f1 31 3f 14 c5 1d 3e
       -0.6537869 0.20476757 0.69509226 0.1540721
000070 5e 9e 2e bd 7c 9f 26 bd ac 79 96 be 7f 5e 89 3f
       -0.0426315 -0.04067944 -0.29389703 1.0731963
000080 b1 f8 10 bf 30 6f bd bf 7b 74 74 3f 78 aa 36 3f
       -0.5662947 -1.4799557 0.95490235 0.71353865
000090 bd 31 1a 40 d0 20 0a 40 7b 10 3a bd e2 da 16 c0
       2.4092858 2.1582527 -0.045425873 -2.3571095
0000a0 41 14 71 3f 22 b1 05 c0 dd 7c a8 3e de 80 40 3f
       0.9417153 -2.0889363 0.32907763 0.75196636
0000b0 5c 0c 13 be 37 ad 04 c0 fd 62 05 be 5f a1 7a be
       -0.14360183 -2.0730722 -0.13026042 -0.2447562
0000c0 3c d5 97 bf e1 09 5d bd 57 3d 96 bf c1 8f 00 40
       -1.1861949 -0.0539645 -1.173747 2.008774
0000d0 6c ba 8d be ba 39 bf bf 0c 1b 2f bf 0b 5b 97 be
       -0.2768129 -1.4939492 -0.68400645 -0.29561648
0000e0 fe 66 04 3f e3 98 d9 be 4a b8 e1 bf 26 12 02 c0
       0.51719654 -0.42499456 -1.7634366 -2.0323577
0000f0 24 44 9b 3e 49 09 82 bf 09 a1 06 c0 0a 3a 2f 3f
       0.30325425 -1.0159084 -2.1035788 0.68447936
000100 c3 d5 4b bf 79 df 1e bf cc 4b ef bf 80 0b 47 bf
       -0.7962305 -0.6205974 -1.8695006 -0.7775192
000110 8d a3 08 c0 e6 36 db be 26 3b 4c bf 85 64 a8 3f
       -2.1349823 -0.42815322 -0.79777753 1.3155676
000120 78 76 fa bd e2 22 76 3e 0d a6 05 40 67 3b 21 bf
       -0.12229627 0.24036744 2.08826 -0.62981266
000130 29 b5 a3 3d 43 c8 b6 be 23 23 c8 bf 2e 01 14 bf
       0.07993538 -0.35699663 -1.5635723 -0.578143
000140 13 d6 b5 bd c1 2d 97 bc 54 91 f2 be d4 64 e6 3e
       -0.08878722 -0.018454434 -0.47376502 0.449988
000150 4c ce e3 3d 4e 52 95 3d b3 13 02 c0 45 13 af bd
       0.111233324 0.07291089 -2.0324523 -0.08548597
000160 7b 7f 17 3f d7 f4 39 40 2f 0d 1f c0 2b f6 cf bc
       0.59178895 2.9055688 -2.4851797 -0.025385937
000170 c2 d5 96 bf e4 d4 0b 40 27 32 42 3d 98 c8 d1 bf
       -1.1783984 2.1848688 0.04741111 -1.6389341
000180 60 ee 5e 3f 73 38 aa 3f 69 2e b4 bf 01 ab 61 bf
       0.8708248 1.3298477 -1.4076663 -0.88151556

fc2.weight f4 [200, 100]
000000 47 85 89 3e 58 d1 ae 3d 30 8e c5 be db 14 20 3e
       0.26859495 0.08536023 -0.38585043 0.15632956
000010 a1 55 4f bf 74 0d c2 3e e3 12 6d 3e 51 60 1d bf
       -0.80990034 0.3790089 0.23151736 -0.6147509
000020 2f f0 f2 bf 89 2b 4a bf 3a 61 b9 be 71 b0 11 bf
       -1.8979548 -0.7897268 -0.3620699 -0.56909853
000030 d8 bf f0 be 15 35 19 3f a1 56 9c 3c 50 65 f4 3d
       -0.47021365 0.5984662 0.019084277 0.11933386
000040 7b c0 96 3e 46 c5 c1 3e 9a e0 e7 bf 99 79 e5 3c
       0.29443726 0.3784582 -1.8115418 0.028012084
000050 89 ba a0 bb d6 17 2b 3f e6 de e4 3c 45 0c 1d 3d
       -0.004905049 0.66833246 0.027938318 0.03834178
000060 53 57 6f be 06 1f c4 3e d9 ca 9d be ba 44 cc 3e
       -0.23373155 0.3830492 -0.30818823 0.39896184
000070 26 a7 9a bc b4 20 5c bc 8b 4e 85 bf 65 91 de bd
       -0.01887853 -0.013435531 -1.0414594 -0.108675756
000080 44 69 82 3e 7e 69 e5 3e c1 92 be bf d7 5a f2 be
       0.25470936 0.44807047 -1.4888536 -0.4733493
000090 a0 39 c5 be 8c e8 94 3e 76 1d 36 3d b8 34 a6 3e
       -0.38520527 0.2908367 0.04446169 0.32462096
0000a0 b9 bb 02 c0 39 a3 56 be 3f 06 e7 3e 15 17 14 3f
       -2.0427077 -0.20960702 0.45121953 0.5784772
0000b0 ea 2a 86 be b3 a8 07 c0 78 91 cf bf ee 7c 8e 3e
       -0.26204616 -2.1196716 -1.6216269 0.2782969
0000c0 b0 68 72 be f7 b4 05 bf b0 82 39 3e 9d 09 21 bf
       -0.23672748 -0.52229255 0.1811626 -0.62905294
0000d0 d4 ea 82 bf 03 30 28 3d fc 53 19 3e 56 43 1e bf
       -1.0227914 0.041061413 0.14973444 -0.61821496
0000e0 9b fc 68 bd 67 4a 18 3f 87 ab 32 be c2 6d b6 be
       -0.05688153 0.5948853 -0.17448245 -0.35630614
0000f0 5b 65 1e bd 9b 2a f7 3d e4 16 ad bf 70 68 00 3f
       -0.03867088 0.12068673 -1.3522611 0.5015936
000100 3c ce 8e be f8 48 83 3d 9f c2 7d be 2d 32 d3 be
       -0.2789172 0.06410402 -0.24781273 -0.4124922
000110 7c 8f f1 3e 49 a1 4d 3f d5 27 11 be 65 26 43 3f
       0.47179782 0.80324227 -0.14175351 0.7623046
000120 30 5d 04 3e 1f 8c c7 3d e0 dd da bc 1d 61 95 be
       0.12926173 0.09743523 -0.026717126 -0.29175654
000130 10 cf 9f bd a8 fd ab bf 09 c6 fb bd a4 8c fa 3e
       -0.07803166 -1.3436785 -0.122936316 0.48935425
000140 cd 25 a6 3d 4a 3c 16 bf 7c f5 fb 3e 41 95 66 bc
       0.08112679 -0.58685744 0.49210727 -0.014073671
000150 30 0d 7a bc f3 b2 62 bd f9 20 12 c0 85 b2 d1 bd
       -0.015261933 -0.05534644 -2.2832625 -0.10239128
000160 25 2c 94 be 13 cc 02 bf c3 0a 84 be 3f 0b ad 3e
       -0.2893993 -0.5109264 -0.2578946 0.33797643
000170 b6 c3 59 3d 9b 23 53 3f 76 b1 6a bd 2d 4c 94 3e
       0.05316516 0.82476205 -0.057298146 0.28964368
000180 e2 35 70 3d 19 d0 27 bf 31 ed 00 3f 86 29 ef bf
       0.058645137 -0.65551907 0.50361925 -1.8684547
000190 38 9e 9a bf d2 00 bd 3e e2 6b 4c 3e bc 91 9b bc
       -1.2079535 0.36914688 0.19963029 -0.01899039
0001a0 ab e6 c8 bf 0e 11 33 3e 7e ff 06 be 0d f1 3e be
       -1.5695394 0.17486975 -0.131834 -0.18646641
0001b0 f6 6e 27 3f bc d3 b9 be 01 99 80 bf 27 c4 7c 3f
       0.6540369 -0.36294353 -1.0046693 0.98736805
0001c0 4b e6 f6 3e 7a 14 d9 3d 43 5b a4 3d 28 bd 82 3e
       0.48222575 0.10599609 0.08025219 0.2553494
0001d0 c0 5c 2c bf fe b9 47 3d b1 04 83 bf 57 d4 89 3d
       -0.67329025 0.04876136 -1.0235807 0.06729954
0001e0 89 d0 12 3e be a5 04 bf 32 f3 1e 3e 71 a5 2f 3d
       0.14337362 -0.518154 0.15522459 0.042882387
0001f0 b9 20 39 be 4c f0 47 bf 91 a9 06 c0 f5 44 00 be
       -0.18078889 -0.7810104 -2.1040995 -0.12526305
000200 96 33 02 3d 8c 76 89 3e 62 a9 08 3e bf 2b a5 be
       0.031787477 0.26848257 0.13345864 -0.32259938
000210 69 0b e7 bf cd be b0 3c ef 29 b7 3e 95 7b 13 3e
       -1.8050357 0.021575356 0.3577418 0.14402612
000220 af 91 11 3f ca df 06 bd 7a be 17 3b 67 56 0b 3f
       0.5686292 -0.032928266 0.0023154304 0.54428715
000230 80 6c 55 bf bd 89 b1 be 45 cc 73 bf 33 a2 b7 bf
       -0.8336868 -0.34675398 -0.95233566 -1.4346374
000240 bc 0f a9 3d db 39 bc bf 51 0f ca be 3b 00 ed bf
       0.08254954 -1.4705156 -0.3946481 -1.8515695
000250 85 04 90 bf e2 47 1d 3f 11 e3 73 3e 45 fd a0 3e
       -1.1251379 0.6143781 0.23817088 0.3144323
000260 62 c9 d7 be 0d ca 92 be e1 9c eb bc 2a d7 06 3f
       -0.4214583 -0.28669778 -0.02876133 0.52672064
000270 07 1a a6 be c1 0e d5 3f 22 28 20 3e 98 d9 50 3e
       -0.32441732 1.6645128 0.1564031 0.20395505
000280 ba 8f 05 3e f9 96 3b bf 30 ff 83 be a9 5f 8a bf
       0.13043109 -0.7327724 -0.2578063 -1.0810443
000290 50 41 43 3f 0d 44 c7 bc f9 57 f6 be 9b 8d 0b bf
       0.76271534 -0.024324441 -0.48113993 -0.5451295
0002a0 8c 50 68 3e 3c f3 a9 bc 69 7f de bd 2d 95 72 3e
       0.22686976 -0.020745866 -0.10864145 0.23689719
0002b0 07 46 88 bf dc f2 d7 be 83 00 05 3f c3 6a 8b 3f
       -1.0646371 -0.42177474 0.51953906 1.0891956
0002c0 fa 12 01 3d 3b d1 2e be 9b 82 9a bf 05 94 86 bd
       0.031512238 -0.17072003 -1.2071108 -0.06571201
0002d0 19 e4 c1 3d 50 6b 7d bf c1 2c 43 be 01 c0 c3 3e
       0.09467334 -0.9899187 -0.19060041 0.38232425
0002e0 3b 85 c8 bd 81 12 82 3d b6 ac 82 bc 7c 4d 6e bd
       -0.09791037 0.063511856 -0.015951496 -0.058179364
0002f0 2b 65 98 3e 4c 5d 9a 3d 3d b0 ae 3d 5b c8 23 3f
       0.29764685 0.07537326 0.085297085 0.63977593
000300 d1 07 92 3e 33 7a af bf 70 98 6c bc 0b 7b 0a bf
       0.28521588 -1.3709167 -0.014440641 -0.54094
000310 08 d4 25 be 6b 6b 15 3f cf 66 dc 3d 56 0c ee bd
       -0.16194165 0.5836703 0.10761797 -0.11623447
000320 1f 3f b6 be 19 82 b7 bd 4e 27 7a 3e 33 e5 88 3e
       -0.35595033 -0.08960361 0.24429056 0.26737365
000330 bb 07 82 3e f6 29 4d 3f 03 86 a2 bf 68 1c 3b 3c
       0.25396523 0.8014215 -1.2697147 0.011420347
000340 b9 e6 c0 bf 33 36 4a bf e8 f7 36 be b0 4c bb 3d
       -1.5070411 -0.7898895 -0.17868006 0.09145486
000350 2a fc 2c 3f f7 3e bb be d1 e9 a9 bc b7 36 07 3f
       0.6757227 -0.36571476 -0.020741375 0.52817863
000360 e7 01 79 bf 58 bb 4f 3e 2a d2 f4 bf 31 62 3d bd
       -0.9726853 0.2028631 -1.9126637 -0.04623622
000370 e8 a3 86 be 33 06 e2 3e 30 53 51 bc fb 84 97 bc
       -0.26296926 0.44145355 -0.012776181 -0.018496027
000380 84 16 76 bf fb 25 86 be 1a c7 9a 3d 24 04 0c be
       -0.96128106 -0.26200852 0.07557507 -0.13673455
000390 10 aa 8e bd 32 aa b4 3d e6 c7 b5 be 7d 34 53 3f
       -0.069660306 0.08821525 -0.35504073 0.82501966
0003a0 39 a7 35 bf 7d 12 cd bc e4 a0 8e be 30 ac ae 3e
       -0.70958287 -0.02503323 -0.27857125 0.34115744
0003b0 1c 2c 83 3d 82 68 a7 3e 80 ad 2e bd 2d 5f eb 3c
       0.064048976 0.3269692 -0.04264593 0.028731907
0003c0 55 49 aa 3e 2b 73 6d 3e f3 5e 80 bf ef a8 fb be
       0.33259073 0.23188464 -1.0028976 -0.49152324
0003d0 7b 0c 99 3e d6 8e 52 be eb 02 dd 3e 63 5a 3b 3f
       0.29892334 -0.205623 0.4316629 0.73184794
0003e0 3b eb 94 3e 53 e6 e7 3e 1a 98 02 bf 97 5a 91 3e
       0.29085717 0.4529291 -0.5101334 0.28389427
0003f0 14 3b 65 bf 63 01 98 3f 8e d4 42 bf 77 42 c5 be
       -0.8954327 1.1875423 -0.7610558 -0.3852727

fc2.bias f4 [200]
000000 b3 44 7d 40 28 4d 2c 3f 21 fd 38 c0 b4 76 b7 3f
       3.957318 0.6730523 -2.8904498 1.43331
000010 c6 61 67 40 ef b0 91 40 f8 66 24 3e d4 68 eb bf
       3.6153426 4.5528483 0.16054904 -1.8391366
000020 54 f8 b8 3e 13 96 25 3f dc 76 f4 be 1f 30 12 bf
       0.3612696 0.6468212 -0.47746933 -0.57104677
000030 fe 49 6e 40 9c a1 b1 bf e8 00 21 3f 84 ee 12 c0
       3.7232661 -1.3877444 0.6289201 -2.2958078
000040 f1 2e 44 be 5c 5c 5b bd 45 b7 f4 3e 09 3b 12 40
       -0.19158532 -0.053554878 0.47796074 2.2848532
000050 55 f0 5f bf 06 34 c5 3e d3 84 09 c0 72 db 79 c0
       -0.8747609 0.38516253 -2.148732 -3.9040189
000060 9c 0f a7 bf 8e a6 22 c0 8f 0a 4c 40 d4 d7 b5 be
       -1.3051639 -2.5414157 3.1881444 -0.35516226
000070 a6 fa a0 c0 4a 07 86 bf 20 f6 37 bf 18 84 7e c0
       -5.0305967 -1.0470974 -0.7185993 -3.9768124
000080 b4 22 9f 3f 19 86 7d 40 55 ea 00 c0 69 c4 a1 bf
       1.2432466 3.9613097 -2.0143025 -1.2638065
000090 0d a6 af 3d 1d f0 85 3f 69 0c 8a bf 8b f2 8a bf
       0.085765935 1.0463902 -1.0785037 -1.0855268
0000a0 77 ef 6c bf d2 b1 c2 bf d1 f1 bd bf cf 4b dd bf
       -0.92552894 -1.5210516 -1.4839422 -1.728876
0000b0 0b e4 18 3f ff 3a a2 3f 8e 01 29 40 22 c1 ba bf
       0.59722966 1.2674254 2.64072 -1.459019
0000c0 dd 3e a9 3f a4 0e 06 40 39 14 69 c0 84 27 0a 3f
       1.3222309 2.0946436 -3.6418593 0.53966546
0000d0 cd 21 0e bd 22 7c 1f c0 84 ea 86 bf eb ea 03 3f
       -0.034700204 -2.4919515 -1.0540318 0.5153033
0000e0 89 9b 81 3f f5 9f 77 3f 23 e9 9e 3f 03 ad b8 c0
       1.012559 0.9672845 1.2414898 -5.7711196
0000f0 08 d7 0b bf 1f 48 86 bf 48 b0 b5 3f 02 de ab bf
       -0.54624987 -1.049076 1.4194422 -1.3427126
000100 a1 4e f4 bf 4f d4 55 bf 26 69 63 40 52 54 c1 3e
       -1.9086496 -0.8352708 3.5532928 0.37759644
000110 6e eb 48 3f 91 49 31 bd 91 e0 13 40 33 1c c8 bf
       0.7848424 -0.04328305 2.3105814 -1.5633606
000120 c5 04 8c 3f fd e4 d3 be d2 e6 23 c0 68 b0 d9 3e
       1.0938956 -0.41385642 -2.5609632 0.425174
000130 59 55 8e 3f a5 7e ff be b0 c6 8d bf ea 72 22 c0
       1.1119796 -0.4990131 -1.107626 -2.5382638
000140 e3 eb f5 bf 5e 8b 59 c0 ca 2a 97 3f b9 7d 1a bf
       -1.9212612 -3.3991313 1.1809933 -0.6034809
000150 cb 37 28 c0 f8 ac 73 bf f0 37 1e c0 0d f8 7c 40
       -2.6284053 -0.95185804 -2.4721642 3.9526398
000160 d5 fc 79 c0 cf aa f9 3f 5a 81 88 3e 9d a0 a5 3e
       -3.9060566 1.9505252 0.26661187 0.323491
000170 f5 f5 38 40 ef 25 aa bf 82 b4 df 3f 92 52 90 3f
       2.890012 -1.3292826 1.7476962 1.1275198
000180 59 99 7c bf c2 79 67 bf 2f 3c ed bf a3 3c 61 be
       -0.9867149 -0.9042016 -1.8533992 -0.21995787
000190 09 a3 79 40 b0 f2 c2 bf 50 44 67 bf d9 c6 00 40
       3.9005759 -1.5230312 -0.9033861 2.0121367
0001a0 56 3e dd bf ff c4 b2 c0 ed d7 94 bf a8 ad 7f bf
       -1.7284648 -5.5865474 -1.1628395 -0.99874353
0001b0 21 de 29 c0 17 56 21 bf 31 91 68 be ee 2d 04 3f
       -2.6541827 -0.6302199 -0.22711636 0.51632583
0001c0 82 7b a2 3e 6b 7d 99 3f bd 08 b9 3f ab 0b a8 3f
       0.31734854 1.19914 1.4455792 1.3128561
0001d0 27 a0 35 c0 20 92 03 40 81 9c 88 40 95 9b 20 be
       -2.8379 2.0557938 4.2691045 -0.1568435
0001e0 58 09 40 3d 55 7e 98 bf c6 78 30 c0 26 04 43 bf
       0.04688391 -1.1913553 -2.7573714 -0.76178205
0001f0 83 d8 da be 5a 30 8c 3f fc 73 d5 3f 6e a1 6a c0
       -0.4274331 1.0952256 1.6676021 -3.666103
000200 2c 17 30 c0 85 8b 0c be 51 a9 ce bd 35 2d 59 3f
       -2.7514143 -0.13725097 -0.10090888 0.84834605
000210 c5 b9 f3 bf 7e df f5 bf a7 fc 8c bf e5 81 44 c0
       -1.9041067 -1.9208829 -1.1014603 -3.0704281
000220 0e c9 ac c0 bc 8b c8 3f 76 ab d1 3d 48 cb 2e 40
       -5.399543 1.5667644 0.10237782 2.7311573
000230 ae 49 a3 bf 76 f9 b5 3f c5 de 57 3f 7c 4e cf bf
       -1.275686 1.4216754 0.84324294 -1.6195827
000240 f3 1e 59 be ed 34 17 c0 0e 11 8b 3f d3 61 3a 40
       -0.21203212 -2.3626053 1.086458 2.9122207
000250 16 c1 32 bd 71 2a d0 3f 1a bf c0 bf 8b 9b 1a bf
       -0.043641172 1.6262952 -1.505832 -0.6039359
000260 b8 9f 92 bf 04 ec 0b c0 81 cf 7c be b6 ed 12 40
       -1.1454992 -2.1862803 -0.24688531 2.2957587
000270 4d 3e c6 bf 6c cc f8 bf 29 8a ee 3f f4 f1 fa bc
       -1.5487763 -1.9437385 1.8635913 -0.03063295
000280 59 37 23 c0 f0 bb e3 be 3f 9b c7 bf 66 51 a0 3d
       -2.5502532 -0.44479322 -1.5594252 0.078280255
000290 96 29 f3 bf a6 86 37 bf 0c a0 21 3f 2b 21 bc bf
       -1.8997066 -0.7168983 0.6313484 -1.4697622
0002a0 aa 42 29 3f 68 0e b0 3f 57 90 8e bd 0b e3 5d c0
       0.66117346 1.3754396 -0.069611244 -3.4669826
0002b0 e8 ca 94 40 57 75 77 c0 85 3f f8 bf 69 6c ce be
       4.649769 -3.8665369 -1.9394385 -0.40317085
0002c0 f7 9e 97 3f bb 07 f3 3f 5f 37 72 c0 88 cd 75 3f
       1.1845387 1.8986734 -3.7846296 0.9601674
0002d0 f7 e0 4e c0 0c c3 5a bf e7 42 c3 3e d2 f7 3d 40
       -3.2324808 -0.8545387 0.3813698 2.9682508
0002e0 5d 75 16 40 f2 bf ab 3e 42 d6 35 c0 64 74 6d bf
       2.3509133 0.3354488 -2.8412023 -0.92755723
0002f0 04 91 38 c0 28 ff 93 3d 5f a5 ff bf 79 bc da bf
       -2.883851 0.072264016 -1.9972342 -1.7088767
000300 85 1b 90 40 a0 4b 50 c0 95 16 0d c0 fd 69 1a c0
       4.5033593 -3.2546158 -2.2045033 -2.412719
000310 df d5 d5 3f ae 0c 66 40 30 44 79 bf 7e e5 a1 bf
       1.6705893 3.594524 -0.9736967 -1.264816

fc3.weight f4 [10, 200]
000000 3c 16 2c 3f f0 77 a3 3f 63 d0 6a 3f 43 74 25 3f
       0.67221427 1.2770977 0.9172422 0.64630526
000010 58 98 82 3f 32 5c 37 bd 27 c6 f7 3e 60 c9 31 bf
       1.0202742 -0.04476566 0.48393366 -0.694479
000020 95 fc 85 be 05 2c 9c bb aa af a0 3f 5e a2 18 3f
       -0.26169267 -0.0047659897 1.2553608 0.5962275
000030 8d 73 c2 be 13 67 3e 3f c6 d2 69 bf 88 ec a7 3d
       -0.37978783 0.7437603 -0.9133724 0.08199412
000040 4f 00 97 be d5 89 c4 3e 01 2a 77 3f f5 f8 a6 be
       -0.29492423 0.38386407 0.9654847 -0.32611814
000050 0f f7 f4 3e 2d 6a 19 3e 81 ca aa bf 34 44 7c be
       0.4784474 0.14981909 -1.3343049 -0.24635392
000060 c5 c2 ad 3f 23 7b 6d be 77 55 85 3f 81 b3 94 be
       1.3575064 -0.23191504 1.0416707 -0.290432
000070 da 8d 25 3f 50 33 39 3e 0a fb 87 bd f3 0f 07 3f
       0.64669573 0.1808598 -0.06639679 0.5275871
000080 d6 9d cc be 41 9e 34 3f bb 01 cd 3e 01 c4 8b bf
       -0.3996417 0.70553976 0.40040383 -1.0919191
000090 76 81 dd 3e 09 c8 cf be 16 8b c8 bd 7c a7 58 3e
       0.43262833 -0.40582302 -0.097921535 0.2115764
0000a0 65 1d 20 3f 68 0c 1b bf 3d 04 0f be 63 17 d5 3e
       0.6254485 -0.60565805 -0.1396646 0.41619405
0000b0 c3 e6 55 3f 93 38 1e 3e a8 ff 14 3f 5a df 3e bf
       0.8355524 0.15451269 0.582026 -0.7455956
0000c0 51 27 a2 3e 25 03 be be c9 5c 51 3f 9d 28 20 3c
       0.3167062 -0.37111774 0.81782204 0.009775308
0000d0 f4 3b 20 be 8a 49 7f bf 9b ff 8a bc f2 d6 52 be
       -0.1564787 -0.99721587 -0.016967585 -0.20589808
0000e0 cf f4 a6 3e 2e 42 96 3e 0d 46 aa be f9 89 b3 bf
       0.3260865 0.29347366 -0.3325657 -1.4026481
0000f0 88 79 00 3f 66 8e a8 3d 59 2d ff 3e 8a bc 2f bf
       0.5018544 0.08230285 0.49839285 -0.6864706
000100 7d 72 7c bf f9 59 8f bf 97 c3 fb bc 8b 32 32 3f
       -0.98612195 -1.1199332 -0.030732913 0.6960837
000110 d7 b3 3d 3f 32 dc e7 bd 71 e3 8e 3e 5f e8 4a 3e
       0.7410254 -0.11321296 0.279079 0.19815205
000120 5f 80 46 3f 8c 63 9c bf 06 e2 6e 3f 77 15 6e bf
       0.7753963 -1.2217879 0.93313634 -0.930015
000130 33 c0 34 3f 92 34 13 bf f2 4b 19 be 9c b9 86 3e
       0.7060577 -0.5750209 -0.14970377 0.26313484
000140 22 ce 7f 3f a1 4b f2 3c a9 56 7e be 7d a8 bf 3d
       0.9992391 0.029577078 -0.24837746 0.093583085
000150 e8 82 15 3d bf e9 85 bf 76 25 55 3e 61 4b 8e 3e
       0.036501795 -1.0461959 0.20815071 0.27791885
000160 8f be 83 bf cf be 02 3f 2e 49 25 3e 37 50 f0 3e
       -1.0292529 0.510724 0.16141197 0.469362
000170 bb bf c1 bd 22 cc 8c 3f e6 0f 03 3f 28 a2 90 be
       -0.09460398 1.0999796 0.51196134 -0.28248715
000180 bd 5a d4 bd 0b 57 38 bf e6 f1 61 3f 4b 15 cb 3e
       -0.103688695 -0.7200782 0.8825973 0.39664683
000190 6f ca fc 3d af b6 e5 be 5c 1a dc be e8 ab 18 3d
       0.12343299 -0.4486594 -0.4298886 0.037273318
0001a0 8e 64 ca 3e 34 e1 df 3e 6c a1 81 be 44 f6 22 3e
       0.39529842 0.43726504 -0.25318468 0.15914255
0001b0 a7 c7 c5 3e f4 4d 99 bf 4e fc ee bc 65 94 75 bf
       0.38628885 -1.1976914 -0.029173043 -0.9592956
0001c0 c6 9e 00 bf 90 ca 82 3e 2a a1 8d 3f f1 c8 32 bf
       -0.5024227 0.25545168 1.1064808 -0.6983786
0001d0 6c 9a 52 3a 6b 0b 19 bf c3 bb e7 3d 73 9e b1 3c
       0.0008033875 -0.5978305 0.113151096 0.021682
0001e0 c4 9b 53 3f 89 4e 37 3f 06 2f 16 3f 5b e7 3e bf
       0.82659554 0.7160421 0.586655 -0.7457177
0001f0 a5 63 a2 be 08 24 e9 3e 05 e2 c5 3f c0 03 21 3f
       -0.31716648 0.45535302 1.5459601 0.6289635
000200 88 a2 c0 bf 9b 94 cf 3e ae 78 76 3d 0e ea 89 3e
       -1.5049601 0.40543064 0.060173683 0.26936382
000210 b6 2a 76 bf e2 f3 ee be 9c 27 53 3f 3e 4e 65 3f
       -0.9615892 -0.46670443 0.82482314 0.89572513
000220 05 fd 05 bf 29 53 8d bf cf 68 d4 3e 6c 0f c2 3e
       -0.523392 -1.1041003 0.41486213 0.3790239
000230 47 38 d3 3e 38 18 f5 be cd 07 7a bf 3d 85 45 3f
       0.41253874 -0.4787004 -0.97668153 0.7715643
000240 e9 7c b5 bd e2 b5 86 3e 3e ad 54 3e d2 ca 7c 3f
       -0.08861715 0.2631064 0.20769212 0.9874698
000250 4d 8c 76 3f c3 27 8b be 03 84 c5 bd 86 55 03 3e
       0.9630783 -0.27178773 -0.0964432 0.12825593
000260 c7 7c 67 3c d8 50 ae 3f a2 46 22 bf a4 9c 53 3f
       0.01412887 1.3618422 -0.6338903 0.8266089
000270 80 7a 21 3f 24 4e ac 3f a1 c1 8b bf a9 77 ca 3e
       0.63077545 1.3461347 -1.0918466 0.39544418
000280 c2 68 0c 3f 17 ab 16 3e 89 0b 6f be da 04 83 3e
       0.5484735 0.14713703 -0.23344244 0.2558964
000290 5a 01 e1 3e 12 cd 29 3f a2 40 bc 3e b5 ab 51 be
       0.43946344 0.6632854 0.3676806 -0.20475657
0002a0 4e de 92 3e 30 a2 6d 3e 18 05 76 3f 26 5d 32 bf
       0.2868523 0.23206401 0.9610152 -0.69673383
0002b0 c8 a5 1c 3f 7f cc 91 be b9 4f 67 3f 18 eb 1c bf
       0.6119046 -0.2847633 0.9035602 -0.61296225
0002c0 1f 17 af bf 17 4f 7c 3f e4 b9 74 bf ad f3 9b be
       -1.3678931 0.9855818 -0.95596147 -0.30459347
0002d0 a0 37 83 3e fe 86 76 3f f4 2a 13 bf ed 1b 53 3e
       0.25628376 0.9629973 -0.57487416 0.20616122
0002e0 b1 67 78 be db 97 86 3f 7a bd b0 3e 08 ae 46 3f
       -0.24258305 1.0515093 0.3451956 0.776093
0002f0 3b a9 a9 3e 69 ae 4a bf 32 67 e0 be 6a 3a 8a 3f
       0.33136925 -0.7917238 -0.43828732 1.0799077
000300 67 fc 0f 3f 7a ec b4 3f 6d 40 90 bf 95 90 da 3e
       0.5624451 1.4134667 -1.1269661 0.42688432
000310 2e 50 6a bf df 19 eb 3e 65 de 3c 3f 9b d3 75 3f
       -0.91528594 0.45918176 0.7377685 0.9602601
000320 02 a9 a4 bf 0f cd a9 bd 4f c3 00 be 0b b8 7b bf
       -1.2864077 -0.08291065 -0.12574504 -0.983277
000330 60 1c a0 bf 87 b1 5d bf 3f 07 9f 3f b3 fa 08 3e
       -1.2508659 -0.8659901 1.2424086 0.13376884
000340 19 7a 80 3d 78 d5 bc bf 0d ac 25 3f 4b 9f 8f 3e
       0.06273288 -1.4752645 0.64715654 0.28051218
000350 b1 ed 82 3e 15 51 1b bf 90 26 8b 3e 6f 9e 4b 3f
       0.2557197 -0.60670596 0.27177858 0.79538625
000360 87 46 31 3e a1 0b 51 bf 85 2c 89 3f 82 a9 ef bd
       0.1731206 -0.8165837 1.0716711 -0.11702253
000370 a8 95 e9 3e 02 83 57 3f e1 37 ea 3e 4b df 46 bf
       0.4562199 0.8418428 0.45745757 -0.7768447
000380 a9 bd 92 be db b4 58 bd 8f 0b d9 bf 62 cc 43 bf
       -0.28660324 -0.052906852 -1.6956652 -0.7648374
000390 4d 8f 8a 3f 6b 3a 2f 3f c9 2c ba 3e 83 2b a0 bf
       1.0824982 0.68448514 0.36362293 -1.2513279
0003a0 a9 d4 2b 3f f8 36 23 bf 5b 8d 51 3e f9 4d ca bf
       0.6712137 -0.6375575 0.20464079 -1.5805045
0003b0 eb 15 68 3f e9 b9 2f bf 90 b3 8e 3f 22 e3 ab 3f
       0.90658444 -0.6864305 1.1148548 1.342869
0003c0 f9 5d 62 bf 2c 57 1f 3f c7 75 39 3f 0b 16 8b bf
       -0.8842464 0.6224239 0.7244534 -1.0866102
0003d0 a5 20 17 bf 19 fd 63 3e bb 0a be bd dd d6 8a bf
       -0.59034187 0.22264518 -0.092793904 -1.0846821
0003e0 94 e5 29 3e 8f cb 83 bf 8d 46 97 bc c6 23 23 3f
       0.16591483 -1.0296496 -0.018466258 0.6372646
0003f0 94 7b 24 3f 31 ee 26 3f f2 bc 08 3f d2 b7 cb bf
       0.64251065 0.652072 0.5341331 -1.5915473

fc3.bias f4 [10]
000000 25 bb 82 3f 7e 4a 20 c0 00 e8 1c 3f f5 ae bb 3f
       1.0213362 -2.5045466 0.61291504 1.4662768
000010 64 83 2d 3f 2d f2 ac 40 01 48 9a be dd d9 4f 40
       0.6777861 5.4045625 -0.3013306 3.2476723
000020 99 6c 4d c0 05 b4 9e 3f
       -3.2097533 1.2398688

fc4.weight f4 [7, 10]
000000 98 51 66 3e 33 be 4f bf 44 61 19 bf 69 48 dc be
       0.22492063 -0.81149596 -0.5991404 -0.43023995
000010 df e4 fd 3d a8 a7 58 bf 46 a1 18 bf c9 1e 4d bf
       0.12397169 -0.84630823 -0.59621084 -0.801251
000020 a7 b5 90 3f 0c f8 c1 be b7 6e 1e bf 26 e4 bf be
       1.1305436 -0.37884557 -0.6188769 -0.3747875
000030 ec 21 13 bd 23 a9 99 3f 18 4a e3 3e 6c f1 e9 bd
       -0.035921022 1.2004741 0.44392467 -0.11423001
000040 68 ae f2 3e 0c 4b ed 3e d7 ad c0 be 9a 9e 17 bf
       0.47398686 0.4634632 -0.3763263 -0.5922638
000050 dd fd 5f be 34 ac c2 3f a4 0b 86 bf 81 87 cc be
       -0.21874185 1.5208802 -1.0472302 -0.3994713
000060 83 dc 2a 3e 3e e5 93 bf 9e 22 f9 3e 44 ca 35 bf
       0.16685681 -1.1554334 0.48659223 -0.7101176
000070 be ed 36 3d f8 7b 7b 3e 1a b5 8f 3e 90 3f 52 bf
       0.044660322 0.24559009 0.28067857 -0.8212824
000080 e7 33 f6 be 12 fb 45 bf f6 ec 7d 3d 92 ab ba be
       -0.48086473 -0.7733623 0.06199356 -0.36459023
000090 37 a5 8e bf 5d 32 11 3f 22 b0 6e bf f1 17 a1 3f
       -1.114417 0.56717473 -0.9323751 1.2585431
0000a0 c4 42 4c 3e 72 da 9e 3e 2a f3 b0 3f 58 96 7f be
       0.19947344 0.31026036 1.3824208 -0.24959695
0000b0 78 e6 0b bf 99 7b 2e bf 10 ff 6a bf fb 94 e4 be
       -0.5464854 -0.68157345 -0.91795444 -0.44644913
0000c0 81 9b 43 bf 23 b8 16 3d 50 12 52 3f d8 26 aa bd
       -0.76409155 0.0367967 0.8205919 -0.0830819
0000d0 2b 24 56 bf 58 d7 72 be a3 61 0a c0 8d b7 c8 3e
       -0.8364894 -0.2371496 -2.1622093 0.39202538
0000e0 0d e0 13 bf b6 9f bd 3e 04 29 3d be cc 46 29 bf
       -0.5776375 0.37035912 -0.18472677 -0.6612365
0000f0 8d 20 84 bf 20 4d 18 bf ab 00 15 bf be 64 24 bf
       -1.0322434 -0.59492683 -0.58204144 -0.6421622
000100 9c 00 52 bd 43 12 89 3f 1f 35 a6 3e 12 02 53 bf
       -0.051270112 1.0708698 0.32462403 -0.82425034
000110 74 e9 04 bf 4f 1a ee 3b
       -0.5191872 0.00726632

fc4.bias f4 [7]
000000 92 46 81 bf c0 a1 bb be c7 71 4b c0 52 9b f5 3e
       -1.0099661 -0.36646843 -3.1788194 0.47970062
000010 73 98 24 3e 8d 88 0e 40 da 5a 42 40
       0.1607378 2.2270844 3.0367951
