models/ImageClassifier_Tanh.onnx (onnx, 95252 bytes, 8 tensors)

fc1.weight f4 [200, 11]
0	0xbf0276d8	-0.5096259
1	0x3fb518d1	1.4148198
2	0x3d8cc979	0.06874365
3	0x3f146503	0.5796663
4	0xbfba1632	-1.4538023
5	0xbf49a320	-0.78764534
6	0x3f5487c4	0.8301966
7	0xbfa2c0c1	-1.2715074
8	0x3fddb60e	1.7321184
9	0xbe7c6509	-0.24647917
10	0xbf826116	-1.0185878
11	0xbf6c5c2e	-0.92328155
12	0xbf63ef25	-0.8903678
13	0x3fac08e7	1.3440217
14	0xbf869eef	-1.0517253
15	0x400b5075	2.1767857
16	0xbfde4594	-1.7364984
17	0xbf0a1cbf	-0.53950113
18	0x3eb77e1a	0.35838395
19	0x4009986b	2.1499279
20	0x3e9dc6c3	0.30815706
21	0xc0a9f545	-5.31119
22	0x3f5ad8fb	0.85487336
23	0xbf09ae49	-0.53781563
24	0xbfa53d2d	-1.2909294
25	0x3fb252af	1.3931483
26	0xbf392729	-0.7232538
27	0xbf5aa032	-0.8540069
28	0xc0019c02	-2.025147
29	0x3f04a461	0.5181332
30	0xbf9f28cb	-1.2434324
31	0xbef2dd7f	-0.47434613
32	0xbf41185f	-0.7542781
33	0xbea47168	-0.32117772
34	0x3f077986	0.52919805
35	0xbf29e9ae	-0.6637219
36	0xbe83fc96	-0.25778645
37	0x3e6d1583	0.23152737
38	0xbed19208	-0.40931726
39	0x3f2b8085	0.6699298
40	0xc00da9d2	-2.21349
41	0x3fec7d96	1.8475826
42	0x3d37a2f1	0.044833127
43	0xc03385fa	-2.8050523
44	0xb9aa5b43	-0.00032492922
45	0xbe182e1f	-0.14861344
46	0x4012e243	2.29506
47	0xc01c9493	-2.4465683
48	0x40121698	2.282629
49	0xbebca2a6	-0.3684284
50	0xc0066e52	-2.1004834
51	0xbfa28f45	-1.2699972
52	0xbfc73bca	-1.5565121
53	0x3f19abea	0.60027945
54	0x400b367e	2.175201
55	0xbfda7386	-1.7066505
56	0x3f04152c	0.51594806
57	0xbff78991	-1.9338857
58	0x4003b699	2.0580199
59	0xbfd98901	-1.6994935
60	0xbfbeed06	-1.4916084
61	0x3fec9047	1.848153
62	0xbf600519	-0.8750778
63	0x3fac1746	1.3444602
64	0x3ea80e81	0.32823566
65	0x4005248f	2.0803564
66	0x3f5633d8	0.8367286
67	0xbf192022	-0.59814656
68	0xc03b7c38	-2.9294567
69	0xbf0e9851	-0.55701166
70	0xc05c1c21	-3.4392169
71	0x3fff70d7	1.9956311
72	0x3fba237b	1.4542078
73	0x3fea7936	1.8318241
74	0xbf891899	-1.0710632
75	0x40514d6d	3.2703507
76	0xc0a18760	-5.0477753
77	0xc002acf5	-2.0418065
78	0x3fd808fd	1.6877743
79	0x3f3a4933	0.72767943
80	0xbdb24e2b	-0.087063156
81	0xbf54be54	-0.8310292
82	0x3f0431e9	0.51638657
83	0xbf148396	-0.58013284
84	0x3f91b112	1.1382163
85	0xbff981c3	-1.9492725
86	0x3ee9dc70	0.45675993
87	0x3ec6c606	0.38822955
88	0xbccff493	-0.025385177
89	0x3ec7d45c	0.39029205
90	0xbe2fc2e5	-0.1716419
91	0xbfa0606a	-1.2529423
92	0xbf3dac64	-0.7409117
93	0xbdf33e2a	-0.11877091
94	0xbfb7de34	-1.4364686
95	0x3fd67567	1.6754578
96	0xbfd0b220	-1.630436
97	0x3e1b45b8	0.15163314
98	0x3fd3e27d	1.6553494
99	0xbf35209b	-0.70752877
100	0x3fa47d15	1.2850672
101	0xc01aa5ad	-2.416362
102	0x3e9765b2	0.29569775
103	0x3ed7888f	0.42096373
104	0xbf4fbf4c	-0.8115127
105	0x3ea1e4f2	0.31619984
106	0x3f5dd102	0.86647046
107	0x3f33dcdb	0.70258874
108	0xbea5f1f3	-0.32411155
109	0xbd697486	-0.05699589
110	0x3f1f6853	0.6226856
111	0x4015eadf	2.3424604
112	0xc02493b1	-2.5715144
113	0xbef78752	-0.4834543
114	0x3fca547c	1.5807033
115	0xbfacc488	-1.3497477
116	0xbee931c4	-0.4554578
117	0xbe99d7ff	-0.30047604
118	0xbf70b064	-0.9401915
119	0xbf2ad645	-0.667332
120	0x3f0217b7	0.50817436
121	0x3e63b5c0	0.22237301
122	0xbf470ea8	-0.7775674
123	0xbfdb1a31	-1.7117368
124	0xbf039820	-0.51404
125	0x401b78b2	2.4292417
126	0x3fe22ca9	1.7669879
127	0xbf6e5af4	-0.93107533
128	0xbf9de543	-1.233559
129	0xbf692c0f	-0.91082853
130	0x3dbc5c5e	0.09197305
131	0xbe88ded4	-0.26732504
132	0xbf9a4934	-1.205359
133	0xbea800e6	-0.32813185
134	0xbf9a4f50	-1.2055454
135	0xbe9383e3	-0.2881156
136	0x3fed56b2	1.8542082
137	0x3e2b2739	0.16714181
138	0x40013835	2.0190556
139	0x3fe36783	1.7765964
140	0x4015585f	2.3335187
141	0x3eab8a26	0.33503836
142	0xc04df813	-3.2182662
143	0x400d4051	2.2070506
144	0xbfab6226	-1.3389328
145	0xbf0af29d	-0.5427645
146	0xbf423859	-0.7586723
147	0xbf6591c8	-0.8967557
148	0xbe1c2cd9	-0.15251483
149	0xbe226a5d	-0.15860887
150	0x3fd6cf69	1.6782047
151	0x40291e59	2.6424773
152	0x3e82498e	0.25446743
153	0xbf1f3250	-0.62186146
154	0xbdc2fe10	-0.09521115
155	0xbd5012ac	-0.050799057
156	0x3f069f9a	0.5258728
157	0x3e2ab058	0.16668832
158	0xc042b8eb	-3.0425365
159	0x3f8bfc4d	1.0936371
160	0x3e3f4bb7	0.18681227
161	0xbe5c9f8c	-0.21545237
162	0x3e22431d	0.15845914
163	0xbd930fc2	-0.0718074
164	0xbf4f19e9	-0.8089891
165	0x3f147008	0.57983446
166	0xbfac0864	-1.3440061
167	0xbf9074b5	-1.1285616
168	0xbc332ccf	-0.010935976
169	0x40035dfd	2.0526116
170	0x3f42434f	0.75883955
171	0x3f0b3488	0.5437703
172	0xbfee69f9	-1.862609
173	0xc030248e	-2.7522311
174	0x3f47c049	0.7802778
175	0xbf9d4c95	-1.2288996
176	0x4073b732	3.8080564
177	0x402d3821	2.7065508
178	0x3c600907	0.013674027
179	0xbfe0b349	-1.7554713
180	0xc02ae1ed	-2.6700394
181	0xc00dbf36	-2.2147956
182	0x4084c310	4.1488113
183	0x3ecef628	0.40422177
184	0xc00255ff	-2.0364988
185	0x3dfb9532	0.12284316
186	0xbf46a604	-0.7759707
187	0x3f2965ef	0.66171163
188	0x3ef8d4f1	0.4859996
189	0xc01c0b0f	-2.438175
190	0x3e8040eb	0.25049528
191	0x3fc4aaf2	1.5364668
192	0x3fc767fa	1.5578606
193	0xbfc2c82a	-1.5217335
194	0xbff7e6df	-1.9367331
195	0x3fbb966c	1.465528
196	0xbe95164b	-0.2911857
197	0x40a81a87	5.253238
198	0x3e0ce6ae	0.13759872
199	0x3f861a59	1.0476791
200	0x40003405	2.003175
201	0xbd8a0b97	-0.06740492
202	0xbfda44b0	-1.7052212
203	0xbf577a7d	-0.8417128
204	0xbfacc4d9	-1.3497573
205	0x3fd5f659	1.6715804
206	0xbf4ab430	-0.79181194
207	0xbf8d509c	-1.1040225
208	0x4042d0f2	3.044003
209	0xbec765cb	-0.3894485
210	0x3f1e68d7	0.6187872
211	0xbfe2a54b	-1.7706693
212	0x3fabf6d2	1.3434699
213	0x3f8c043a	1.093879
214	0xbdbc2330	-0.09186399
215	0x3f0d2310	0.55131626
216	0xbf2dda68	-0.67911386
217	0x3fbf9aa5	1.4969069
218	0x3d8668c3	0.065629505
219	0xbfbaa7ec	-1.4582496
220	0xbecf5f3f	-0.40502355
221	0xbfbf64de	-1.4952657
222	0xbe6b7d0d	-0.22996922
223	0xbf8df2a5	-1.1089674
224	0xc05b24da	-3.4241242
225	0x3fa83e69	1.3144046
226	0x406bd1b0	3.6846733
227	0x3f7857de	0.97009075
228	0xc02405b8	-2.562849
229	0x3f58a36c	0.8462436
230	0xbfae895d	-1.363567
231	0x3f72495a	0.94643176
232	0xbe114303	-0.14185719
233	0xbe06ca4f	-0.13163112
234	0x3facb054	1.3491311
235	0x3f6b2acd	0.91862184
236	0xc0247b8e	-2.5700412
237	0x3db17b94	0.08666149
238	0x3e9b7f2a	0.30370456
239	0xbec11a1b	-0.3771523
240	0x3e963543	0.2933751
241	0xbf17c312	-0.5928203
242	0x3f2a6f30	0.6657591
243	0xbdf49b2d	-0.1194366
244	0xbf57bd6e	-0.8427342
245	0x3f82d44f	1.0221041
246	0x3f9b5123	1.2134136
247	0xbf996b76	-1.198592
248	0xbee618c8	-0.44940782
249	0x3fd83828	1.6892138
250	0xbec8a02c	-0.391847
251	0x3e1791e6	0.1480175
252	0x3f28630e	0.65776145
253	0xbf8b6b9d	-1.0892216
254	0x3f0304a2	0.51178944
255	0x3f60f61f	0.8787555

fc1.bias f4 [200]
0	0x3e141852	0.14462402
1	0x3ea3c486	0.31985873
2	0x3ff77eac	1.9335532
3	0x3fa1d045	1.2641684
4	0xbd208e75	-0.039198358
5	0x3f8359f1	1.0261823
6	0x3f3e5a1a	0.74356234
7	0xbe89b9c8	-0.26899552
8	0x3f8f4adb	1.1194719
9	0x3ec873ef	0.3915095
10	0x3f8db77f	1.1071624
11	0x3f3d96db	0.7405831
12	0xbf485beb	-0.78265256
13	0xbf04eb4c	-0.51921535
14	0x3f73ff66	0.9531158
15	0x3f941cf5	1.1571337
16	0xbfd275b6	-1.6442173
17	0xbed4475e	-0.414607
18	0xbf3853fd	-0.72003156
19	0xbf498a25	-0.78726417
20	0x3f555e60	0.8334713
21	0x3e3e252a	0.18568864
22	0xbf8689d7	-1.0510815
23	0xbfde06cc	-1.7345824
24	0x3d746d17	0.05967435
25	0x3f1a8440	0.6035805
26	0xbedceb62	-0.43148333
27	0x3ef4f8f7	0.47846195
28	0x3f95e7ee	1.1711404
29	0xbf16e113	-0.58937186
30	0x3f4c860e	0.7989205
31	0xbea9d6aa	-0.33171588
32	0x3fcbc7fc	1.5920405
33	0x3f62bba0	0.88567543
34	0x3fbf28a0	1.4934273
35	0x3fb3d3cb	1.4049009
36	0xbf14adff	-0.58077997
37	0x3f2916e3	0.6605055
38	0x3f5c2ac1	0.8600274
39	0x3e2d6657	0.16933571
40	0xbf7ca906	-0.9869541
41	0x3f838569	1.0275089
42	0xbfdcf782	-1.7263033
43	0xbfdb1f4e	-1.7118928
44	0xbf73d176	-0.9524149
45	0xbf896399	-1.073352
46	0xbf030392	-0.5117732
47	0x3fbfa57c	1.4972377
48	0xbf233ab8	-0.6376147
49	0xbef8262a	-0.48466617
50	0x3e061f24	0.13097817
51	0x40024d5e	2.035972
52	0xbebe7df3	-0.37205467
53	0x3eccfc46	0.4003622
54	0x3f00d190	0.50319767
55	0x3ff109a5	1.8831068
56	0x3d57eb27	0.052714493
57	0xbed64bcf	-0.41854712
58	0xbf99a1a1	-1.200245
59	0xbd689f9e	-0.056792848
60	0xbf4958e2	-0.7865125
61	0xbf86f63c	-1.0543895
62	0xbf4a13cd	-0.78936464
63	0xc00f4e44	-2.239152
64	0x3fe58f81	1.7934419
65	0xbf0901a0	-0.53518105
66	0x3ef73322	0.482812
67	0xbef5eacd	-0.480307
68	0x3ecac261	0.39601424
69	0xbed16329	-0.40895966
70	0x3f3cc816	0.73742807
71	0x3f016d56	0.5055746
72	0x3eab6008	0.33471704
73	0xbf1ff1f1	-0.6247855
74	0xbfd5d121	-1.6704446
75	0x3f95698e	1.1672838
76	0xbfae1344	-1.3599629
77	0xbf964708	-1.1740427
78	0xbfe97e12	-1.8241599
79	0xbe31fa87	-0.17380725
80	0xbfc8d77f	-1.5690764
81	0x3e8c5a8f	0.2741284
82	0x3e5cffa4	0.21581894
83	0x3f40d03b	0.75317734
84	0xbec68555	-0.387736
85	0xbf358cb3	-0.70917815
86	0x3f522bfe	0.82098377
87	0xbf089ae4	-0.53361344
88	0xbff61021	-1.9223672
89	0x3fd74b49	1.681985
90	0xbefc7d14	-0.49314177
91	0xbf348f03	-0.7053072
92	0x3e332658	0.17495096
93	0x3fd44d26	1.6586044
94	0x3ecf8826	0.4053356
95	0xbffcac4d	-1.9740082
96	0xbf0d3e7e	-0.5517348
97	0xbf299cc8	-0.66254854
98	0x3d91e44a	0.07123621
99	0x3f2c64d6	0.67341363
100	0xbf6788b3	-0.9044296
101	0xbfaf0418	-1.3673124
102	0xbf746ff8	-0.9548335
103	0xbfdfc1fe	-1.7481077
104	0xbc20fa6b	-0.009825329
105	0xbf2939fe	-0.66104114
106	0x3f2017cd	0.6253632
107	0x3f461743	0.77379245
108	0x3f81822d	1.0117851
109	0xbf3cda20	-0.7377033
110	0x3f898373	1.074324
111	0xbec63622	-0.38713175
112	0xbef331f5	-0.47499052
113	0xbffe774e	-1.9880159
114	0x3f4a34c6	0.78986776
115	0x3f02a743	0.5103647
116	0xbf63f0cd	-0.8903931
117	0x3f973e2e	1.1815851
118	0xba907a2c	-0.0011022738
119	0x3f7d6114	0.98976254
120	0x400b0701	2.1723025
121	0x3f64d55f	0.8938808
122	0xbf0695db	-0.5257241
123	0xbe60553d	-0.21907516
124	0x3f931fc2	1.1494067
125	0xbeef4e7e	-0.46739572
126	0xbf4623a8	-0.7739816
127	0x3f80514e	1.0024812
128	0x3e68158a	0.22664467
129	0xbf39295a	-0.7232872
130	0xbf8afd66	-1.0858581
131	0x3ed03203	0.40663156
132	0x3fcd9fec	1.6064429
133	0x3e60f644	0.21968943
134	0x3e33b5c9	0.17549814
135	0xbe570049	-0.20996203
136	0x3f163289	0.5867086
137	0x3d1a9e08	0.037748367
138	0x3fc963d9	1.5733596
139	0xbf8c4c06	-1.09607
140	0xbead9ea9	-0.3391011
141	0x3f28f52d	0.6599911
142	0x3fea448a	1.8302166
143	0x3f968695	1.1759821
144	0x3d5e6ed2	0.054304905
145	0xbf2c37aa	-0.67272437
146	0x3fa4148a	1.2818768
147	0xbfb37d9b	-1.4022707
148	0x3f8362ff	1.0264586
149	0xbff5d7fa	-1.9206536
150	0xbfb64e09	-1.4242564
151	0xbed33557	-0.41251633
152	0xbec9a395	-0.39382616
153	0x3fcc53d0	1.5963078
154	0xbef9cc39	-0.48788622
155	0x3f8f9e21	1.1220132
156	0x3f988a78	1.1917257
157	0xbfa2636f	-1.2686595
158	0x3eec772f	0.4618468
159	0x3f3e66cc	0.74375606
160	0x3f062ad5	0.52409106
161	0xbfacbcc3	-1.3495106
162	0x3d6351b1	0.05549783
163	0xbe3af623	-0.18257956
164	0x3f2ba020	0.67041206
165	0x3ea1a531	0.31571344
166	0xbe82c81b	-0.25543293
167	0x3facee60	1.3510246
168	0x3ea89a47	0.32930204
169	0x3f82b0f7	1.0210255
170	0xbfea2a86	-1.8294227
171	0xbfc53b4d	-1.5408722
172	0x3ea945b7	0.33061
173	0xbe1d71f6	-0.15375504
174	0x3f47a3d5	0.7798436
175	0xbf9554a8	-1.166646
176	0xbf346845	-0.704716
177	0xbfe37b06	-1.7771919
178	0xbfc838cf	-1.5642337
179	0xbe7bedf7	-0.24602495
180	0xbd2e2210	-0.042512953
181	0xbf2e578f	-0.68102354
182	0x3e87e9fd	0.26545706
183	0xbf896df4	-1.073668
184	0xbee99d0f	-0.4562764
185	0x3f88d210	1.0689106
186	0xbf586dfd	-0.8454283
187	0x3e94b7ff	0.29046628
188	0xbfdbae63	-1.7162594
189	0x3f894528	1.072423
190	0x3e499aad	0.1968791
191	0x3f28b29c	0.65897536
192	0xbf43fd40	-0.76558304
193	0xbda55835	-0.08073465
194	0xbeb87ddc	-0.36033523
195	0xbf38f10a	-0.72242796
196	0xbf0428f3	-0.51624984
197	0xbf9c073b	-1.2189707
198	0x3ee473a0	0.44619465
199	0x3f9d34e7	1.228177

fc2.weight f4 [100, 200]
0	0xbf6d07f7	-0.9259028
1	0x3ef92b87	0.4866602
2	0xbec20a4a	-0.37898475
3	0x3eb30138	0.34961867
4	0x3e2415c9	0.16023935
5	0x3e72dad8	0.23716295
6	0xbe877258	-0.26454425
7	0x3f76cd6c	0.964072
8	0x3ecda568	0.40165257
9	0x3e94666b	0.2898439
10	0xbf7a8432	-0.97857964
11	0x3f4e827a	0.8066784
12	0x3d842558	0.06452435
13	0x3ef56199	0.47926024
14	0x3f22777a	0.63463557
15	0xbd535862	-0.05159796
16	0xc0977ed2	-4.734231
17	0xbede5e58	-0.43431354
18	0x3e7d5379	0.24738874
19	0x3d6e00c0	0.058106184
20	0x3eebd157	0.4605815
21	0xc0196bde	-2.3972087
22	0xc04e800f	-3.226566
23	0x3f956b86	1.1673439
24	0xbedec58d	-0.43510094
25	0x3b0c439c	0.0021402603
26	0x3fdb9d82	1.7157443
27	0x3dfbb6bb	0.122907124
28	0xbed8c9b7	-0.42341396
29	0xbfe53b74	-1.7908769
30	0x3da72e5c	0.08163139
31	0x402caadc	2.6979284
32	0xbf82bd4a	-1.0214016
33	0x3e871007	0.26379415
34	0x3f392a2c	0.72329974
35	0xbe1f3d1a	-0.15550652
36	0xc01589dd	-2.3365395
37	0xbe3f8573	-0.1870325
38	0xbf4c7367	-0.7986359
39	0xbe512f0e	-0.20428106
40	0x3f378624	0.7168906
41	0xbebb9dcc	-0.36643827
42	0xbf363bfe	-0.7118529
43	0xc014c959	-2.3247893
44	0x3f7ccee2	0.9875318
45	0xbec45006	-0.38342303
46	0xbfffbacf	-1.9978884
47	0x3ea6319d	0.32459727
48	0xbec5c65d	-0.38627902
49	0xbf241811	-0.6409922
50	0xbf07ea15	-0.53091556
51	0x3fe1f28f	1.7652148
52	0x3f8861e5	1.0654875
53	0xbf6a0522	-0.9141408
54	0xbef9670b	-0.48711428
55	0x3fe605f7	1.797057
56	0xbebf9762	-0.37420183
57	0xbe4ebdf9	-0.20189656
58	0xbe6411d3	-0.22272424
59	0x3e02b36d	0.12763758
60	0x3fb08f46	1.3793724
61	0x3e412fed	0.18865938
62	0xbfc86391	-1.5655385
63	0xbe25ef3b	-0.1620454
64	0xbebd3019	-0.36950758
65	0x3fa33d3a	1.275306
66	0xc0217f40	-2.5233917
67	0xbe24f95c	-0.16110748
68	0x3db633e9	0.0889662
69	0x3f0d7e4b	0.5527083
70	0x3f344f28	0.7043328
71	0x3fbf12b2	1.492758
72	0xbce1983c	-0.027538411
73	0xbc429ac4	-0.011877719
74	0x3e2a85cb	0.166526
75	0x3f9fdabf	1.2488631
76	0xbd5c1b4d	-0.053736974
77	0x3e8b103e	0.2716083
78	0xbfc837a7	-1.5641984
79	0xbeb32a97	-0.3499343
80	0xbf30f158	-0.6911826
81	0x3f7d78d5	0.990125
82	0xbe82f76c	-0.25579393
83	0x3fe1514a	1.7602932
84	0xbfed6183	-1.8545383
85	0xbf000a61	-0.50015837
86	0x3fb325a0	1.3995857
87	0xbf81dd3e	-1.0145643
88	0xbeb26882	-0.34845358
89	0x3e2e4430	0.17018199
90	0x3feaa05c	1.8330188
91	0xc0133792	-2.3002667
92	0x3f2e5581	0.6809922
93	0x3f2fd4aa	0.68683875
94	0xbe24009e	-0.1601586
95	0xc0120eeb	-2.2821605
96	0xbff11923	-1.8835796
97	0x3d856e34	0.0651516
98	0xbe4420df	-0.19153164
99	0x3f0b4efb	0.5441739
100	0xbe8824fd	-0.2659072
101	0xbf8bf7f6	-1.0935047
102	0x3e58269a	0.21108475
103	0x3f179eae	0.592265
104	0x3f888acd	1.0667359
105	0xbf2d448d	-0.67682725
106	0xbe661ef0	-0.22472739
107	0xbfcf1611	-1.6178609
108	0xc0453dcc	-3.0818968
109	0xc001ed4b	-2.0301082
110	0xc0346c79	-2.8191206
111	0xbdf6ec19	-0.12056751
112	0xbd83b990	-0.064318776
113	0xbdab748b	-0.08371838
114	0xc0543453	-3.3156936
115	0xbf4c5333	-0.7981445
116	0x3f1cb2dd	0.61210424
117	0xbef9752b	-0.48722205
118	0xbfe3690f	-1.7766436
119	0x3ff190e1	1.8872339
120	0x3e3fa35e	0.18714663
121	0x3e26d835	0.16293414
122	0x403fae36	2.995008
123	0xbd857009	-0.0651551
124	0xbd79f076	-0.061020337
125	0x3e9c9bc2	0.30587584
126	0xbe5fb0a1	-0.21844722
127	0x3fa28fb8	1.270011
128	0xbebece90	-0.3726697
129	0x3ed2b867	0.41156313
130	0xbf1f467e	-0.6221694
131	0xbf3e5351	-0.7434588
132	0x3e4fa446	0.20277509
133	0xbf30af5c	-0.6901758
134	0xbd04122d	-0.032243896
135	0xbf4a4840	-0.79016495
136	0x403d4e46	2.9579024
137	0x3f7eaf18	0.9948592
138	0x3f77f547	0.9685864
139	0xbe8b17d5	-0.2716662
140	0x3fa72b50	1.3060093
141	0x3f46aaa4	0.77604127
142	0xbdb80755	-0.089857735
143	0xbebf405c	-0.3735379
144	0x3ea5cd24	0.32383072
145	0xbf866b19	-1.0501434
146	0x3f29405c	0.6611383
147	0xbee3cb2c	-0.44490945
148	0xbf86f8cc	-1.0544677
149	0xbe7a3171	-0.24432923
150	0xbe456b08	-0.1927911
151	0xbfc69f8a	-1.5517437
152	0xbe2eb6a4	-0.1706186
153	0x3ff5eaaa	1.9212239
154	0x3f1a791e	0.6034106
155	0xbe6841c5	-0.22681339
156	0x3f212709	0.6295019
157	0xc01abb9f	-2.4177015
158	0x3f4c7f60	0.7988186
159	0x3f0e8e4a	0.55685866
160	0xbe02bc7b	-0.12767212
161	0x3fa2a00c	1.2705092
162	0xbeeaa074	-0.4582554
163	0xbf619341	-0.88115317
164	0x3fd224ea	1.6417515
165	0xbd0c3fcc	-0.03424053
166	0x3ffee0cd	1.9912354
167	0xc01cba0b	-2.4488552
168	0xbf20f393	-0.62871665
169	0xbf65229b	-0.8950593
170	0x3e4c8a3a	0.19974604
171	0x3eaa09a7	0.3321049
172	0xbf831097	-1.0239438
173	0x3da44852	0.080216065
174	0xbeb31b10	-0.34981585
175	0xbf88ad9d	-1.0677983
176	0xbd4a4042	-0.049377687
177	0xbf4f286b	-0.8092105
178	0x3fa08bba	1.2542641
179	0x3fb72869	1.4309207
180	0x3f31970c	0.69371104
181	0x3f2d1fc5	0.676266
182	0x3d1fa76e	0.038978033
183	0x3ef9a7f2	0.48760945
184	0xc04ee383	-3.2326362
185	0xbeb81726	-0.3595516
186	0xbf8241f8	-1.0176382
187	0x3f62534a	0.8840834
188	0xbf4861d9	-0.78274304
189	0x3ecccb17	0.39998695
190	0xbee939dc	-0.45551956
191	0xbf6563af	-0.8960523
192	0x3e8a07bc	0.26959026
193	0x3f45eb0e	0.7731179
194	0x3f27ba60	0.6551876
195	0x3f8b7142	1.0893939
196	0x3f92cf97	1.1469601
197	0xbf772748	-0.96544313
198	0x3ea8f747	0.33001158
199	0x3f04634d	0.5171402
200	0xbd62dcd0	-0.055386364
201	0xbf57f792	-0.8436214
202	0xbf351f36	-0.7075075
203	0x3f804735	1.0021731
204	0x3e6e1942	0.23251823
205	0x3cc000ee	0.023437943
206	0x3eebb6b2	0.46037823
207	0xc01e3fbc	-2.47264
208	0xbf6572d7	-0.89628357
209	0xbf624392	-0.88384354
210	0x3faaced7	1.3344373
211	0x3f463390	0.7742243
212	0x3eabed4d	0.33579484
213	0x401f8fc5	2.49315
214	0x3e024ad9	0.12723865
215	0x3f23d0ad	0.6399029
216	0x3f6e7ff9	0.9316402
217	0x3f8627d1	1.0480901
218	0xbf946549	-1.159341
219	0x3ef7eb9d	0.48421946
220	0xbefd8726	-0.49517173
221	0x3ef4e749	0.47832707
222	0xbf09bfe5	-0.5380843
223	0xbfb97fbf	-1.449211
224	0x3ee65eae	0.4499411
225	0xc0099ca9	-2.1501868
226	0xbf77569f	-0.9661655
227	0xbfab7337	-1.3394536
228	0x3f3cf394	0.7380917
229	0xbf0ca433	-0.5493805
230	0xbf1549f9	-0.58316
231	0x3e9e0aa2	0.30867487
232	0x3f9b3db2	1.2128203
233	0x3f0f7430	0.56036663
234	0x3ebae941	0.36506084
235	0xbe326445	-0.17421062
236	0x3f6c13df	0.9221782
237	0x3ec84b71	0.39120057
238	0xbe89823b	-0.2685717
239	0xc02478f0	-2.5698814
240	0xbf58a58e	-0.84627616
241	0xbf31713c	-0.69313407
242	0x3ef0064a	0.46879798
243	0x40100928	2.2505589
244	0x3ed4e00e	0.4157719
245	0x3ed2d1bc	0.4117564
246	0x4093dc12	4.620614
247	0x3ed529d0	0.41633463
248	0x3f3ecdb4	0.7453263
249	0x3ec954f8	0.3932264
250	0x3d90c9a6	0.070697114
251	0x3fab8e18	1.3402739
252	0xbdd13d0a	-0.102167204
253	0x3f1c2029	0.6098657
254	0x3dbadb0f	0.09123813
255	0xbf1896e5	-0.59605247

fc2.bias f4 [100]
0	0x406d76f2	3.7103848
1	0x3df3f3dc	0.11911747
2	0xbe1c47f1	-0.15261818
3	0xbda9043b	-0.0825276
4	0x40345796	2.8178458
5	0x40a3b559	5.115887
6	0x400eeb06	2.2330947
7	0xbf87be95	-1.0605036
8	0xc002c307	-2.0431535
9	0x406e5cb5	3.7244084
10	0x40394da2	2.8953633
11	0xc0933249	-4.5998883
12	0xc09966f9	-4.79382
13	0x3fe2019e	1.7656744
14	0xc01b5061	-2.426781
15	0x40447a4e	3.069965
16	0xc03b78e1	-2.9292529
17	0xc0218e32	-2.524304
18	0x4056440e	3.3479037
19	0x40025c6e	2.0368915
20	0xbf82d1a2	-1.0220225
21	0x3ff52af2	1.9153731
22	0xbb29fb08	-0.002593698
23	0xc0139f54	-2.3065996
24	0xc044224a	-3.0645928
25	0x40b2c439	5.586453
26	0xc0052d18	-2.0808773
27	0x3ed42c47	0.4144003
28	0x4050d2f1	3.2628748
29	0x40f06f5c	7.5135937
30	0xc0254925	-2.5825894
31	0x400cf4e3	2.2024467
32	0x3f2e5cb9	0.68110234
33	0x409d0d39	4.907864
34	0x3fb72935	1.430945
35	0x3f8f3844	1.1189046
36	0x40110ece	2.2665286
37	0x401bc3da	2.4338288
38	0xc0cd830a	-6.422246
39	0x40499a24	3.150033
40	0xbfd91e52	-1.6962378
41	0xbf8d4123	-1.1035503
42	0x40431216	3.0479789
43	0xbf81c557	-1.0138348
44	0x405d9691	3.4623148
45	0xbfb43cd3	-1.4081062
46	0x3f9afec8	1.2109003
47	0x4001723d	2.0225976
48	0x3f1a9f59	0.60399395
49	0x3fb1edb6	1.3900669
50	0x40a62e8a	5.193181
51	0xbf505c2e	-0.81390655
52	0x405d1f81	3.4550478
53	0x3fcd1449	1.6021816
54	0xc0583a57	-3.3785608
55	0xbfd4077d	-1.6564785
56	0x3e93fd0d	0.28904
57	0xbf062a09	-0.5240789
58	0xc03036d3	-2.7533462
59	0xc03f6d2b	-2.991038
60	0xbfaddbd8	-1.3582716
61	0xc069b12a	-3.6514382
62	0x3f2c3f41	0.6728402
63	0xbef75ad8	-0.48311496
64	0xbfcd61e9	-1.6045505
65	0x40312a98	2.7682247
66	0x3edb05e8	0.42777944
67	0x40908a81	4.516907
68	0xbf4d3751	-0.8016253
69	0xc096ef86	-4.7167387
70	0xbedc0756	-0.42974347
71	0x3fd7a2e8	1.684659
72	0xbf0485d3	-0.517667
73	0xc0209a3e	-2.5094142
74	0xc0904c5c	-4.509321
75	0x4034372a	2.815867
76	0xc02ca781	-2.6977236
77	0xc01ca16a	-2.447352
78	0xc064b434	-3.5734987
79	0xbf44e68b	-0.7691428
80	0x40d41f73	6.628839
81	0xbe56dd76	-0.20982918
82	0x3fa5d859	1.2956649
83	0xc00d61ad	-2.2090867
84	0xbebce865	-0.36896053
85	0xbf8bff1c	-1.0937228
86	0xc029bce0	-2.652153
87	0xc00170c0	-2.0225067
88	0x4035dfcb	2.8417842
89	0xbff86bd8	-1.9407911
90	0x409327e3	4.598619
91	0x3fef181d	1.8679234
92	0x3d565446	0.052326463
93	0xbf9f2e1b	-1.2435945
94	0x4045083d	3.0786278
95	0x40293d15	2.6443532
96	0x3c421355	0.011845429
97	0x408f04e3	4.4693465
98	0xc0aaeecc	-5.34165
99	0x406dfb42	3.7184606

fc3.weight f4 [10, 100]
0	0x3db39e2e	0.08770405
1	0xbc0bfccb	-0.008544157
2	0xbe4df639	-0.20113458
3	0x3de963ce	0.11395989
4	0x3dc6f30d	0.09714327
5	0x3dd5bee3	0.104367994
6	0x3d1a8f0a	0.03773407
7	0xbd28a982	-0.04117728
8	0xbd7d5690	-0.06185013
9	0x3b13bf48	0.0022544432
10	0xbe76cec8	-0.24102318
11	0xbe13a297	-0.14417492
12	0x3d9b52d8	0.075841606
13	0xbd99de56	-0.0751311
14	0x3d53d6a6	0.051718377
15	0xbc8d5fd6	-0.017257612
16	0xbe1698ee	-0.14706776
17	0xbdef631a	-0.11688824
18	0x3e9b223a	0.3029955
19	0x3d832a77	0.06404584
20	0x3de6e237	0.11273616
21	0x3e8b90af	0.27258822
22	0xbe930267	-0.2871277
23	0x3c28c947	0.0103018945
24	0xbdeaac84	-0.11458686
25	0xbd9fb6d7	-0.07798546
26	0x3ba05c3c	0.0048938077
27	0x3e8b1037	0.27160808
28	0xbb4fc189	-0.003170105
29	0x3e4a4977	0.19754587
30	0x3e544eaa	0.20733133
31	0x3df2ef38	0.118620336
32	0x3ce14a57	0.027501268
33	0xbdd8f1cd	-0.10592995
34	0xbe4d8373	-0.20069675
35	0xbe8155f9	-0.25260904
36	0x3e78d94b	0.2430164
37	0x3e8ffbb3	0.2812172
38	0xbe20ebaa	-0.15714899
39	0x3d9bf6d4	0.07615438
40	0xbe48a3ea	-0.19593778
41	0xbe1c9e94	-0.15294868
42	0x3dd5856f	0.10425841
43	0x3c5fd520	0.013661653
44	0x3e722cc4	0.23649889
45	0xbdbd00e5	-0.09228686
46	0xbda1fb32	-0.0790924
47	0xbe32e360	-0.17469549
48	0x3e1cb5c6	0.15303716
49	0xbe0cf0fa	-0.137638
50	0x3e813487	0.25235388
51	0xbb5db671	-0.0033830667
52	0x3dca68e6	0.09883289
53	0x3d39b274	0.0453362
54	0x3d475f57	0.048674908
55	0x3d77956f	0.060445245
56	0x3da3614a	0.07977541
57	0xbd0df08c	-0.03465323
58	0x3dc831a3	0.097750925
59	0xbe9bfa8f	-0.304646
60	0x3e9a6b8e	0.30160183
61	0xbdf5c1c5	-0.11999849
62	0x3d7170d3	0.05894549
63	0xbdfe3581	-0.12412549
64	0x3e694d55	0.22783406
65	0xbe3cdef4	-0.18444425
66	0xbda6fb5b	-0.08153411
67	0x3e053e5b	0.13012068
68	0x3d44d8b6	0.048058234
69	0xbdb17076	-0.08664028
70	0xbe4ddfe6	-0.20104942
71	0x3e81515b	0.25257382
72	0xbddbaf46	-0.1072679
73	0xbe43ac22	-0.19108632
74	0xbe328961	-0.17435218
75	0x3de99594	0.11405483
76	0x3d0e242a	0.034702457
77	0xbdf7411b	-0.12072965
78	0x3d88ee3e	0.06686066
79	0x3d8b3a93	0.067982815
80	0xbd283625	-0.04106726
81	0x3e759708	0.23983395
82	0x3aa50ae6	0.0012591749
83	0xbea447e4	-0.32086098
84	0xbe864174	-0.26221812
85	0xbdd65f74	-0.10467425
86	0xbde87aa3	-0.11351516
87	0x3e0c065f	0.13674305
88	0xbd9c01aa	-0.07617505
89	0xbe6e2c46	-0.23259076
90	0xbd316468	-0.043308645
91	0x3e752dd7	0.23943268
92	0x3dd75d63	0.10515859
93	0x3d8062da	0.062688544
94	0x3df488ce	0.11940156
95	0x3d8af545	0.06785063
96	0xbd8bf42f	-0.06833684
97	0x3e7148af	0.23562883
98	0x3ca501ce	0.020142462
99	0xbd8c44b8	-0.068490446
100	0xbd7fad16	-0.062420927
101	0xbd863a6c	-0.06554112
102	0xbd4e0823	-0.05030073
103	0x3e5152a9	0.20441689
104	0xbe146e61	-0.14495231
105	0x3df0f5bb	0.11765619
106	0xbd483658	-0.04887995
107	0xbdd0701b	-0.101776324
108	0xbdcd8f49	-0.10037095
109	0xbce00607	-0.027346624
110	0x3aaf3a0c	0.001336874
111	0xbe1ddcba	-0.15416232
112	0xbdfbea0e	-0.12300502
113	0x3d51d416	0.05122765
114	0xbda59a3b	-0.08086058
115	0x3d768e12	0.060194083
116	0x3c1c7603	0.009549621
117	0xbe9c230e	-0.30495495
118	0xbdb9ca48	-0.09071785
119	0xbe96b0e6	-0.29431838
120	0x3d3982a4	0.045290604
121	0xbd2f85e5	-0.0428523
122	0x3c9fd5a7	0.019511057
123	0x3d1f771d	0.038931955
124	0xbd539cd1	-0.051663224
125	0x3e06556e	0.13118526
126	0xbe19e141	-0.15027334
127	0xbdad6021	-0.08465601
128	0xbe1df47b	-0.15425293
129	0xbdd1b3be	-0.10239361
130	0xbdd0b3f4	-0.10190573
131	0x3cb92785	0.022601852
132	0x3e58137b	0.21101181
133	0xbdf56412	-0.119819775
134	0xbdf6ba7e	-0.12047289
135	0x3c8b5ec2	0.017012957
136	0xbcdd5abd	-0.027020806
137	0x3d773bb3	0.060359668
138	0x3cecb311	0.02889398
139	0xbe1086f0	-0.14113975
140	0xbe541249	-0.207101
141	0x3daafea9	0.08349354
142	0xbd518b1e	-0.051158063
143	0xbd89048e	-0.06690322
144	0x3d754d0e	0.05988794
145	0x3e0c7d4d	0.13719673
146	0x3d90e6cb	0.0707527
147	0x3dfd2547	0.12360626
148	0x3dd48a72	0.10377969
149	0x3dd0121b	0.10159703
150	0x3e3f085b	0.18655531
151	0x3c521153	0.012821513
152	0x3e7d7302	0.24750903
153	0x3ea8f4ae	0.32999176
154	0xbea045c9	-0.31303242
155	0x3ca6e98f	0.020375041
156	0xbe16d00f	-0.14727806
157	0xbdd76ab0	-0.10518396
158	0x3e1e5205	0.15460975
159	0xbe1850ff	-0.14874648
160	0x3af790a8	0.0018887715
161	0xbe75763f	-0.23970889
162	0x3d6b193f	0.057397123
163	0x3eabd499	0.33560637
164	0x3c97c233	0.018525219
165	0x3cc5ec11	0.024160417
166	0x3a25ae82	0.0006320254
167	0x3e8fed9c	0.2811097
168	0x3e499a99	0.1968788
169	0xbe4db7ed	-0.20089693
170	0xbe42f30c	-0.19038028
171	0xbd98c9bc	-0.07460353
172	0xbe2bfa53	-0.1679471
173	0xbe4b5fc8	-0.19860756
174	0xbd81b111	-0.06332601
175	0x3d296e6f	0.041365083
176	0x3e79e2a1	0.24402858
177	0xbe7cbc55	-0.24681218
178	0xbe0c4a08	-0.13700116
179	0x3e4e3601	0.20137788
180	0xbe2489a5	-0.16068132
181	0x3d4d6780	0.050147533
182	0xbdcd1a0b	-0.10014733
183	0xbe2a480c	-0.16629046
184	0xbc4a0d13	-0.012332219
185	0xbd185a3b	-0.037195425
186	0x3da372c6	0.07980876
187	0x3e629332	0.22126463
188	0xbe5bed88	-0.2147733
189	0x3d4c6cdf	0.049908515
190	0x3e911b5e	0.28341192
191	0x3ca525ca	0.02015962
192	0x3dc02056	0.093811676
193	0xbc959ecc	-0.018264197
194	0x3de3c5e5	0.1112173
195	0x3e84e5d2	0.2595659
196	0x3ccb3c27	0.024808956
197	0x3d60e028	0.054901272
198	0xbd748279	-0.05969474
199	0xbde4407a	-0.111451104
200	0xbcffb0ec	-0.031212293
201	0xbe381469	-0.17976536
202	0x3e93650e	0.28788036
203	0x3e7fadcc	0.24968642
204	0xbe2c1053	-0.16803102
205	0x3c19663a	0.009362752
206	0x3e8b096e	0.27155632
207	0xbe86326b	-0.2621034
208	0x3b3946aa	0.0028270879
209	0xbdcc4656	-0.09974353
210	0x3d395b0d	0.04525285
211	0x3e782716	0.2423366
212	0x3e3ec85e	0.18631122
213	0xbdfb8791	-0.122817166
214	0x3da60be0	0.08107734
215	0xbded849f	-0.11597561
216	0x3e0ecbef	0.13944982
217	0x3e56f49a	0.20991746
218	0x3e5062a1	0.20350124
219	0x3e36685d	0.17813249
220	0x3e237005	0.15960701
221	0x3e1e9975	0.15488227
222	0xbd969098	-0.07351798
223	0x3e439315	0.19099076
224	0xbe5fae3e	-0.21843812
225	0x3da904fc	0.08252904
226	0x3df2ee60	0.11861873
227	0x3e416e40	0.18889713
228	0xbe90f60f	-0.28312728
229	0x3e26349f	0.16231011
230	0x3d4cf8ed	0.05004208
231	0xbe992899	-0.29913786
232	0x3e429cab	0.19005077
233	0x3bedc73c	0.0072564166
234	0xbe14f22a	-0.14545503
235	0xbc07326b	-0.008251767
236	0xbe97698f	-0.29572722
237	0x3e38c8d1	0.18045355
238	0x3d5e5bb7	0.054286685
239	0xbd994f18	-0.07485789
240	0xbd0185e7	-0.03162184
241	0xbe6fb159	-0.23407497
242	0xbe5bf455	-0.21479924
243	0x3e12eaa5	0.14347322
244	0xbd07757c	-0.033071026
245	0x3e14bcf3	0.14525203
246	0x3e846e09	0.258652
247	0xbd844035	-0.06457559
248	0x3e94fc0c	0.29098547
249	0xbda20958	-0.079119384
250	0xbcb63c9c	-0.022245698
251	0xbd8edbaf	-0.06975495
252	0x3dea10bc	0.11428973
253	0x3d679e6f	0.05654758
254	0xbc31de28	-0.010856189
255	0x3f103607	0.5633244

fc3.bias f4 [10]
0	0x3eab9024	0.33508408
1	0xbea1b865	-0.31585994
2	0x3c6f026c	0.01458798
3	0x3eb23830	0.34808493
4	0x3fd15df2	1.6356795
5	0xbf0095fc	-0.5022886
6	0x3df58e63	0.11990049
7	0x3ea4f7cd	0.32220307
8	0xbda92839	-0.08259625
9	0x3da35955	0.07976023

fc4.weight f4 [7, 10]
0	0x3fceef65	1.6166807
1	0x3fe52d86	1.7904518
2	0xbfbbe7c4	-1.4680104
3	0xc018dd37	-2.388502
4	0x3fd3618c	1.6514144
5	0x3e6a7860	0.22897482
6	0x3faafa7a	1.3357689
7	0xbfe9cb40	-1.8265152
8	0xbf9181e1	-1.1367761
9	0xbdb7223b	-0.08942076
10	0xbe11e1bd	-0.14246269
11	0xc0513735	-3.2689946
12	0x3f8220bb	1.0166239
13	0x3f2e5f39	0.6811405
14	0x3fb8f03d	1.4448315
15	0x403d35c7	2.9564073
16	0x3f86dd6d	1.0536324
17	0x3ec10d04	0.37705243
18	0xc02da1e6	-2.7130065
19	0x4021eba1	2.5300066
20	0xbfd20f27	-1.6410874
21	0x3fe973dc	1.8238482
22	0x3fe5e8f2	1.7961714
23	0x3f9cdd0f	1.2254962
24	0xbe975cb1	-0.29562905
25	0xc01b2f32	-2.4247556
26	0x3eb8a497	0.36063072
27	0xbe11fee4	-0.1425739
28	0xbf4e254c	-0.8052566
29	0xbf9ea1cf	-1.239313
30	0x3fad9082	1.3559725
31	0xbf4d849d	-0.80280477
32	0x3fa8a2f0	1.3174725
33	0x3f8dbd73	1.107344
34	0xbdd46749	-0.103712626
35	0x3eced94f	0.40400168
36	0x3fce9054	1.6137795
37	0xbf5d9e8a	-0.86570036
38	0x3fef0725	1.8674055
39	0xc0392e9c	-2.8934698
40	0xc005eb82	-2.0924993
41	0x3f9cc9a5	1.2249037
42	0x3e8c8262	0.27443224
43	0xbed8edde	-0.42368978
44	0xbefabc61	-0.48971847
45	0x3f05b6e8	0.5223222
46	0xc0595470	-3.3957787
47	0x3fd13605	1.634461
48	0x3fdd688e	1.7297533
49	0x3ea6b4fe	0.3255996
50	0x3fc89f48	1.5673609
51	0xbfcaf798	-1.585681
52	0xbe93da84	-0.28877652
53	0x3efb715d	0.49109927
54	0xc04165f6	-3.0218482
55	0xbe858f63	-0.26085958
56	0x3f1c823a	0.6113621
57	0x3ff17190	1.8862782
58	0xbea7ce83	-0.32774743
59	0x3efc478d	0.4927334
60	0xbfd03dba	-1.6268837
61	0xbfe96210	-1.8233051
62	0xbffcfdea	-1.9764988
63	0xbee969b0	-0.45588446
64	0x3f14ec00	0.5817261
65	0xbffdbb15	-1.9822718
66	0xc05a4cc5	-3.4109356
67	0xbfa91386	-1.3209083
68	0x3fdc73d9	1.7222854
69	0x403cac32	2.94801

fc4.bias f4 [7]
0	0xc00140fb	-2.019591
1	0xbed61e4d	-0.41819993
2	0x3f48e61b	0.78476113
3	0x3f2c2e13	0.67257804
4	0x3fe7dea2	1.8114817
5	0x4003a6f8	2.057066
6	0xc06bc88a	-3.684115
